results/mfdwc-cnn/a-c/latest_FE_a-c.pth (torch, 415473 bytes, 12 tensors)

conv1.weight f4 [32, 1, 7, 7]
-0.35515338 -0.24396223 -0.41098383 -0.3232687 -0.49074447 -0.38387626 -0.26082298 0.025727889
-0.030815596 -0.09916803 -0.22813898 -0.13635606 -0.23573007 -0.082359985 0.07956709 0.00027785762
-0.016881917 -0.015926894 -0.05041865 -0.109805085 -0.07495259 -0.13644311 -0.14889139 -0.14723642
-0.2061391 -0.060464 -0.17053722 -0.12809047 -0.028984476 0.00093595515 -0.04786013 0.01821492
-0.07183756 -0.013296976 -0.07459369 0.02279602 0.021708885 0.009006935 0.010129465 -0.05509811
-0.027988894 -0.063274026 -0.0017905802 -0.004407913 0.027563915 -0.039152123 0.029367551 -0.020748015
0.025516773 -0.11315791 -0.18906231 0.045384876 0.09618356 0.039410558 0.0683409 0.11163368
-0.14865366 -0.19033654 0.06984686 0.10718012 0.0062840413 0.060386833 0.029190596 -0.21023872
-0.25356165 0.09037931 0.078652106 0.0814369 0.10804118 0.0934822 0.06188094 -0.08113883
0.10043024 0.15702806 0.20478141 0.28623626 0.14623344 -0.054301348 -0.20921649 0.0057735913
0.033948738 0.06866741 -0.025201663 -0.08366681 -0.07282972 -0.21663041 0.035865013 0.027281314
-0.055117264 0.007836652 -0.048062824 -0.08723118 -0.122375794 0.03204924 0.023349643 -0.012137311
-0.08479457 -0.008126637 -0.007728674 0.07976515 0.10956296 0.0011940108 -0.02167365 -0.008137356
0.021759378 -0.008143734 -0.0045592156 0.020037105 0.028997475 -0.093367174 0.003915485 -0.062392402
-0.3252866 -0.43292522 -0.37503406 -0.43022692 -0.47092983 -0.44670045 -0.42061868 -0.074792184
-0.0519229 -0.019506415 -0.0887551 -0.028631916 0.0025924444 0.004925645 -0.012380481 -0.018220242
-0.041033108 -0.009000086 -0.047677908 0.009098481 -0.029274605 0.000827177 -0.016343452 -0.030851576
0.008630139 -0.031090109 -0.022242906 -0.033260867 0.012486124 0.0073662815 -0.0065103243 0.022117477
-0.010971203 0.006145891 0.0013634533 -0.05551761 -0.014517423 -0.049046107 -0.058045145 0.08518556
0.07185093 0.10779146 -0.052593976 -0.018330706 -0.035579123 -0.009604409 0.08038213 -0.012717515
-0.020613013 -0.18354349 -0.035773676 -0.005974486 0.07340965 0.12750675 0.09245107 -0.013146782
0.14092249 0.18745835 0.12078417 0.21239235 0.3071857 0.24210271 0.20987044 -0.10486687
-0.0911965 -0.07021117 0.026797185 -0.030953852 0.025620604 0.000587929 -0.0645272 -0.102457725
-0.070369646 -0.024780761 -0.054269154 -0.021095607 0.023996688 -0.037329648 -0.051071513 -0.08502802
-0.051737968 -0.016489156 -0.1045564 -0.09430679 0.013580513 0.059875127 0.01925195 -0.091863066
-0.034707025 0.08913954 0.033438057 0.035956133 0.029800633 -0.05115294 -0.1385571 -0.049730822
0.10316071 0.065873496 0.029330913 0.0638411 -0.12928589 -0.20671722 -0.07290754 0.21848817
0.12843587 0.20546494 0.17553934 0.07282298 0.039799005 0.15764593 0.35689944 0.32109553
-0.040482864 -0.09955932 -0.10954326 -0.14637381 -0.073718466 0.06703903 -0.002939015 -0.13071425
-0.06414496 -0.05715055 -0.10806559 -0.10116748 0.00084825483 0.01448493 -0.12068425 -0.025094308
-0.029291239 -0.03671984 -0.040328257 0.00066356745 -0.02948102 -0.548 -0.3501083 -0.7150271
-0.88348985 -0.5477671 -0.8556224 -1.1276752 -0.016026255 -0.048168004 -0.13127778 0.012360767
00000000: aad6 b5be 3cd1 79be 796c d2be 7a83 a5be
00000010: dc42 fbbe 6e8b c4be 978a 85be 4bc3 d23c
00000020: fd70 fcbc 9c18 cbbd 449d 69be eca0 0bbe
00000030: 3963 71be 5aac a8bd 12f4 a23d 6bad 9139
00000040: f24b 8abc 1e79 82bc c983 4ebd 7de1 e0bd
00000050: be80 99bd beb7 0bbe fc76 18be 25c5 16be
00000060: 2116 53be 19a9 77bd 4fa1 2ebe 262a 03be
00000070: da70 edbc e35a 753a fc08 44bd 7537 953c
00000080: 921f 93bd 8fdb 59bc 94c4 98bd b8be ba3c
00000090: d5d6 b13c d391 133c 0ef6 253c 8eae 61bd
000000a0: f748 e5bc d095 81bd e7b1 eaba 4170 90bb
000000b0: b8cd e13c fa5d 20bd 3894 f03c bef7 a9bc
000000c0: 8d08 d13c 56bf e7bd 8d99 41be 7ee5 393d
000000d0: e3fb c43d f76c 213d 50f6 8b3d 33a0 e43d
000000e0: aa38 18be 95e7 42be df0b 8f3d 4081 db3d
000000f0: 5cea cd3b 2f58 773d 1e21 ef3c d248 57be
00000100: d5d2 81be ca18 b93d 5b14 a13d 64c8 a63d
00000110: b244 dd3d 9873 bf3d de76 7d3d 1d2c a6bd
00000120: 5fae cd3d f7cb 203e 38b2 513e 8f8d 923e
00000130: 38be 153e 176b 5ebd d93c 56be 6530 bd3b
00000140: d50d 0b3d 80a1 8c3d b873 cebc 8159 abbd
00000150: c027 95bd 5dd4 5dbe 31e7 123d 107d df3c
00000160: a4c2 61bd 4d65 003c 86dd 44bd 43a6 b2bd
00000170: 29a0 fabd 1046 033d c047 bf3c 92db 46bc
00000180: c7a8 adbd 9625 05bc d140 fdbb e95b a33d
00000190: 8c62 e03d 5b80 9c3a f08c b1bc 8b52 05bc
000001a0: b940 b23c 4c6d 05bc 7965 95bb db24 a43c
000001b0: 1d8c ed3c 4a37 bfbd 784d 803b 2d8f 7fbd
000001c0: f78b a6be 60a8 ddbe 7704 c0be b446 dcbe
000001d0: b71d f1be ecb5 e4be 555b d7be a52c 99bd
000001e0: 1bad 54bd ebcb 9fbc 3cc5 b5bd 7b8d eabc
000001f0: 00e6 293b 4e67 a13b 80d7 4abc 9e42 95bc
00000200: 5512 28bd 1975 13bc e949 43bd cc11 153c
00000210: 4cd1 efbc e9d6 583a b4e2 85bc 72bc fcbc
00000220: 6d65 0d3c afb0 febc c136 b6bc 8c3c 08bd
00000230: 9a92 4c3c d960 f13b 8f54 d5bb b62f b53c
00000240: 90c0 33bc 7863 c93b e7b5 b23a 6f66 63bd
00000250: 7cda 6dbc 92e4 48bd bfc0 6dbd c475 ae3d
00000260: 9526 933d c5c1 dc3d c86c 57bd 472a 96bc
00000270: 6abb 11bd d05b 1dbc 639f a43d 205d 50bc
00000280: 9fdc a8bc d3f2 3bbe 6b87 12bd 9fc5 c3bb
00000290: cc57 963d 2191 023e fd56 bd3d 9a65 57bc
000002a0: fc4d 103e 15f5 3f3e b15d f73d 617d 593e
000002b0: 7247 9d3e c6e9 773e 47e8 563e 71c4 d6bd
000002c0: 3bc5 babd e0ca 8fbd c585 db3c ef92 fdbc
000002d0: 4de2 d13c 3f1f 1a3a d626 84bd 5bd5 d1bd
000002e0: f61d 90bd 0601 cbbc 5549 5ebd b2d0 acbc
000002f0: b494 c43c f9e6 18bd 5d30 51bd 2c23 aebd
00000300: 31eb 53bd 4414 87bc aa21 d6bd eb23 c1bd
00000310: cd80 5e3c 9f3f 753d 44b6 9d3c b422 bcbd
00000320: f428 0ebd cb8e b63d 58f6 083d bd46 133d
00000330: 7520 f43c bf85 51bd eae1 0dbe 8cb2 4bbd
00000340: ec45 d33d afe8 863d 6247 f03c 1fbf 823d
00000350: 8563 04be aead 53be 8c50 95bd 5dbb 5f3e
00000360: b184 033e 6765 523e 96c0 333e 3724 953d
00000370: 4804 233d ef6d 213e 86bb b63e a266 a43e
00000380: 5cd1 25bd c2e5 cbbd 3758 e0bd 04e3 15be
00000390: b5f9 96bd c24b 893d 7d9c 40bb f5d9 05be
000003a0: 6f5e 83bd b216 6abd 7e51 ddbd e530 cfbd
000003b0: 6b5d 5e3a 3352 6d3c 4e29 f7bd 9492 cdbc
000003c0: 2ef4 efbc 8b67 16bd 3e2f 25bd 42f3 2d3a
000003d0: 2e82 f1bc ba49 0cbf 6541 b3be 040c 37bf
000003e0: 642c 62bf 773a 0cbf 120a 5bbf a957 90bf
000003f0: 7e49 83bc d04b 45bd af6d 06be d184 4a3c

conv1.bias f4 [32]
-0.0024496908 0.004102863 0.002532683 -0.03432163 -0.008487105 -0.0060680853 0.0025673513 -0.0022915236
-0.0016969583 0.004917692 -0.0015068984 0.0012766132 0.021691665 -0.004034696 -0.0015151934 3.8559687e-05
-0.053438224 -0.0007057145 -0.003571977 0.0008891222 0.005441913 -0.012346089 0.010157179 0.021438595
-0.00084718125 0.0033761316 -0.006024017 0.0015864399 0.008160949 0.019184992 0.024156703 -0.002260307
00000000: fe8a 20bb 4f71 863b 5ffb 253b d694 0cbd
00000010: 800d 0bbc cad6 c6bb 0241 283b 632d 16bb
00000020: 796c deba 9724 a13b 1f83 c5ba 0854 a73a
00000030: b8b2 b13c 7c35 84bb 7499 c6ba 26bb 2138
00000040: 0ae2 5abd b3ff 38ba d417 6abb fb13 693a
00000050: 1352 b23b 4047 4abc 4c6a 263c fe9f af3c
00000060: 5f15 5eba 1742 5d3b 1e65 c5bb 17f0 cf3a
00000070: 80b5 053c d829 9d3c 47e4 c53c a921 14bb

bn1.weight f4 [32]
0.6115979 0.9812417 0.6144255 1.1940591 1.0966353 0.7002738 0.63104796 0.5905961
0.45918354 0.6442826 0.7025498 0.6601025 0.9128695 0.6027948 0.6547306 0.5915068
1.0835395 0.58567256 0.6740445 0.609421 0.49916947 1.2130286 1.0395188 1.2815797
0.63709426 0.6764169 1.1733578 1.2148354 0.61296254 0.86593354 0.8247242 0.6164337
00000000: ae91 1c3f a832 7b3f fd4a 1d3f eed6 983f
00000010: 8c5e 8c3f 2545 333f 5c8c 213f 4e31 173f
00000020: 1b1a eb3e b4ef 243f 4eda 333f 7afc 283f
00000030: d1b1 693f c350 1a3f 6d9c 273f fd6c 173f
00000040: 6cb1 8a3f a3ee 153f 2e8e 2c3f 0403 1c3f
00000050: 2493 ff3e 8544 9b3f f40e 853f ce0a a43f
00000060: 9c18 233f a829 2d3f 9730 963f ba7f 9b3f
00000070: 1deb 1c3f d2ad 5d3f 2021 533f 99ce 1d3f

bn1.bias f4 [32]
-0.74774635 -0.5786804 -0.7871742 -0.6881284 -0.60431737 -0.38816205 -0.36135587 -0.65507704
-0.7289878 -0.7070002 -0.63873595 -0.3319726 -0.48422632 -0.44302708 -0.506117 -0.63072807
-0.62165964 -0.8609042 -0.84463525 -0.6098989 -0.74538654 -0.20946792 -0.15527138 -0.3139318
-0.44109845 -0.9198218 -0.6836177 -0.28224903 -0.61559534 -0.55682534 -0.49373367 -0.31742737
00000000: 4e6c 3fbf 6624 14bf 4084 49bf 2f29 30bf
00000010: 8bb4 1abf 2dbd c6be a303 b9be 21b3 27bf
00000020: f29e 3abf f7fd 34bf 3384 23bf 50f8 a9be
00000030: 83ec f7be 72d4 e2be e290 01bf 6577 21bf
00000040: 1625 1fbf 3864 5cbf 043a 58bf 5622 1cbf
00000050: a7d1 3ebf c27e 56be 76ff 1ebe abbb a0be
00000060: a8d7 e1be 7179 6bbf 9201 2fbf f282 90be
00000070: a897 1dbf 1b8c 0ebf a9ca fcbe d785 a2be

bn1.running_mean f4 [32]
19.57469 -0.19087455 13.817855 -2.2859972 -1.3907417 22.59048 8.387608 13.794244
18.536327 4.1235127 6.9009194 12.570061 0.017269064 5.4166527 4.5672503 6.576407
-2.2562563 18.598572 2.6903865 14.55109 2.623889 -1.3380058 -0.2608909 -0.75223815
17.620474 4.098315 -2.6207664 -0.40724862 14.020595 -3.7317095 -7.293017 10.685904
00000000: f798 9c41 9e74 43be ef15 5d41 c74d 12c0
00000010: d303 b2bf 4eb9 b441 a433 0641 39b5 5c41
00000020: 664a 9441 d1f3 8340 55d4 dc40 f81e 4941
00000030: da77 8d3c 3855 ad40 ea26 9240 ed71 d240
00000040: 8166 10c0 e0c9 9441 4b2f 2c40 44d1 6841
00000050: cced 2740 c643 abbf 7e93 85be ae92 40bf
00000060: bbf6 8c41 6525 8340 a3ba 27c0 e482 d0be
00000070: 5b54 6041 54d4 6ec0 6560 e9c0 76f9 2a41

bn1.running_var f4 [32]
794.17804 5.597971 426.39673 19.457031 12.780966 1135.6101 164.94199 416.63113
730.90625 62.166138 119.29764 390.84967 4.2296267 102.828255 61.076496 149.81929
20.051683 757.0361 27.208723 462.48505 34.072872 21.714283 8.737591 14.096443
705.0136 48.366764 23.831736 10.003066 433.1647 35.96747 144.99316 305.0792
00000000: 658b 4644 9422 b340 c832 d543 00a8 9b41
00000010: d67e 4c41 86f3 8d44 26f1 2443 c950 d043
00000020: 00ba 3644 20aa 7842 6498 ee42 c26c c343
00000030: 1a59 8740 11a8 cd42 554e 7442 bdd1 1543
00000040: d969 a041 4f42 3d44 77ab d941 163e e743
00000050: 9f4a 0842 dab6 ad41 2ccd 0b41 088b 6141
00000060: df40 3044 9177 4142 65a7 be41 8f0c 2041
00000070: 1595 d843 b0de 0f42 40fe 1043 238a 9843

conv2.weight f4 [64, 32, 7, 7]
-0.10224455 -0.036763355 -0.055436872 -0.052953806 -0.0649619 -0.06818955 -0.11758727 0.017717851
0.018307209 0.04034182 -0.054622825 -0.0069451304 0.06624163 0.05185436 -0.10469372 -0.03852609
-0.07399733 -0.16286471 -0.17168942 -0.20347089 -0.24753237 -0.13937746 -0.053557303 -0.030491425
-0.074956276 -0.118544444 -0.14778408 -0.09956037 0.108878486 0.08221977 0.11490125 -0.0076672374
0.025036642 0.07692444 0.06622772 0.07984531 0.10710518 0.004322774 0.004232292 -0.06777732
-0.03764192 -0.068951376 0.12980339 0.13964166 0.09152278 0.058067277 -0.033355344 0.042063553
0.07890728 -0.16921608 -0.4809504 -0.43282288 -0.14974332 -0.054000538 0.013343306 -0.26355505
-0.24904537 0.11119645 -0.11923561 -0.12660055 -0.16907932 -0.27313852 -0.14989288 0.18453565
0.17883085 0.050964344 -0.1580938 0.12451718 0.11471588 0.3609939 0.057012323 0.18845238
-0.0524422 0.044981483 0.04334687 0.1272262 0.11947882 -0.21941085 -0.09140951 -0.17364863
-0.056630403 -0.2021025 -0.02265061 0.01264609 -0.009498287 0.1445307 0.03137172 -0.12687534
0.047809787 0.0033306854 0.08174021 -0.16026983 0.023307662 -0.015520919 0.026148954 0.06876583
-0.14540143 -0.053187978 -0.08231182 -0.052092202 -0.110470966 -0.09036239 -0.051178172 -0.089409225
-0.11260111 0.00070722477 -0.0063224123 0.044566963 0.035152383 0.045802705 0.085711524 0.09518758
-0.09491533 -0.079249084 -0.193847 -0.21911947 -0.12215157 -0.13985547 -0.21123122 -0.08306311
-0.051411245 0.012645518 -0.057795838 -0.08117031 -0.115126 -0.08483687 0.11460037 0.11189713
0.108670115 0.111068435 0.0071165096 0.009853828 0.012103955 -0.080720544 -0.05119261 -0.059959322
-0.09359093 -0.1768267 -0.14195259 -0.1828335 0.010080714 0.042275228 0.024252614 0.016826896
-0.057134755 0.0017182396 -0.046636168 -0.10990142 0.057384275 -0.04176486 0.08762787 0.036026556
0.03151168 -0.025777742 -0.23645817 0.18691678 0.18696201 0.09069242 0.05519219 -0.026309501
0.077173784 0.51875013 -0.06724376 0.28765652 -0.106753476 0.12999459 0.3002855 0.2305193
0.053071506 -0.14163888 0.04403024 0.20973946 0.07551066 -0.032468136 -0.023441644 -0.019271938
0.050743315 0.014312352 -0.1569836 -0.06413138 -0.051228955 -0.05640116 0.15490405 0.023978204
-0.05685936 -0.08492149 -0.001815973 -0.026514761 -0.10789419 0.008587064 -0.0020581696 -0.04947433
-0.014367264 -0.030433435 0.01812719 -0.03191554 -0.17560951 -0.040243722 -0.04323628 -0.020251635
0.08254463 -0.04779587 0.027881693 -0.27843714 -0.121340595 -0.03437761 0.053869594 -0.06500704
-0.060689855 -0.2035443 0.25180665 0.1927166 -0.07241272 -0.15562627 -0.03280209 -0.0039694123
0.10343411 -0.053900547 0.27943125 -0.17789331 0.008370063 -0.015354957 -0.06018024 0.09585456
-0.07669792 0.0675318 0.10075224 -0.07472985 0.0993963 0.1264223 -0.06837308 0.17204888
-0.017542595 0.023584386 0.08483503 0.03960339 0.12059618 -0.053850196 -0.09315004 0.11296348
-0.051893286 -0.024576787 -0.19035108 -0.0808919 -0.18142867 0.048864026 0.100067444 0.081234366
0.09049425 0.065863535 0.04485015 0.053996965 -0.083957195 -0.051076107 -0.06864813 -0.09588593
00000000: 9765 d1bd 2c95 16bd c611 63bd 17e6 58bd
00000010: bf0a 85bd f6a6 8bbd 98d1 f0bd 0725 913c
00000020: 00f9 953c 773d 253d 2fbc 5fbd fa93 e3bb
00000030: b1a9 873d 3d65 543d a969 d6bd 89cd 1dbd
00000040: ea8b 97bd 02c6 26be 5acf 2fbe ac5a 50be
00000050: 2079 7dbe f7b8 0ebe e75e 5bbd 27c9 f9bc
00000060: ad82 99bd 6ec7 f2bd b654 17be 4fe6 cbbd
00000070: affb de3d d762 a83d 5951 eb3d 733d fbbb
00000080: a519 cd3c 908a 9d3d 66a2 873d f085 a33d
00000090: f659 db3d 0ea6 8d3b 0aaf 8a3b d6ce 8abd
000000a0: 6a2e 1abd 6136 8dbd 2eeb 043e 39fe 0e3e
000000b0: 4c70 bb3d f4d7 6d3d 9d9f 08bd d54a 2c3d
000000c0: 249a a13d fb46 2dbe 213f f6be f69a ddbe
000000d0: 5056 19be ab2f 5dbd e29d 5a3c b0f0 86be
000000e0: c005 7fbe f7ba e33d cd31 f4bd 93a3 01be
000000f0: 2123 2dbe d0d8 8bbe 857d 19be eaf6 3c3e
00000100: 6f1f 373e fdbf 503d 57e3 21be dd02 ff3d
00000110: 29f0 ea3d 31d4 b83e c185 693d a9f9 403e
00000120: a2cd 56bd 813e 383d 7d8c 313d 9647 023e
00000130: 50b1 f43d 3dad 60be e934 bbbd f2d0 31be
00000140: 48f5 67bd f5f3 4ebe c68d b9bc 8c31 4f3c
00000150: b49e 1bbc dbff 133e a27f 003d 9ceb 01be
00000160: 32d4 433d a147 5a3b 6967 a73d c61d 24be
00000170: b6ef be3c 744b 7ebc 5536 d63c 19d5 8c3d
00000180: 1de4 14be a3db 59bd 1993 a8bd a25e 55bd
00000190: 9a3e e2bd eb0f b9bd 34a0 51bd 2f1c b7bd
000001a0: 699b e6bd 0d65 393a 3d2c cfbb d98b 363d
000001b0: f2fb 0f3d 9e9b 3b3d 8689 af3d b5f1 c23d
000001c0: f862 c2bd 584d a2bd d47f 46be db60 60be
000001d0: 9a2a fabd 4636 0fbe ff4c 58be fe1c aabd
000001e0: 9994 52bd 262f 4f3c 54bb 6cbd 9f3c a6bd
000001f0: 2ec7 ebbd f4be adbd 99b3 ea3d 532a e53d
00000200: 708e de3d d977 e33d 9c31 e93b f371 213c
00000210: ab4f 463c d050 a5bd 58af 51bd e897 75bd
00000220: 9aac bfbd 0f12 35be 055c 11be b438 3bbe
00000230: 9429 253c ca28 2d3d 6bad c63c 8fd8 893c
00000240: 2206 6abd 8e36 e13a 9105 3fbd ff13 e1bd
00000250: c60b 6b3d a111 2bbd 3e76 b33d 9590 133d
00000260: 6412 013d d82b d3bc 1722 72be 1d67 3f3e
00000270: f872 3f3e f3bc b93d 3511 623d 0687 d7bc
00000280: 4a0d 9e3d cfcc 043f 19b7 89bd b747 933e
00000290: 91a1 dabd 4d1d 053e 05bf 993e 400d 6c3e
000002a0: 8261 593d c809 11be 0e59 343d f1c5 563e
000002b0: 55a5 9a3d 4ffd 04bd b108 c0bc 2fe0 9dbc
000002c0: 39d8 4f3d 5b7e 6a3c 4fc0 20be 5057 83bd
000002d0: 74d5 51bd e704 67bd 2b9f 1e3e f06d c43c
000002e0: 5ce5 68bd 51eb adbd f105 eeba 7c35 d9bc
000002f0: a1f7 dcbd c2b0 0c3c 5be2 06bb 98a5 4abd
00000300: ac64 6bbc 8a4f f9bc 797f 943c dfb9 02bd
00000310: fbd2 33be 9ad6 24bd 8718 31bd c2e6 a5bc
00000320: 290d a93d 9ac5 43bd 2668 e43c 508f 8ebe
00000330: 6b81 f8bd 89cf 0cbd 5da6 5c3d 6922 85bd
00000340: ed95 78bd eb6d 50be cdec 803e 8057 453e
00000350: 1f4d 94bd 7e5c 1fbe 7c5b 06bd d811 82bb
00000360: 43d5 d33d d2c6 5cbd 9d11 8f3e aa29 36be
00000370: 9722 093c 5c93 7bbc 8e7f 76bd 654f c43d
00000380: cd13 9dbd 1d4e 8a3d 3157 ce3d f70b 99bd
00000390: 4a90 cb3d d974 013e 2f07 8cbd 952d 303e
000003a0: 7db5 8fbc 0b34 c13c fdbd ad3d 2a37 223d
000003b0: 21fb f63d 0692 5cbd 73c5 bebd 6659 e73d
000003c0: 0e8e 54bd 4255 c9bc 65eb 42be a7aa a5bd
000003d0: 70c8 39be a525 483d 29f0 cc3d 345e a63d
000003e0: 0d55 b93d 76e3 863d cab4 373d ec2b 5d3d
000003f0: c0f1 abbd 2e35 51bd 6497 8cbd d85f c4bd

conv2.bias f4 [64]
-0.0036920013 -0.00042126447 -0.0031983086 0.00150319 -0.0090998905 -0.0027318213 -8.187921e-05 -0.0038387405
0.0045093913 0.0076342314 -0.0067677083 -0.0024093464 -0.00861073 -0.002854585 -0.007994843 -0.012994525
0.0011760276 -0.0058983667 -0.007433332 -0.0024706381 -0.00072218466 -0.00037031123 -0.0070102895 0.0064274375
0.00019991086 9.343665e-06 0.00031772986 -0.00010097103 -0.0027870715 -0.0013044636 -0.008645117 -0.0014554205
0.0014071504 -0.0062924344 -0.0071290834 0.0015424959 -0.005419345 0.002980071 -0.0027742765 -0.0012352153
-0.0043803244 -0.00014272296 0.00046084446 -0.0039672647 0.0010979638 -0.0001597765 0.004619361 0.00029585266
-0.0033080152 -0.0039133546 0.0006112628 -0.0009044986 -0.0048491335 -0.0021890674 -0.0023142793 -0.0017482894
0.0055570602 -0.0021789873 -0.0007171717 -0.0031330336 -0.00079157215 0.0029483002 -0.0007051916 0.0006733498
00000000: 81f5 71bb 29dd dcb9 b79a 51bb b006 c53a
00000010: b517 15bc 5b08 33bb 91b6 abb8 6193 7bbb
00000020: 84c3 933b 9328 fa3b a7c3 ddbb 20e6 1dbb
00000030: 0514 0dbc fd13 3bbb cdfc 02bc fde6 54bc
00000040: f024 9a3a 1647 c1bb 4f93 f3bb 6eea 21bb
00000050: fe50 3dba 5526 c2b9 92b6 e5bb 419d d23b
00000060: 2a9f 5139 bcc2 1c37 fb94 a639 69c0 d3b8
00000070: 4da7 36bb 89fa aaba 40a4 0dbc cfc3 beba
00000080: 2270 b83a c430 cebb 169b e9bb 932d ca3a
00000090: c394 b1bb 4b4d 433b a3d0 35bb f3e6 a1ba
000000a0: d388 8fbb e7a7 15b9 7f9d f139 d4ff 81bb
000000b0: 8de9 8f3a ad89 27b9 025e 973b ac1c 9b39
000000c0: 49cb 58bb 993b 80bb 273d 203a e01b 6dba
000000d0: 7be5 9ebb 7576 0fbb 2aab 17bb dc26 e5ba
000000e0: 0018 b63b 57cd 0ebb 9400 3cba 9553 4dbb
000000f0: 8281 4fba 4538 413b 9bdc 38ba bd83 303a

bn2.weight f4 [64]
1.3337166 1.4456569 1.3558611 1.342832 1.5991296 1.2024456 1.1756835 1.239615
1.1227491 1.4353279 1.3757789 1.3897842 1.4377772 1.4212273 1.2863089 1.552963
1.0905542 1.2335519 1.2507445 1.293953 1.4390765 1.7059374 1.2714248 1.4320163
1.2508122 1.3890101 1.132549 1.446035 1.5883601 1.2177473 1.4843603 1.2964684
0.98501104 1.504405 1.6343024 1.5927658 1.2883518 1.0915562 1.2073523 1.1206949
1.3231251 1.0128702 1.152213 1.2757219 1.5568494 1.066279 1.4117697 1.6286756
1.2317069 1.3795168 1.7048391 1.9486474 1.4177874 1.2844586 1.2540423 1.220034
1.5679773 1.5122848 1.3615484 0.9967198 1.4195101 1.2359017 1.2505338 1.3837614
00000000: 3ab7 aa3f 490b b93f db8c ad3f ebe1 ab3f
00000010: 47b0 cc3f bde9 993f cc7c 963f b4ab 9e3f
00000020: 3eb6 8f3f d3b8 b73f 8619 b03f 73e4 b13f
00000030: 1509 b83f c7ea b53f c5a5 a43f 7ec7 c63f
00000040: 4897 8b3f 07e5 9d3f 6518 a03f 40a0 a53f
00000050: a933 b83f 285c da3f 0cbe a23f 4f4c b73f
00000060: 9d1a a03f 15cb b13f 5ef7 903f ad17 b93f
00000070: 624f cb3f 25df 9b3f 85ff bd3f adf2 a53f
00000080: af29 7c3f 5890 c03f d230 d13f c0df cb3f
00000090: b6e8 a43f 1db8 8b3f 858a 9a3f ee72 8f3f
000000a0: 2a5c a93f bba5 813f b77b 933f db4a a33f
000000b0: d746 c73f d57b 883f dfb4 b43f 7178 d03f
000000c0: 92a8 9d3f 0294 b03f 2b38 da3f 476d f93f
000000d0: 0f7a b53f 2469 a43f 7584 a03f 132a 9c3f
000000e0: 7bb3 c83f 8c92 c13f 3847 ae3f 0729 7f3f
000000f0: 82b2 b53f 0732 9e3f 7e11 a03f 181f b13f

bn2.bias f4 [64]
-0.7488559 -0.660053 -0.6756529 -0.61620224 -0.89673084 -0.633703 -0.51420337 -0.8560105
-0.9568763 -0.8889528 -0.46617556 -0.5590949 -0.5337632 -0.3320598 -0.9021678 -0.83541787
-0.62271297 -0.59416044 -0.43182987 -0.9042541 -0.62309945 -0.42452556 -0.988124 -0.8004691
-0.7039859 -0.4442036 -1.0139449 -0.7055001 -0.7779675 -0.43513334 -0.864921 -0.831245
-0.6353958 -0.64360327 -0.7084153 -0.7188905 -0.5559201 -0.6349473 -0.7935501 -0.71438396
-0.713593 -0.41531426 -0.7984036 -0.68297976 -0.40669248 -0.54243594 -0.63593924 -0.78778213
-0.44106567 -0.5877594 -0.6712933 -0.9515612 -0.77132607 -0.7392091 -0.50458705 -0.58733237
-1.0595984 -0.37662885 -0.26676923 -0.63658017 -0.57259697 -0.5954982 -0.77542937 -0.44090506
00000000: 05b5 3fbf 3cf9 28bf 97f7 2cbf 6ebf 1dbf
00000010: 2790 65bf 5c3a 22bf d5a2 03bf 8123 5bbf
00000020: d8f5 74bf 6992 63bf 90ae eebe d820 0fbf
00000030: b4a4 08bf be03 aabe 78f4 66bf f2dd 55bf
00000040: 1e6a 1fbf e61a 18bf ce18 ddbe 327d 67bf
00000050: 7283 1fbf 6a5b d9be b2f5 7cbf 8beb 4cbf
00000060: 6c38 34bf a76e e3be f2c8 81bf a89b 34bf
00000070: e128 47bf ccc9 debe 766b 5dbf 79cc 54bf
00000080: 4da9 22bf 2fc3 24bf b55a 35bf 3509 38bf
00000090: c850 0ebf e88b 22bf 1926 4bbf dee1 36bf
000000a0: 08ae 36bf 12a4 d4be 2e64 4cbf c3d7 2ebf
000000b0: ff39 d0be 15dd 0abf eacc 22bf 17ac 49bf
000000c0: 5cd3 e1be 6677 16bf e1d9 2bbf 8499 73bf
000000d0: a075 45bf cf3c 3dbf 9e2c 01bf 6a5b 16bf
000000e0: eca0 87bf 7fd5 c0be fa95 88be ebf6 22bf
000000f0: b795 12bf 9272 18bf 8a82 46bf 4fbe e1be

bn2.running_mean f4 [64]
-2.9974902 -11.8210745 -3.3020139 -4.166533 -2.2324724 -0.8451415 -1.4888164 -7.321767
-6.2285433 -5.844101 -2.5867972 -1.8395697 -5.870061 -1.5033273 -1.7143902 -5.076338
-3.4813716 -1.9564525 -2.332855 -4.4578238 -2.9348137 -6.026164 -2.9896507 -5.5224137
-5.003041 -7.193555 0.38055393 -1.1192858 -5.9181824 -9.974089 -5.482255 -3.9550302
-3.553875 -5.375079 -4.2842436 -9.981226 -7.744723 -2.3096113 -1.247114 -1.8379704
-1.4358735 0.41453785 -6.465507 -7.0960884 -9.858879 -1.4686134 -4.616803 -8.886572
-7.5078588 -3.0433202 -7.310025 -3.3316553 -4.5324264 -4.667165 -8.119926 -2.401333
-5.085073 -3.5878673 -10.4943075 -4.886823 -7.610505 -2.6679013 -4.5459905 -10.391448
00000000: e1d6 3fc0 1f23 3dc1 3254 53c0 3d54 85c0
00000010: d4e0 0ec0 315b 58bf 8991 bebf ea4b eac0
00000020: 3a50 c7c0 e002 bbc0 168e 25c0 0577 ebbf
00000030: 8ad7 bbc0 076d c0bf 2371 dbbf 5c71 a2c0
00000040: cbce 5ec0 096d fabf 7f4d 15c0 7ea6 8ec0
00000050: fdd3 3bc0 56d6 c0c0 7056 3fc0 9db7 b0c0
00000060: e918 a0c0 9a31 e6c0 f7d7 c23e c244 8fbf
00000070: c061 bdc0 de95 1fc1 a26e afc0 371f 7dc0
00000080: b072 63c0 a600 acc0 8618 89c0 1ab3 1fc1
00000090: c5d4 f7c0 acd0 13c0 6ea1 9fbf 9d42 ebbf
000000a0: b4ca b7bf 4e3e d43e 6fe5 cec0 2813 e3c0
000000b0: f8bd 1dc1 86fb bbbf dabc 93c0 662f 0ec1
000000c0: 6140 f0c0 c2c5 42c0 baeb e9c0 d739 55c0
000000d0: a309 91c0 6a59 95c0 38eb 01c1 71af 19c0
000000e0: ebb8 a2c0 9e9f 65c0 afe8 27c1 db60 9cc0
000000f0: 4289 f3c0 e5be 2ac0 c178 91c0 5f43 26c1

bn2.running_var f4 [64]
33.147484 46.536762 27.30939 36.32354 19.857727 23.043749 35.280384 40.127506
40.030148 40.66746 33.655617 33.47189 21.80808 29.646536 12.062975 28.133493
40.783012 22.578915 28.899952 15.403134 29.811998 28.98924 16.046595 22.963234
31.714962 75.27664 13.860629 36.66284 37.36406 81.495636 30.009727 29.106894
44.53994 32.687344 31.132162 51.733173 88.842316 19.41978 24.291807 21.234531
35.882324 36.07165 55.58751 37.292374 85.01868 53.385075 25.216627 46.677032
42.971905 44.706203 39.786835 17.583385 40.928665 46.84624 36.9616 12.955387
33.64188 68.58324 68.705 44.095154 58.18989 27.805098 39.997616 72.27235
00000000: 0697 0442 a525 3a42 a179 da41 4e4b 1142
00000010: a0dc 9e41 9959 b841 1d1f 0d42 9182 2042
00000020: df1e 2042 7bab 2242 5a9f 0642 37e3 0542
00000030: f376 ae41 1b2c ed41 f201 4141 6511 e141
00000040: ce21 2342 9ea1 b441 1a33 e741 3d73 7641
00000050: f97e ee41 f7e9 e741 6d5f 8041 b4b4 b741
00000060: 3eb8 fd41 a48d 9642 23c5 5d41 c0a6 1242
00000070: cc74 1542 c4fd a242 ec13 f041 ebda e841
00000080: e628 3242 d7bf 0242 ab0e f941 c5ee 4e42
00000090: 44af b142 b65b 9b41 9f55 c241 52e0 a941
000000a0: 8087 0f42 5f49 1042 9c59 5e42 642b 1542
000000b0: 9009 aa42 518a 5542 a7bb c941 48b5 3a42
000000c0: 3be3 2b42 27d3 3242 b825 1f42 c6aa 8c41
000000d0: f4b6 2342 8d62 3b42 aed8 1342 4449 4f41
000000e0: 4991 0642 9e2a 8942 f668 8942 7061 3042
000000f0: 73c2 6842 d770 de41 8ffd 1f42 718b 9042
