integrated_mfdwc_cnn_dcase/results/a-b/best_FE_a-b.pth (torch, 415473 bytes, 12 tensors)

conv1.weight f4 [32, 1, 7, 7]
000000 50 76 a7 be 55 ba f5 be d1 05 eb be ca 92 d1 be
       -0.32707453 -0.47993723 -0.45902875 -0.40932304
000010 68 46 f1 be e6 88 e6 be 1f 38 d7 be 21 a0 3a 3d
       -0.47124028 -0.4502632 -0.42035004 0.045562867
000020 4b 56 a4 bd 0a 07 2b 3c 4e f7 6a bd 31 13 13 bc
       -0.080242716 0.01043869 -0.057364754 -0.008976744
000030 4d a0 8a bc 80 8f 7d 3c 72 03 c7 3c 21 a8 b0 bc
       -0.01692214 0.015476108 0.024293635 -0.021564545
000040 fd 85 47 bb 54 88 27 bd f0 e8 a2 3b 2f 36 81 bc
       -0.0030444853 -0.040901497 0.004971616 -0.015772907
000050 ef e3 a0 3c b5 ee 3a 3d 25 85 bd 3d a5 98 46 3d
       0.019639937 0.045637805 0.09253911 0.048485417
000060 d9 c1 9a 3d 1d 05 c1 3d ae 6c 9a 3d 29 cc 9d 3d
       0.07556505 0.094248034 0.0754026 0.07704956
000070 74 eb ae 3c a6 7b 23 3c fa 2d ba 3c f0 30 bb 3c
       0.021352507 0.009978211 0.022727001 0.022850484
000080 a2 6c 68 bc bb 7f b1 bc 1d 03 b0 bc 48 a8 ad 38
       -0.014186056 -0.021667352 -0.02148586 8.280628e-05
000090 d5 b8 c6 3b 94 0f ad bb f5 27 d9 3c e0 44 c0 bb
       0.006064514 -0.005281398 0.02650831 -0.0058675855
0000a0 c4 68 f0 3c 02 a8 ce bb 35 b7 71 3c 1d 7c a1 3c
       0.029346831 -0.006306649 0.014753153 0.019712502
0000b0 d5 03 cf bb f6 7b 21 3c ae 82 d0 3c 4a 03 b5 3c
       -0.0063175955 0.009856215 0.025452938 0.022096295
0000c0 94 c5 97 3c 61 fe 8a bb dc 70 71 bb dd 95 7d 3c
       0.01852683 -0.00424175 -0.003684095 0.015477625
0000d0 d1 6f 70 bd 95 7f a1 3b 5b b2 79 3d a2 c6 0f 3d
       -0.058700386 0.004928539 0.06096111 0.03510154
0000e0 08 1f ff 3b d3 6f 9d 3c 30 6f 13 bd 67 bf a4 bd
       0.0077856816 0.019218361 -0.03599471 -0.080443196
0000f0 a2 70 d8 3c 82 b4 a9 3d a4 6c 0c 3d c0 45 3a bc
       0.026420895 0.08286382 0.034283295 -0.011369169
000100 d1 31 80 3c d2 0f 82 bd c3 57 df bd 6d 23 7e 3c
       0.015648754 -0.06350674 -0.10905411 0.015511376
000110 e7 2d 13 3e db 37 b5 3d 1f 75 cf 3d 35 ea d8 3d
       0.14372979 0.08848544 0.10129761 0.105915464
000120 d0 a6 0e 3d 69 54 94 bc a6 dc d8 3d ca 93 78 3e
       0.034827054 -0.018106656 0.1058896 0.24275127
000130 5a 5a 44 3e b1 52 17 bd 28 c9 a0 bc 48 65 ce bd
       0.19175091 -0.036944095 -0.019627169 -0.100779116
000140 7d 62 a4 bd 2b f7 42 3c 70 75 80 3d ff bb 0b bc
       -0.08026598 0.01189975 0.062723994 -0.0085287085
000150 15 20 be bd 58 d1 01 bb 76 ea 94 bd 6f ec f2 bd
       -0.09283463 -0.0019808616 -0.072712824 -0.118615024
000160 18 3c e3 bb 65 ef 99 3a 32 b7 6f bb 10 1e 29 bd
       -0.006934654 0.0011744319 -0.0036577699 -0.041288435
000170 30 58 56 3d 61 9c 4e bd 6e 26 98 bd ee 1d ec bb
       0.052330196 -0.050442103 -0.07429205 -0.0072057163
000180 e0 17 f1 3c 4c eb ba 3c 0b e4 8d bd 5c 29 4e bd
       0.02943033 0.022817276 -0.06928261 -0.050332412
000190 59 6a c0 bc 20 fa bb 3c 69 0a 97 3c 0b 49 0d 3d
       -0.02348821 0.022946417 0.018437581 0.034493487
0001a0 df e2 00 3d 05 a3 90 bd ec 3e 11 bc 23 14 36 3c
       0.03146636 -0.070623435 -0.008865099 0.011113199
0001b0 22 c7 e8 bb e3 12 4c 3d 9a ab 00 ba 25 bb 2e 3d
       -0.0071038166 0.0498227 -0.0004908383 0.042658944
0001c0 c1 e0 94 bd 48 9e 1f bd 03 fe 22 bc 15 2d a3 bc
       -0.07269431 -0.03896931 -0.009948256 -0.019918958
0001d0 9c c5 3d 3d e5 4b 45 3d d2 39 b5 3d d5 62 7a 3d
       0.046331033 0.04816808 0.08848919 0.06112941
0001e0 1b 11 cb 3d 7e 9a fd 3d 1f 3c 1c 3e 09 30 2c 3e
       0.09915372 0.12382983 0.1525731 0.16815199
0001f0 0e 56 e8 3d 65 7e 1c 3e f9 63 3c bd b1 dd 90 bd
       0.11344539 0.1528259 -0.04599378 -0.07073534
000200 5f 18 5a bc ac 59 6b 3d fd c9 ae 3d fb 9d 66 3d
       -0.013311475 0.057458565 0.0853462 0.056303006
000210 4f 78 18 3d 26 f9 38 be 58 1c 0b be 20 e0 ad bd
       0.03722411 -0.18063793 -0.13585031 -0.08490014
000220 14 e1 09 bd 4c 8a be 3c 1f 89 42 bc 92 cc 1a bb
       -0.033661917 0.023259304 -0.0118735125 -0.0023620469
000230 9c e7 17 be 1a 63 07 be d5 4f 81 bd 97 3e 72 3b
       -0.14834446 -0.13221398 -0.06314055 0.0036963576
000240 2f 22 67 3c 95 c1 9e bd ea 23 b7 bd ab 58 2c bd
       0.014107271 -0.077517666 -0.08942397 -0.042076748
000250 2d 5c 8c 3b 6a 5e 74 3b e1 f1 d1 3b 20 f7 68 bd
       0.004283449 0.003728772 0.006407008 -0.0568763
000260 d9 c0 0f bd 9e d4 b5 3d 93 fb e7 bc 71 db 85 3d
       -0.035096023 0.08878444 -0.028318202 0.06535996
000270 2d a5 fc 3d a8 e7 6c 3d b8 46 2b bd 45 37 42 3c
       0.12336192 0.057838112 -0.04181549 0.011853998
000280 54 f0 da 3d 7f 70 84 3c 37 59 8c 3d dc 7b 08 3e
       0.1069037 0.016166924 0.06852954 0.13328499
000290 7c 70 ee 3d 68 d0 10 3c b9 90 d1 3d 14 93 d5 3d
       0.116425484 0.00883875 0.10232682 0.104284436
0002a0 75 f9 5e be 31 5e ae bd 86 ab 9c bd 57 56 78 bd
       -0.21774848 -0.08514059 -0.07649903 -0.060629215
0002b0 63 03 28 be bf 58 00 be 60 22 05 be 8d ed b0 bd
       -0.16407542 -0.12533854 -0.13001394 -0.08639059
0002c0 80 b6 50 bd 5e a2 29 3d 2b e8 ad bc 53 00 c7 bd
       -0.050955296 0.04141461 -0.02122887 -0.09716859
0002d0 2d 79 85 bd d5 a3 57 3b cd ee c9 3b 86 81 bf 3c
       -0.06517253 0.0032904048 0.0061625005 0.023377191
0002e0 c5 dc b2 3c 3e d0 7b 3d 4c aa 08 3d ae 1d de 3c
       0.021833787 0.061477892 0.033365533 0.027113762
0002f0 33 2b 89 3d ae 95 04 3b 6a b3 b3 bc 50 15 ea 3c
       0.06697693 0.0020230818 -0.021936137 0.028574616
000300 bc 4a 41 3d 2d 5b 05 bd 44 8e 86 3d 6e 0e f9 3b
       0.047190413 -0.032557655 0.06570104 0.007600597
000310 42 01 2b bd aa ae b3 bd 40 ea c6 3c 4f 3f 92 3d
       -0.041749246 -0.08773549 0.024281621 0.071409814
000320 14 91 12 3d b7 e4 b7 3d a5 ff ee 3c 1e 73 c3 bc
       0.03578289 0.08979171 0.029174635 -0.023858603
000330 8e 0c 99 bd 3f f8 28 3c 6f b2 2c 3c 4e 5a f2 3c
       -0.07473098 0.010313093 0.010540589 0.029584076
000340 a5 e0 13 3d 36 91 3f 3d 9c f7 ca bd 17 c4 28 be
       0.03610291 0.046769343 -0.09910509 -0.16481052
000350 30 18 61 bb b2 82 2b 3d 36 d3 78 3d 18 85 93 3d
       -0.0034346692 0.041872688 0.0607483 0.0720312
000360 31 b5 78 3d b8 fb fe 3b 16 c6 c6 bd 57 31 be 3d
       0.060719673 0.007781472 -0.09705751 0.092867546
000370 2b fb c5 3d c6 d0 80 3c 6a 04 42 3d 48 fa d7 3d
       0.09667047 0.015724551 0.04736749 0.10545784
000380 19 26 ce bd 24 18 17 be eb 3f 60 3d b7 80 98 3d
       -0.1006586 -0.14755303 0.054748457 0.074464254
000390 94 e6 18 bc 57 5f 19 3c 97 1b f7 3c 9e d4 0d be
       -0.009332318 0.00936111 0.030164523 -0.13850638
0003a0 97 52 26 be 32 f4 12 3d 71 41 45 3d aa 9a 21 bb
       -0.16242443 0.035877414 0.048158113 -0.0024658837
0003b0 16 0d 92 3a c2 8b 57 3d ec b9 d8 bd 01 d3 24 be
       0.0011142816 0.052623518 -0.10582337 -0.16096117
0003c0 8c cd 09 bc f4 9f 7b 3c bc 81 64 3d 3f 0e 68 3d
       -0.008410823 0.01535796 0.055787787 0.05665421
0003d0 a7 1f a4 3d a1 07 ea 3c 75 13 e7 3d 0d 67 b8 bc
       0.0801385 0.02856809 0.11283008 -0.022510076
0003e0 e9 43 c0 3c ed bc 05 3e e3 f6 03 3e b1 3c 12 3b
       0.023469882 0.1306035 0.12887149 0.0022314007
0003f0 15 eb b6 bd ac 1f 68 3b 28 51 9f bd a6 7b 0a bd
       -0.08931557 0.0035419269 -0.07779151 -0.033809327

conv1.bias f4 [32]
000000 45 16 27 ba 90 0b c9 3b a2 5c a9 bc d3 ce 47 3d
       -0.0006373863 0.0061354116 -0.020674054 0.048781227
000010 9f 87 97 3a 6b 48 b6 bc b4 f3 15 3a 34 d3 d1 ba
       0.0011560804 -0.022251328 0.00057202135 -0.0016008378
000020 cc 09 38 ba 23 f7 47 3b 18 3a 63 bc bb 21 e5 bb
       -0.0007020503 0.0030512295 -0.013868831 -0.0069925464
000030 79 18 e9 3a 48 d2 08 ba 57 63 dd 3a e4 c8 99 bb
       0.0017783783 -0.00052193226 0.0016890567 -0.0046931375
000040 17 b1 db 3b 62 e8 a2 39 90 97 52 3b e8 9f 8e 3a
       0.0067044604 0.00031072187 0.0032133795 0.0010881396
000050 ae e7 01 bb fa c2 38 bb d2 d2 be 3a bd c4 95 bb
       -0.001982193 -0.0028192387 0.0014558679 -0.004570572
000060 da 11 b3 3b ce b1 4c 3b 1c be 18 3c bc 84 87 ba
       0.0054647746 0.003123391 0.009322669 -0.001033924
000070 2f 75 b5 3a 27 17 0f bb 94 2a 85 ba 31 cc 9f 3a
       0.0013844128 -0.0021833868 -0.0010159784 0.0012191591

bn1.weight f4 [32]
000000 57 b9 5c 3f d2 9b 62 3f c1 53 a4 3f f2 b4 60 3f
       0.86220306 0.8851901 1.283806 0.877761
000010 05 b0 84 3f 69 38 77 3f 98 b6 59 3f 65 f9 41 3f
       1.0366217 0.9657045 0.8504424 0.7577117
000020 38 c7 58 3f 55 8b 69 3f b3 72 a2 3f b4 02 69 3f
       0.84678984 0.9122823 1.2691253 0.9101975
000030 69 16 57 3f e8 48 64 3f c6 e0 32 3f b1 d3 54 3f
       0.8401857 0.89173746 0.6987423 0.83135515
000040 0c ca 51 3f b8 92 63 3f 0f 71 6c 3f f8 fa 4c 3f
       0.81948924 0.8889575 0.92360014 0.8007045
000050 61 cc 02 3f 02 74 06 3f 4b d1 59 3f 20 48 4e 3f
       0.5109311 0.52520764 0.8508498 0.80578804
000060 85 f1 9d 3f 8c 02 4e 3f 55 64 56 3f 86 d8 88 3f
       1.2339331 0.80472636 0.83746845 1.0691078
000070 0c b2 4f 3f 9a 45 48 3f 1a 21 4e 3f 78 10 3a 3f
       0.8113105 0.78231204 0.8051926 0.7268138

bn1.bias f4 [32]
000000 d8 0e 00 bf e8 1e f1 be 36 6c 5b be a6 7f 36 be
       -0.5002265 -0.47093892 -0.21427998 -0.17822132
000010 87 7e c4 be cd aa aa bd e8 ee 09 bf 88 e2 15 bf
       -0.38377783 -0.08333359 -0.53880167 -0.58548784
000020 6d 79 0b bf 9c b9 6c be dc 6d 80 be 21 0e f0 be
       -0.54482156 -0.2311768 -0.25083816 -0.4688578
000030 97 af 0e bf 27 2b 19 bf a1 12 0d bf 9b 6e d7 be
       -0.5573668 -0.5983147 -0.5510655 -0.42076573
000040 fe f1 cb be d9 2c 47 bf 73 3b 02 be a8 83 00 bf
       -0.39833063 -0.7780281 -0.1271799 -0.5020089
000050 af 4b 06 bf 10 26 2a bf d7 7d 0c bf b3 6f d6 be
       -0.52459234 -0.6646433 -0.54879516 -0.41882095
000060 4b 11 af be 43 a0 d8 be 23 c0 9f be e7 cd ac be
       -0.3419288 -0.4230977 -0.31201276 -0.3375084
000070 0f 41 08 bf fe a9 fe be 78 c0 00 bf 09 cd 17 bf
       -0.5322427 -0.4973907 -0.50293684 -0.59297234

bn1.running_mean f4 [32]
000000 67 d5 26 41 29 84 f4 bf 55 e7 0a bf d6 a0 db bd
       10.4271 -1.9102832 -0.54259235 -0.107240364
000010 26 e3 15 bf 5d 81 e1 3c ff b9 0a 41 1b 8b 40 41
       -0.58549726 0.027527506 8.670409 12.033961
000020 01 b7 f6 40 43 45 2a be c9 62 c1 be 21 2d cc bf
       7.7098393 -0.16627984 -0.3777068 -1.5951272
000030 b6 68 cd bf 6a 86 ac 40 32 5f 4f 3f 4e 38 08 c0
       -1.604758 5.391408 0.8100463 -2.1284366
000040 90 30 84 c0 2c 0b 60 40 4d e6 27 bd fa 6c 64 41
       -4.130928 3.5006819 -0.040991116 14.276606
000050 0c 74 a7 40 33 fd d6 40 7e 2f d8 40 06 7c b5 c0
       5.232916 6.718408 6.7557974 -5.6713896
000060 23 62 49 bf 99 b1 f6 bf 5c 8f 31 c0 61 a7 de bf
       -0.7866537 -1.9272949 -2.774375 -1.739483
000070 31 b5 2e 41 66 18 08 41 b0 3f ce 40 60 7b 5b 41
       10.919236 8.505957 6.4452744 13.717621

bn1.running_var f4 [32]
000000 8a 2e 89 43 dc c8 26 41 8d 08 d8 40 e5 cf 76 40
       274.3636 10.424038 6.751044 3.8564389
000010 03 a0 0b 40 62 da 89 40 85 35 2e 43 52 0f 9c 43
       2.1816413 4.307908 174.20906 312.1197
000020 8f b4 0c 43 b3 78 29 40 f1 64 98 40 fe 89 0b 41
       140.7053 2.647992 4.762322 8.7211895
000030 36 48 df 40 ff bb ab 42 03 26 11 41 e9 d1 26 41
       6.977565 85.86718 9.07178 10.426248
000040 02 2e 2f 42 6e 42 1a 42 ba 3f 53 40 c8 14 e2 43
       43.79493 38.564873 3.3007646 452.16235
000050 dc 0f 69 42 5f 00 bf 42 14 7b d8 42 01 72 8f 42
       58.265488 95.500725 108.24039 71.722664
000060 54 fa cc 40 97 43 12 41 a7 53 98 41 06 15 34 41
       6.4055576 9.141501 19.040846 11.255133
000070 db 4e 82 43 46 c3 1f 43 18 d3 bf 42 2a 62 cd 43
       260.61606 159.76279 95.91229 410.7669

conv2.weight f4 [64, 32, 7, 7]
000000 1c 2a 07 3d 30 17 2a bd cb a2 59 bc 43 0c 82 bc
       0.032999143 -0.04152602 -0.013283442 -0.015874987
000010 4d 62 70 bd 87 8a 92 bd 69 31 82 bd a0 c0 8a 3c
       -0.058687497 -0.07155328 -0.063570805 0.016937554
000020 b9 fe b2 3c a1 33 57 3b e2 18 18 bc ba ec 02 3d
       0.021849977 0.003283717 -0.009283276 0.03196404
000030 9b 1b bf bb 8b 43 2a bd 97 98 f0 bc 0d d9 c4 bd
       -0.0058321483 -0.04156832 -0.029369636 -0.09611712
000040 7b b6 a0 bd da 04 02 be ff b3 93 bd 72 3b d0 bd
       -0.078473054 -0.12697163 -0.07212066 -0.10167588
000050 15 be 02 be 02 ee ad 3d 77 04 92 3d 21 ee 58 bc
       -0.12767823 0.08492662 0.07129758 -0.013240368
000060 e3 36 4c 3a 71 c3 de bc 30 8b 4e 3c ae ed 05 bd
       0.0007790161 -0.027192803 0.012606427 -0.032697372
000070 ad 08 8c bd 61 60 42 bd 8b a4 b3 bd c7 00 bf bd
       -0.06837592 -0.047455195 -0.087716185 -0.0932632
000080 34 f8 a9 bd 8c 9f fc bd 57 4e 8a bd 30 7a 2d 3c
       -0.08299294 -0.12335119 -0.067532234 0.010588214
000090 cf da 01 bd 4a 76 40 bd 6c cd d1 bd 36 22 e3 bd
       -0.031702813 -0.04698781 -0.10244259 -0.110905096
0000a0 66 b4 bd bd b4 25 96 bd 80 aa ea 3b 42 91 a7 bb
       -0.09262924 -0.0733141 0.0071614385 -0.0051137516
0000b0 6d e6 00 3d de a4 39 bd 98 aa 2c bd 16 a8 dd bc
       0.03146975 -0.045323245 -0.04215488 -0.027057689
0000c0 08 c6 63 bd 8b 26 b5 bd 37 ad 87 bd f2 2a 8b bd
       -0.05560878 -0.08845242 -0.06624835 -0.067953005
0000d0 1e f9 63 bd 56 8e b3 bd f3 7f 9a bd 7b 44 a8 bd
       -0.0556575 -0.08767383 -0.075439356 -0.082161866
0000e0 d2 cf a6 bd 4d 67 bb bd 00 6f a9 bd 1a 5f ef bc
       -0.08145107 -0.091505624 -0.08273125 -0.029220153
0000f0 a7 70 29 bd 92 76 f8 bc de 98 ab bc 9e 8b 18 be
       -0.0413672 -0.030329976 -0.020946916 -0.1489701
000100 40 14 1d be f8 06 95 bd 76 0a 1a bd 55 c1 81 bd
       -0.15339756 -0.0727672 -0.037607633 -0.06335703
000110 07 27 9c bd 3d ec 62 bd 62 b9 cb bd e5 1d e3 bd
       -0.076246314 -0.055401076 -0.09947468 -0.11089686
000120 7e 30 a4 bd 52 1f e2 bd 26 b0 d7 bd 38 d7 05 be
       -0.08017062 -0.1104113 -0.105316445 -0.1307038
000130 b4 04 16 be eb c4 02 bd 8e 9b a2 bd 9a 99 08 bd
       -0.14650232 -0.031926077 -0.07939826 -0.03334961
000140 40 65 f7 bd 0b 4e 24 be 95 5f e6 bd 07 db ee bd
       -0.12079859 -0.16045396 -0.112486996 -0.1166287
000150 8a 7d a1 3d 1b 07 3c 3c 95 43 38 3d 2f fe 85 3d
       0.07885273 0.011476303 0.044986326 0.06542622
000160 ce 4a 24 3d 9e 23 a6 3c 10 03 98 bc 4c 4e 1e 3d
       0.0401104 0.020280655 -0.018556148 0.03864889
000170 51 e4 1e 3c 3a 18 4d bd 41 8c a1 3d aa 09 65 3d
       0.00969799 -0.050071932 0.078880794 0.05591742
000180 61 ac 9f 3d c6 0a aa 3d d2 23 c2 bc 55 08 fc 3c
       0.077965505 0.08302836 -0.023698721 0.030765692
000190 60 87 3c bb 27 6b 13 bc ab 09 e9 ba 8f 7c 24 bd
       -0.0028767213 -0.008997715 -0.001777937 -0.04015785
0001a0 24 18 2a 3c 4f 09 a3 bd f4 90 70 3a 3e 15 d4 bd
       0.010381732 -0.0796076 0.0009176873 -0.10355614
0001b0 47 ce ed bc 9e 6e c2 bc 93 91 77 bc 6e d4 35 bc
       -0.029029025 -0.023734387 -0.015110391 -0.01109801
0001c0 ff bf 74 3d 04 86 76 3d c1 31 41 3d 4a 51 dc 3c
       0.059753414 0.0601864 0.04716659 0.02689423
0001d0 03 86 20 3d e4 22 23 3d 73 d5 8d 3d d7 98 ba bd
       0.039190304 0.039828196 0.06925478 -0.09111183
0001e0 ee b0 d6 bd 7c 4e b0 bd 48 a5 06 be 41 57 2f be
       -0.104829654 -0.0860872 -0.13148987 -0.17123128
0001f0 a8 b7 26 be 81 b6 e5 bd 1f bd 88 3d 33 55 70 3d
       -0.16280997 -0.112164505 0.06676697 0.058675002
000200 00 8b 26 3d 1a 57 4f bd cf fa d2 bd 22 58 5a bd
       0.040659904 -0.050620176 -0.10301744 -0.053306706
000210 32 84 84 3d e8 41 e4 bc e4 8f fe bc 5b f1 35 bd
       0.06470527 -0.027863458 -0.031074472 -0.044419628
000220 e3 b3 91 bd 69 30 7d bd e2 52 a3 bd cf 94 a0 bd
       -0.07114389 -0.061813746 -0.07974793 -0.07840883
000230 3b a5 95 3c 0f 2c 88 3d 94 c7 c8 3c 97 59 62 3d
       0.018267265 0.066490285 0.024509229 0.05526122
000240 85 13 1c 3d 6f e0 b6 3c f8 b1 2b bb dd 78 ef 3b
       0.038104553 0.022323815 -0.0026198607 0.007308109
000250 12 6b 95 3b fb f5 bb bb bd d0 09 3c c1 e6 c1 bb
       0.004559883 -0.0057361103 0.0084115835 -0.0059174006
000260 7e 98 1c bc 2a 7a e7 bb 58 13 a7 3b 39 5c 15 3d
       -0.009557841 -0.0070641236 0.0050987415 0.036464904
000270 26 22 f9 3c 97 e4 f2 3c 6e ae f6 bc dc 42 f0 3c
       0.030411791 0.029650016 -0.030112471 0.029328756
000280 22 13 2d 3d 8a ac a2 3d 2b bd 4d 3d 3e 4e 8d 3c
       0.042254575 0.079430655 0.050229233 0.017249223
000290 d5 5c 72 3c 64 b0 d2 3c 93 fc 2d 3d 1a 2d 9e bc
       0.014792641 0.025718875 0.0424772 -0.019308615
0002a0 aa f3 90 3d 4b 21 64 3d 25 5e ff bb 65 10 5b 3c
       0.07077725 0.055695813 -0.0077932053 0.013370608
0002b0 3d 6e 64 3d 61 7e b8 3b cf bb 12 3d 42 b7 87 3c
       0.055769194 0.0056303 0.03582364 0.016566876
0002c0 61 ff a3 39 e0 88 b9 bc 19 a8 82 bd 22 4a 16 bd
       0.00031280055 -0.022648275 -0.06379718 -0.036691792
0002d0 b6 58 65 3d f0 7b 4e 3d c4 42 31 bd d4 e5 fd bc
       0.055992804 0.050411165 -0.043276563 -0.03099338
0002e0 92 f8 d7 3c 2a b6 b6 bc c7 3b 52 ba 78 38 d0 bc
       0.026363645 -0.02230366 -0.0008019772 -0.025417551
0002f0 78 ff eb 3c 33 0e 6a 3d ce ff 96 3c aa 8e b1 bb
       0.02880834 0.057142448 0.018432524 -0.005418618
000300 16 47 48 bc d7 97 36 bd e2 ad 8a bd 13 88 ee bc
       -0.012223979 -0.0445784 -0.06771447 -0.02911762
000310 c8 b5 97 bc 97 15 84 3c 21 d1 ba 3b c1 a6 78 3d
       -0.018519297 0.016123576 0.0057011996 0.060705904
000320 72 30 ab bb ac db 38 bb d4 5a 85 3d c1 5c 4c bd
       -0.005224281 -0.0028207107 0.06511465 -0.049893145
000330 e6 aa 3d bc e4 d3 3e bc 5b 7a 1b bc 31 1b a8 bd
       -0.01157639 -0.011647198 -0.009489621 -0.08208311
000340 0f a8 95 bd f0 a7 0c bd d6 6c 93 bb 3c 46 aa bc
       -0.07307445 -0.034339845 -0.0044990582 -0.020785443
000350 af 55 16 bd 61 02 af 3b ac f5 97 bd 19 ea 9d bb
       -0.036702808 0.0053408598 -0.07419905 -0.0048191664
000360 9e 7d e1 bb b2 41 74 3d bb 79 ff 3a 8d d1 45 3a
       -0.00688143 0.059632964 0.0019491235 0.0007546179
000370 fd 2f 44 bd 40 58 80 39 15 d8 6b 3c 0f fa e4 3c
       -0.047897328 0.00024479814 0.01439478 0.027951268
000380 c4 2f ea 3c d5 0a 27 3c f0 18 4b bd 3a 33 9f bc
       0.02858723 0.010195454 -0.04958433 -0.019433606
000390 a6 75 a2 bd 7b 06 61 bd 40 32 14 3d fb 63 45 bd
       -0.07932596 -0.05493782 0.036180735 -0.048191052
0003a0 e9 97 e6 bc ec 9a 74 bd 05 a7 33 bb 34 87 2f bd
       -0.028148608 -0.059718058 -0.0027412784 -0.04285355
0003b0 87 62 30 bd bb 8b 1d 3d f0 23 20 bc 57 18 d8 bc
       -0.043062713 0.038463335 -0.009774193 -0.026378794
0003c0 07 d0 c0 3c ae b2 91 3c db 8a d4 bc 61 f5 12 b9
       0.023536695 0.017785396 -0.025945118 -0.00014015056
0003d0 76 ad 38 bd 3e 3a 38 bb 85 64 e8 3c 11 69 c4 3b
       -0.0450873 -0.0028110887 0.028368244 0.00599397
0003e0 1b 1f cd 3b 2d 08 5b 3c f8 44 02 3d 6f 8e 43 3d
       0.0062598116 0.0133686485 0.031804055 0.047743257
0003f0 1b 10 fd bc e7 58 25 3c 32 db 5a 3a b8 5b a1 bc
       -0.030891469 0.010091997 0.00083487027 -0.019697055

conv2.bias f4 [64]
000000 f4 6f ff 3a d8 c3 4c ba e2 f3 cd 39 39 ae 81 3b
       0.0019488321 -0.00078111654 0.00039282354 0.0039575365
000010 47 dc 22 bb c6 86 04 bb 39 bb c3 ba 36 74 96 ba
       -0.0024850534 -0.0020221933 -0.0014933116 -0.0011478725
000020 43 3f 66 ba 74 a1 fa b9 12 ba 92 36 76 fc 94 b8
       -0.00087832304 -0.00047804008 4.3728005e-06 -7.1042145e-05
000030 95 34 49 3b 67 03 0c ba f6 32 c6 3a a3 31 13 3b
       0.0030701507 -0.0005341083 0.0015121389 0.0022460006
000040 ea 8f bb ba bf 5b 0b bb af fd 95 ba 00 44 ef 3a
       -0.0014309858 -0.0021264402 -0.0011443401 0.0018254519
000050 64 87 ea ba e7 e4 d3 ba 53 d5 20 3b 90 6a 7d bb
       -0.0017893133 -0.0016166241 0.0024541214 -0.0038668253
000060 32 f1 65 ba 3b 54 2b ba 27 1a cf 3a 3c d5 0a 3a
       -0.00087715976 -0.00065356836 0.0015800641 0.00052960566
000070 7e 65 90 39 b7 d3 e6 3b be 03 0a 3b 9a d0 f2 3a
       0.00027541438 0.0070442813 0.002105936 0.0018525303
000080 28 07 b8 ba c0 c3 a3 3a a2 93 3f bb 77 d7 79 ba
       -0.0014040219 0.0012494251 -0.0029232283 -0.0009530703
000090 d8 24 ed ba 3f 99 29 3b f6 c2 3e ba 93 ff 3d b9
       -0.0018092645 0.0025878695 -0.0007276976 -0.00018119653
0000a0 5a 32 4d 3b dd d2 f7 3a 13 91 16 ba dc 94 c6 ba
       0.003131053 0.0018907447 -0.00057436636 -0.0015150565
0000b0 2e 0a 90 bb e1 b0 9f bb 38 af ce 3b 4c 8a a2 bb
       -0.0043957448 -0.0048733805 0.006307509 -0.004960334
0000c0 05 2b b8 39 18 a6 cd 3a 7e 4c c0 ba d8 c7 1a bb
       0.00035127267 0.0015689759 -0.0014671234 -0.0023617651
0000d0 a0 55 e5 ba be 31 47 bb 51 83 a9 3a a9 06 8b ba
       -0.0017496832 -0.003039464 0.0012932812 -0.0010606843
0000e0 8f 3f 1a bb 1e 6f 67 39 91 95 17 bb 94 1b 4f ba
       -0.002353642 0.00022071271 -0.002312992 -0.0007900533
0000f0 2d df 60 3a ef 90 0e 3b af c5 78 39 05 76 92 ba
       0.00085781777 0.0021753868 0.00023724766 -0.0011174089

bn2.weight f4 [64]
000000 5f 0f a8 3f ad 89 7e 3f 07 7f b4 3f 55 d1 cd 3f
       1.3129691 0.99428827 1.4101266 1.6079508
000010 71 a4 ad 3f 34 58 88 3f 72 f8 a6 3f 6a 5e 97 3f
       1.3565809 1.0651917 1.304457 1.1825688
000020 36 2c 70 3f e6 ba a2 3f 90 94 6a 3f 13 8a 81 3f
       0.9381746 1.2713287 0.9163294 1.0120262
000030 ec 35 bd 3f e9 3c 90 3f b9 40 93 3f 32 74 ac 3f
       1.4782081 1.1268588 1.1504127 1.347296
000040 1d dd 83 3f 59 df 98 3f e2 85 9f 3f fe 52 ae 3f
       1.0301853 1.194316 1.2462733 1.3619077
000050 ad 78 9f 3f cd a4 81 3f c9 fd a2 3f 90 89 c0 3f
       1.2458702 1.0128418 1.2733699 1.5041981
000060 92 59 b0 3f 1c 3a 72 3f 72 63 cb 3f 70 2c 67 3f
       1.3777335 0.9461992 1.5889723 0.9030218
000070 cb 70 83 3f ba 31 b0 3f d8 58 a5 3f 7a 23 d1 3f
       1.0268797 1.3765175 1.2917738 1.6338952
000080 34 4e 85 3f c9 d8 b2 3f ae 2b b8 3f 81 33 9a 3f
       1.0414491 1.3972408 1.438833 1.2046968
000090 4b a9 a7 3f 30 48 ba 3f 61 0b 91 3f e4 56 88 3f
       1.3098539 1.455328 1.1331598 1.0651517
0000a0 43 e4 a6 3f c4 ee 98 3f d3 d1 be 3f 5d f2 86 3f
       1.303841 1.1947865 1.4907783 1.0542713
0000b0 10 c7 ac 3f 5a 19 b9 3f 45 13 b6 3f 5c 6a a6 3f
       1.3498249 1.4460862 1.422463 1.3001208
0000c0 36 63 73 3f 97 4b b3 3f 3c 8e 88 3f c5 84 b4 3f
       0.9507326 1.4007443 1.0668406 1.4103018
0000d0 89 1f 90 3f 04 46 b4 3f 34 20 a0 3f 3b 12 ad 3f
       1.1259624 1.4083867 1.2509828 1.3521188
0000e0 f9 90 a7 3f c7 54 9c 3f de 96 a0 3f f7 73 81 3f
       1.3091117 1.2213372 1.2546041 1.0113515
0000f0 10 8e 8b 3f 54 6a 97 3f 2a d0 aa 3f 9d 97 90 3f
       1.0902729 1.1829324 1.3344777 1.1296269

bn2.bias f4 [64]
000000 3a ca 8e bc 65 0c 59 be 05 76 13 bd d4 8f ed be
       -0.017430414 -0.21196134 -0.036001224 -0.46398795
000010 2a d5 b8 be f3 62 76 be 6a 5d 42 be f7 ee 8f be
       -0.3610013 -0.24061184 -0.18980947 -0.28112003
000020 4b 66 ba be 9f 6a 82 be 8f e2 ac be 12 c6 8c be
       -0.36406168 -0.2547197 -0.337666 -0.27494866
000030 c9 00 e6 bd 78 7d 9a be 51 4b 6a be 64 b7 92 be
       -0.112306185 -0.3017385 -0.22880293 -0.2865554
000040 8d 44 ad be 66 a0 0b be af 92 94 be 35 89 59 be
       -0.33841363 -0.13635406 -0.2901816 -0.21243747
000050 a6 40 a6 be 65 3c 85 be 74 a2 97 be 49 cf 3e be
       -0.32471198 -0.2602264 -0.2961613 -0.1863376
000060 f2 50 80 be 4e d0 b5 be ff cf 5d be df 33 bc be
       -0.25061756 -0.35510486 -0.21661375 -0.36758325
000070 8f a9 75 be c7 07 2f be c0 a7 97 bd af 33 bb be
       -0.23990463 -0.1709281 -0.07405043 -0.3656287
000080 8b b2 85 be 54 69 15 be d7 c2 15 be be 16 8c be
       -0.2611278 -0.1459096 -0.14625107 -0.273611
000090 46 17 c1 bd 26 e4 79 be 61 5e 97 be 61 4c 58 be
       -0.09428267 -0.24403438 -0.29564193 -0.21122886
0000a0 20 e0 bb bd 92 8c 26 be 07 1e 77 bd 2a 2c 80 be
       -0.09173608 -0.16264561 -0.06033137 -0.25033695
0000b0 00 f6 ba be 48 d3 bd be 04 b5 53 be e6 64 b6 be
       -0.36515808 -0.37075257 -0.2067452 -0.35623854
0000c0 8a 67 ea be 90 0e 99 be 37 8d 9a be dd ef e0 be
       -0.4578212 -0.29893923 -0.30185863 -0.43933
0000d0 1c 78 4e be dd ad 9b be 4f 0e b5 be 0d 03 b8 be
       -0.20163006 -0.30406085 -0.3536248 -0.35939828
0000e0 e4 3e 86 be 78 79 cb bd c4 22 6a be b6 03 8c be
       -0.26219857 -0.09935278 -0.22864825 -0.2734658
0000f0 eb ed c2 be 36 50 a6 be d1 17 b1 be 3d d7 8d be
       -0.38072142 -0.3248307 -0.34588483 -0.27703276

bn2.running_mean f4 [64]
000000 c6 ee 23 c1 8f 8e 3f 40 ee 72 1a c1 a5 82 69 c0
       -10.245794 2.993076 -9.653059 -3.648599
000010 ef 29 29 c0 0c 91 12 40 e4 b3 c3 bf 6c 0c e4 be
       -2.6431844 2.290103 -1.5289273 -0.44540727
000020 ab 88 4f 40 cb 64 f3 3d 84 a8 9d 40 cc 58 b1 be
       3.2427166 0.11884459 4.9268208 -0.3463806
000030 d3 96 01 c1 c6 4d 42 3f 0b 0c b0 c0 f6 2c ae bf
       -8.099322 0.7589992 -5.50147 -1.3607471
000040 9e 43 81 c0 0a e7 9d 3f d1 54 07 c1 7c 0f 09 c1
       -4.039504 1.2336133 -8.458207 -8.56628
000050 88 0b 93 bf 78 9f 1b c0 8b 7c 4f c0 82 83 01 c0
       -1.1487894 -2.4316082 -3.2419765 -2.0236516
000060 7c 5c 7d c0 46 15 12 c0 7c 30 a7 c0 41 d0 bd 3f
       -3.9587698 -2.2825484 -5.2246685 1.4829179
000070 55 e6 52 40 c3 3c fb c0 89 70 42 c0 5e 92 32 be
       3.2953084 -7.851167 -3.0381186 -0.17438647
000080 93 0f a3 3e 9a 03 0f c1 4d 9b 13 40 81 15 a2 bf
       0.3184782 -8.938379 2.3063538 -1.2662812
000090 3e 64 28 c1 3b 96 bd bd af 1b 8c 40 a5 94 8e c0
       -10.524473 -0.0925717 4.3783793 -4.455645
0000a0 aa 3a 2a c1 41 61 f6 c0 78 c7 b4 c0 d1 ec 03 40
       -10.639322 -7.699372 -5.649349 2.0613291
0000b0 88 61 97 bf 28 3f 64 3e ab 8d d3 c0 3a 43 19 c0
       -1.1826639 0.22289717 -6.6110435 -2.3947282
0000c0 67 f2 81 40 e0 40 83 bf 9f f3 5f c0 d3 37 7f bf
       4.06084 -1.0254173 -3.4992445 -0.99694556
0000d0 4d ba ea 3f 5d 8b 94 3f 98 aa d4 bd d5 99 2a c0
       1.8338104 1.160503 -0.10384101 -2.6656392
0000e0 a4 c2 36 c0 66 fc 1a c1 23 a9 aa bf ea 24 3e 40
       -2.85563 -9.686621 -1.3332866 2.971003
0000f0 8a 35 73 c0 60 07 07 c0 b9 7c 8c be 18 15 0f c0
       -3.8001428 -2.1098251 -0.27438906 -2.2356625

bn2.running_var f4 [64]
000000 14 9f 1e 42 b1 68 ce 41 99 87 16 42 22 ee 5f 41
       39.65535 25.801119 37.63242 13.995638
000010 f9 d4 96 41 70 72 ed 41 d2 ba 62 41 90 85 6e 41
       18.85399 29.680878 14.17061 14.907608
000020 35 f0 3f 41 c1 8b 28 41 18 c5 b2 41 65 92 6b 41
       11.996144 10.53412 22.346237 14.723241
000030 83 a0 d6 41 9b 78 dc 41 5c 2f 89 41 d0 b4 21 41
       26.828375 27.55889 17.148125 10.106644
000040 8b d6 9f 41 98 b0 e2 41 5b 97 29 42 a2 93 f8 41
       19.979757 28.336227 42.397808 31.072086
000050 60 1e 9a 41 f6 48 5b 41 43 cd 52 41 4e f6 71 41
       19.264832 13.705313 13.175113 15.122633
000060 e0 82 d9 41 15 04 ae 41 76 73 c9 41 4d 3e 95 41
       27.188904 21.751993 25.181377 18.65542
000070 91 29 ad 41 a9 7a c6 41 06 9b 96 41 b6 6c 67 41
       21.645296 24.809893 18.825695 14.464041
000080 d9 04 76 41 4a c3 19 42 6b a0 6d 41 93 0c 99 41
       15.3761835 38.440712 14.851665 19.13114
000090 7a 4a 23 42 73 8c 2e 41 7c 97 02 42 cd 40 22 42
       40.82273 10.909289 32.647934 40.563282
0000a0 d8 dc f5 41 21 50 b0 41 05 ec c0 41 ea 62 48 41
       30.732834 22.039125 24.115244 12.524149
0000b0 40 e4 08 41 1c 44 55 41 31 8e bf 41 65 50 f9 40
       8.555725 13.329128 23.94443 7.791064
0000c0 ec 16 90 41 87 fd 88 41 6b dc 43 41 1a 84 96 41
       18.011192 17.123793 12.241313 18.814503
0000d0 3f 75 b9 41 41 0c 2d 41 61 cb 96 41 15 a4 28 41
       23.18225 10.815492 18.849306 10.540059
0000e0 30 22 22 41 ff 82 32 42 4a cf 83 41 93 bf be 41
       10.133347 44.627926 16.476215 23.843542
0000f0 fc 63 81 41 c8 db 64 41 66 4b 8e 41 e2 a2 ea 41
       16.17382 14.303658 17.786816 29.329533
