integrated_mfdwc_cnn_dcase/results/a-b/CL_2025-12-18 04_51_36.063027.pth (torch, 109561 bytes, 4 tensors)

fc1.weight f4 [100, 256]
0.030143103 0.1325993 -0.076393604 -0.058806945 -0.02628273 0.066908546 -0.011058135 -0.17584245
0.49245396 -0.29398367 -0.055660855 -0.18812802 -0.19921394 -0.0060843974 -0.0115664415 0.4414854
0.23468107 0.029692251 -0.06109719 -0.22584407 0.2319657 0.09932208 -0.048194747 -0.2275057
0.07554721 0.004633111 0.08462869 -0.40229526 -0.09374092 0.046431273 -0.085242406 0.15635982
0.09608392 -0.0063525876 -0.30633757 0.006544357 0.14327958 -0.014277668 -0.44365525 -0.13466574
0.12379494 -0.014348928 0.030844726 0.074563056 0.12232137 0.015945401 -0.25319272 -0.41963452
-0.10370385 0.33346224 -0.07058595 0.00049911725 -0.093047895 0.18510143 -0.11016732 0.084480986
0.02858814 0.07562071 0.01228619 -0.17070447 -0.007998867 0.15656236 -0.1232469 -0.21181409
-0.045331042 0.24007636 -0.07265406 -0.18065083 0.081301875 0.028569153 -0.16187331 -0.28086442
0.048072483 -0.013418578 -0.18435208 0.05754334 0.2182005 0.15000705 -0.18553394 -0.07957116
-0.21777336 0.060760215 0.048227876 -0.044651885 -0.14356585 0.046431277 -0.015076493 -0.15824962
0.042216428 0.08579063 0.018013211 -0.037758883 0.3367711 -0.08503787 0.10070377 -0.14336672
0.15188465 -0.090551585 0.21513857 -0.1637736 0.114937276 0.09594941 -0.115786195 -0.034956247
-0.2502721 0.2113075 -0.12587316 0.41160247 -0.086377785 0.052048378 0.080190584 -0.014715717
0.06986702 0.12812187 0.029202309 -0.3165369 -0.023377825 0.18526742 -0.064652756 0.045727614
0.07298509 -0.13278627 0.045883153 -0.20585163 0.021641148 0.035183508 -0.09403896 -0.3241745
0.120238714 -0.020215211 0.02198867 -0.4728897 0.23499511 -0.0021488806 0.017454429 -0.069528416
0.15510009 -0.031584997 -0.38107592 0.06318516 0.06759222 0.14039734 -0.10627775 -0.16016515
-0.06908792 0.18129657 0.042610038 -0.01218463 0.20243795 -0.014389934 -0.31304562 -0.21045956
0.11671217 -0.05139017 -0.43689626 -0.12948121 0.05748134 -0.01752825 -0.111044385 -0.056861237
0.16392553 -0.0542791 0.1183183 -0.087764576 -0.012243523 -0.012671867 0.10828182 0.02578997
-0.14256121 0.26063776 -0.099380165 0.20115346 0.18013296 -0.01399875 -0.27784517 -0.1808
0.11060293 -0.16756284 -0.26403147 0.10635772 0.10277771 0.10723894 -0.06016902 -0.2674706
-0.009583587 0.08608239 -0.19633341 0.14041744 0.023618815 -0.0052164933 -0.2436246 -0.10771611
0.09301867 0.15478577 -0.23695701 0.034948606 0.010807367 0.07739523 0.035120405 -0.11703879
0.031343177 -0.0405266 -0.32711908 -0.03149595 0.13278094 -0.10303024 0.05127029 -0.15324196
0.16152462 0.018272085 0.057733722 -0.29831046 0.030460779 0.052641768 -0.16607612 0.06912852
-0.102057815 0.13268255 -0.046166755 -0.09282935 0.09764269 -0.021739563 0.018176077 0.051967427
0.16846865 -0.023829544 -0.29389927 -0.25521532 -0.04617998 0.27323738 0.13066097 -0.089643545
-0.008031549 0.056600258 0.00417663 -0.3137186 0.06519654 0.048825167 -0.35298157 -0.046598908
-0.07854223 0.14939475 0.06751503 -0.12863478 -0.25964296 0.2277683 0.045294575 -0.05671569
-0.043537717 0.095341004 0.04406257 -0.1732421 0.22079389 0.06201698 -0.21856254 -0.15283506
00000000: abee f63c 1cc8 073e 4074 9cbd 8ddf 70bd
00000010: e14e d7bc 5907 893d 2e2d 35bc 0b10 34be
00000020: ed22 fc3e 0785 96be a3fc 63bd a2a4 40be
00000030: bdfe 4bbe a05f c7bb 2c81 3dbc 600a e23e
00000040: 3c50 703e 2a3d f33c 0c41 7abd ab43 67be
00000050: 6b88 6d3e 6069 cb3d db67 45bd 41f7 68be
00000060: 7fb8 9a3d 5ad1 973b ce51 ad3d a5f9 cdbe
00000070: 3dfb bfbd b82e 3e3d 9293 aebd ca1c 203e
00000080: a5c7 c43d 5e29 d0bb 47d8 9cbe 0c72 d63b
00000090: e2b7 123e e1ec 69bc c826 e3be d1e5 09be
000000a0: 3488 fd3d c417 6bbc 14ae fc3c 84b4 983d
000000b0: a083 fa3d ee9f 823c 7aa2 81be 56da d6be
000000c0: af62 d4bd 90bb aa3e 5e8f 90bd 31d7 023a
000000d0: e58f bebd 3b8b 3d3e 679f e1bd 5e04 ad3d
000000e0: ad31 ea3c 08df 9a3d 044c 493c 27cd 2ebe
000000f0: ae0d 03bc e251 203e df68 fcbd cbe5 58be
00000100: 0bad 39bd 94d6 753e a7cb 94bd 88fc 38be
00000110: 9981 a63d db09 ea3c 1ec2 25be 76cd 8fbe
00000120: a7e7 443d 98d9 5bbc cbc6 3cbe 91b2 6b3d
00000130: f46f 5f3e 739b 193e 9cfc 3dbe 34f6 a2bd
00000140: fbff 5ebe b4df 783d 988a 453d e5e4 36bd
00000150: ed02 13be b92e 3e3d 6503 77bc 300c 22be
00000160: 22eb 2c3d ffb2 af3d 7190 933c 0fa9 1abd
00000170: 436d ac3e 5628 aebd c73d ce3d bace 12be
00000180: a687 1b3e 1c73 b9bd 494d 5c3e 44b4 27be
00000190: 3c64 eb3d 2081 c43d 5021 edbd 482e 0fbd
000001a0: aa23 80be fe60 583e e5e4 00be 8fbd d23e
000001b0: d6e6 b0bd ae30 553d f63a a43d 311a 71bc
000001c0: 7116 8f3d 6132 033e ae39 ef3c 2011 a2be
000001d0: da82 bfbc beb6 3d3e aa68 84bd e14c 3b3d
000001e0: 3579 953d 20f9 07be f9ef 3b3d c5ca 52be
000001f0: c748 b13c 951c 103d 8097 c0bd 33fa a5be
00000200: b73f f63d 5f9a a5bc 9521 b43c 991e f2be
00000210: 8fa2 703e 3cd4 0cbb 97fc 8e3c ea64 8ebd
00000220: 8fd2 1e3e 455f 01bd 621c c3be 3967 813d
00000230: ca6d 8a3d 52c4 0f3e 26a8 d9bd 5502 24be
00000240: f87d 8dbd cfa5 393e dd87 2e3d 0ba2 47bc
00000250: e54b 4f3e c2c3 6bbc 8447 a0be b682 57be
00000260: ca06 ef3d 807e 52bd deb0 dfbe b996 04be
00000270: 8e71 6b3d 6897 8fbc 3d6b e3bd 54e7 68bd
00000280: 18dc 273e c353 5ebd dd50 f23d eabd b3bd
00000290: 0f99 48bc aa9d 4fbc dcc2 dd3d 7d45 d33c
000002a0: 91fb 11be 5072 853e d487 cbbd 2cfb 4d3e
000002b0: c674 383e 035b 65bc b941 8ebe a323 39be
000002c0: ca83 e23d 9895 2bbe 222f 87be 14d2 d93d
000002d0: 1f7d d23d 17a0 db3d ca73 76bd e8f1 88be
000002e0: 7a04 1dbc f74b b03d a00b 49be 97c9 0f3e
000002f0: 3f7c c13c 1eef aabb ba78 79be 449a dcbd
00000300: 9380 be3d 2980 1e3e dca4 72be 4526 0f3d
00000310: 6211 313c 6481 9e3d 6ada 0f3d 08b2 efbd
00000320: b461 003d 38ff 25bd 277c a7be e601 01bd
00000330: baf7 073e 8501 d3bd cc00 523d 76eb 1cbe
00000340: b666 253e 57af 953c 327a 6c3d 26bc 98be
00000350: e288 f93c e59e 573d dc0f 2abe 4193 8d3d
00000360: b003 d1bd efdd 073e 5a19 3dbd 501d bebd
00000370: e4f8 c73d 2b17 b2bc ffe5 943c ccdb 543d
00000380: 0c83 2c3e 2d36 c3bc f779 96be 95ab 82be
00000390: 3827 3dbd c5e5 8b3e fdcb 053e 0997 b7bd
000003a0: c296 03bc acd5 673d 1ddc 883b b99f a0be
000003b0: c385 853d e6fc 473d 00ba b4be 7fde 3ebd
000003c0: c0da a0bd f0fa 183e 5245 8a3d d6b8 03be
000003d0: ecef 84be 183c 693e ce86 393d b64e 68bd
000003e0: 9b54 32bd 2542 c33d f47a 343d 6166 31be
000003f0: cb17 623e 8405 7e3d dcce 5fbe cb80 1cbe

fc1.bias f4 [100]
-0.095961176 -0.01804785 -0.07447357 0.18629916 0.01653869 -0.04842177 -0.043522213 -0.034914043
-0.0576185 -0.03314616 -0.017183721 0.17602094 -0.024225196 0.02927301 -0.12674665 -0.011174117
0.045661222 -0.08114457 0.0036570868 -0.03235348 0.027926216 0.18495364 -0.085314505 -0.11050666
0.16936989 -0.0335406 -0.024632998 0.029817468 -0.0750322 -0.10819973 -0.030827377 -0.019927574
0.07508551 -0.023934307 0.07277494 -0.04447448 0.09573458 0.0043177344 -0.02203218 -0.10229142
0.10554589 -0.020576382 0.038599856 -0.13187017 -0.02577701 0.035650343 -0.023115994 -0.023858972
-0.020754747 0.038902182 -0.03667816 -0.014650343 -0.006658957 -0.068578824 0.10400257 -0.0073592854
0.12612858 -0.056748703 -0.048361287 0.1463992 -0.016768219 0.1084638 -0.012585463 -0.024913672
0.0993925 -0.034458023 0.24251029 -0.008032962 -0.042908378 -0.15896513 0.16872275 -0.029287469
-0.022731464 0.052040312 -0.019300507 -0.046359237 0.14708725 -0.09988944 -0.025078643 0.07318908
0.027917543 -0.0072641866 0.041052554 0.14407077 0.005855346 -0.029019078 0.13375792 -0.015714439
0.20108616 -0.0056579593 -0.012532447 -0.08273495 -0.027812265 -0.025488665 -0.0088604875 0.012666382
-0.005190598 -0.037511535 0.13064174 -0.019022502
00000000: 4b87 c4bd 16d9 93bc 9985 98bd 35c5 3e3e
00000010: 267c 873c e855 46bd 5944 32bd 0702 0fbd
00000020: 6001 6cbd 45c4 07bd e0c4 8cbc d53e 343e
00000030: eb73 c6bc f4cd ef3c e0c9 01be a513 37bc
00000040: 4307 3b3d 202f a6bd bcab 6f3b 1585 04bd
00000050: 85c5 e43c 7d64 3d3e 5fb9 aebd 5151 e2bd
00000060: 4d6f 2d3e de61 09bd 24cb c9bc c343 f43c
00000070: 7baa 99bd d297 ddbd b289 fcbc 273f a3bc
00000080: 6fc6 993d e111 c4bc 070b 953d df2a 36bd
00000090: 7e10 c43d c87b 8d3b d57c b4bc 2a7e d1bd
000000a0: 7228 d83d cd8f a8bc e21a 1e3d f908 07be
000000b0: 4f2a d3bc 1806 123d c15d bdbc e473 c3bc
000000c0: dc05 aabc e557 1f3d d73b 16bd fe07 70bc
000000d0: 6133 dabb 0e73 8cbd 4dff d43d 2926 f1bb
000000e0: da27 013e 5471 68bd 7c16 46bd ace9 153e
000000f0: 815d 89bc 4522 de3d 4233 4ebc c217 ccbc
00000100: 4c8e cb3d db23 0dbd 9e54 783e af9c 03bc
00000110: b2c0 2fbd c1c7 22be a8c5 2c3e 46ec efbc
00000120: 5637 babc 3928 553d 191c 9ebc 2fe3 3dbd
00000130: 0a9e 163e d692 ccbd ba71 cdbc 28e4 953d
00000140: 55b3 e43c 6a08 eebb b926 283d 4a87 133e
00000150: 34de bf3b 6bb9 edbc d6f7 083e 91bb 80bc
00000160: 88e9 4d3e 6766 b9bb e554 4dbc f170 a9bd
00000170: 8cd6 e3bc 9bcd d0bc 942b 11bc a886 4f3c
00000180: e415 aabb b2a5 19bd f3c6 053e 14d5 9bbc

fc2.weight f4 [10, 100]
-0.22689323 -0.21658844 -0.2313218 0.12595074 -0.24227454 0.025192104 -0.06661237 -0.39222798
-0.03922317 0.053540796 -0.013976659 0.08388467 -0.09347562 -0.17817591 -0.32158038 0.05666851
-0.1167387 -0.263267 -0.25682828 -0.5652092 -0.039485402 0.07841963 -0.33908522 -0.01172375
0.07393996 -0.11107591 0.07024105 -0.12035521 -0.4394024 -0.26961908 0.046782993 -0.010703883
0.28876284 0.0725792 0.07610459 -0.26601914 0.13813798 -0.1534624 0.05787423 -0.2372452
-0.06847773 0.06892781 -0.17167857 -0.11369926 -0.5292808 -0.1318205 0.08796943 -0.21890834
-0.029543744 -0.21772404 0.07958921 -0.06237456 -0.16673495 0.09157858 0.09395589 -0.15191945
0.16655454 -0.59069324 -0.093722835 0.14251836 -0.061233953 0.2961464 -0.13797715 0.023488473
0.18415713 -0.068332426 0.12893131 -0.088061444 -0.038335435 -0.15214841 0.15030976 -0.04004679
-0.22543411 0.2989671 -0.05182841 -0.45640728 -0.056751005 -0.00922649 -0.09129075 -0.0182035
0.0932195 0.18500358 -0.3302746 0.16436613 -0.607231 0.2480864 -0.00798757 -0.10686523
0.16609988 0.060119532 0.2990672 -0.3756722 -0.40872633 -0.118529506 0.03376409 0.03622114
0.28923997 -0.041585736 0.057863053 -0.03897704 -0.04230046 0.00044570243 -0.4285481 0.15231295
-0.340633 0.017952304 -0.036579296 0.07643686 -0.36740085 0.027984045 0.07639832 0.112130955
0.04700102 -0.12655471 -0.49893853 0.040094145 0.11092779 -0.46763566 0.22574575 -0.4990429
-0.45462725 0.06750502 -0.13450402 -0.45200017 0.08925799 -0.012265802 -0.06279876 -0.21071042
-0.49565947 -0.41614482 0.0807886 0.047710136 0.29033846 0.014478961 -0.18542194 -0.071868755
0.13854067 -0.4620563 0.05572505 -0.48407924 -0.39783114 0.06756501 -0.023124894 -0.36369464
-0.23320843 -0.2401031 -0.016613957 -0.3129731 0.053845413 0.021683957 -0.0779671 -0.014817217
0.24453396 0.07189311 0.11495503 -0.11432498 0.15907414 -0.60954654 -0.03102831 0.17038018
-0.017459216 0.3249476 -0.115270935 -0.06259068 0.20218444 0.0666012 0.12035479 -0.30232766
0.2311925 -0.4503526 0.028787773 -0.09817023 0.09625253 0.1767944 -0.0059313662 -0.56975526
0.00807481 -0.41386876 0.039564908 -0.24650258 0.0625062 0.160611 -0.115236945 0.0042029647
0.13309766 0.016051672 -0.045101933 -0.0014813045 0.1595785 0.051137548 -0.35737824 -0.10292747
-0.21228819 -0.1602893 -0.016196763 -0.43170905 -0.16403724 -0.04323628 0.06596292 -0.06375919
0.2368689 -0.07757223 0.19708839 0.054846402 0.4043803 0.012665189 -0.01371347 -0.11089236
0.14628476 0.014454147 -0.10254508 0.05170089 -0.2846157 0.31720784 0.21061142 -0.082723185
-0.1495695 0.15301025 0.21498309 0.07612002 -0.31377137 -0.006246642 -0.5103445 0.15907314
-0.6488836 0.008448578 -0.024873117 0.118804604 -0.21132728 -0.31029814 0.09750309 0.015918419
0.032105096 -0.07668443 0.1963891 0.07670255 -0.16796374 0.15511052 0.045749683 -0.4626539
0.120338835 -0.05828146 0.5809207 -0.14716014 0.1536603 0.18546456 0.028157521 0.48953104
-0.013347161 0.36003056 -0.008927322 0.042227574 -0.2122154 -0.40914273 -0.38170716 0.432601
00000000: b356 68be 5cc9 5dbe 9fdf 6cbe 3bf9 003e
00000010: d116 78be ac5f ce3c 116c 88bd 1bd2 c8be
00000020: 7aa8 20bd 984d 5b3d 5bfe 64bc bacb ab3d
00000030: 2570 bfbd bf73 36be 2fa6 a4be 3d1d 683d
00000040: b314 efbd efca 86be ff7e 83be 8db1 10bf
00000050: 72bb 21bd 799a a03d 949c adbe f914 40bc
00000060: d56d 973d c47b e3bd 8ada 8f3d cb7c f6bd
00000070: 5af9 e0be 830b 8abe 869f 3f3d 575f 2fbc
00000080: b9d8 933e 67a4 943d b9dc 9b3d a933 88be
00000090: 0b74 0d3e 3f25 1dbe 870d 6d3d 68f0 72be
000000a0: 0d3e 8cbd 062a 8d3d 82cc 2fbe 28db e8bd
000000b0: f27e 07bf f4fb 06be 5129 b43d 8229 60be
000000c0: b905 f2bc 0df3 5ebe abff a23d 777c 7fbd
000000d0: 91bc 2abe 8d8d bb3d f26b c03d c690 1bbe
000000e0: 468d 2a3e ac37 17bf c2f1 bfbd 55f0 113e
000000f0: 74d0 7abd 80a0 973e e249 0dbe e66a c03c
00000100: b093 3c3e dff1 8bbd 9206 043e 8f59 b4bd
00000110: 9e05 1dbd cbcc 1bbe cdea 193e 1a08 24bd
00000120: 33d8 66be 3712 993e 074a 54bd 37ae e9be
00000130: be73 68bd b42a 17bc a5f6 babd 821f 95bc
00000140: dde9 be3d 9471 3d3e c119 a9be 984f 283e
00000150: 7e73 1bbf 5c0a 7e3e 4cde 02bc 28dc dabd
00000160: 1616 2a3e e63f 763d 561f 993e 1b58 c0be
00000170: 9444 d1be 99bf f2bd 374c 0a3d 9e5c 143d
00000180: 4317 943e ce55 2abd cf01 6d3d 64a6 1fbd
00000190: 3f43 2dbd 2bad e939 a86a dbbe edf7 1b3e
000001a0: 7367 aebe b610 933c 2cd4 15bd ee8a 9c3d
000001b0: f71b bcbe cc3e e53c b976 9c3d eaa4 e53d
000001c0: 2484 403d 8f97 01be df74 ffbe c239 243d
000001d0: 1c2e e33d f16d efbe e529 673e 8d82 ffbe
000001e0: e7c4 e8be 1240 8a3d 6cbb 09be 916c e7be
000001f0: e5cc b63d 81f6 48bc a39c 80bd 79c4 57be
00000200: 14c7 fdbe ef10 d5be 7e74 a53d b46b 433d
00000210: 3ea7 943e 2a39 6d3c 40df 3dbe ed2f 93bd
00000220: 9bdd 0d3e a592 ecbe f33f 643d 3cd9 f7be
00000230: 86b0 cbbe 865f 8a3d 6b70 bdbc 2f36 babe
00000240: 31ce 6ebe 96dd 75be fe19 88bc 033e a0be
00000250: 028d 5c3d 8ea2 b13c 37ad 9fbd eac3 72bc
00000260: 1c67 7a3e b23c 933d 8b6d eb3d 3723 eabd
00000270: 55e4 223e 3e0b 1cbf 152f febc 2478 2e3e
00000280: a106 8fbc 885f a63e 2b13 ecbd 8b2f 80bd
00000290: 7009 4f3e 3666 883d 927c f63d b1ca 9abe
000002a0: babd 6c3e 9e94 e6be 56d4 eb3c 790d c9bd
000002b0: 0c20 c53d 9709 353e e85b c2bb 7bdb 11bf
000002c0: 354c 043c 9be6 d3be d00e 223d 2c6b 7cbe
000002d0: 4003 803d 3677 243e 5901 ecbd 06b9 893b
000002e0: c14a 083e cc7e 833c cebc 38bd 5528 c2ba
000002f0: 8c68 233e 9b75 513d 48fa b6be a3cb d2bd
00000300: 1362 59be e122 24be 13af 84bc f808 ddbe
00000310: 61f9 27be 8718 31bd 9117 873d 2e94 82bd
00000320: c38d 723e 30de 9ebd 8ad1 493e 9fa6 603d
00000330: ef0a cf3e a781 4f3c 76ae 60bc 891b e3bd
00000340: accb 153e 16d1 6c3c 2803 d2bd 50c4 533d
00000350: 26b9 91be 1169 a23e 85aa 573e c66a a9bd
00000360: bf28 19be b8ae 1c3e 8724 5c3e d0e4 9b3d
00000370: a4a6 a0be a2b0 ccbb f0a5 02bf 12e4 223e
00000380: 3c1d 26bf e86b 0a3c b5c2 cbbc d44f f33d
00000390: 2e66 58be 66df 9ebe b3af c73d 5867 823c
000003a0: a280 033d ba0c 9dbd 391a 493e 3a16 9d3d
000003b0: b0fe 2bbe 4bd5 1e3e 0564 3b3d f9e0 ecbe
000003c0: 3574 f63d 8ab8 6ebd 38b7 143f 26b1 16be
000003d0: 2059 1d3e 6cea 3d3e 9aaa e63c d0a3 fa3e
000003e0: 0dae 5abc ed55 b83e e743 12bc d2f6 2c3d
000003f0: fe4e 59be 287b d1be 1f6f c3be e17d dd3e

fc2.bias f4 [10]
-0.025142951 0.1356813 -0.2194711 0.27426168 -0.18842018 -0.09802995 0.17392679 0.00926173
-0.10358699 -0.027835207
00000000: 97f8 cdbc 0af0 0a3e 08bd 60be 076c 8c3e
00000010: 38f1 40be edc3 c8bd dd19 323e 83be 173c
00000020: 6a25 d4bd a906 e4bc
