integrated_mfdwc_cnn_dcase/results/a-b/FE_2025-12-18 04_51_36.063027.pth (torch, 415473 bytes, 12 tensors)

conv1.weight f4 [32, 1, 7, 7]
-0.32815585 -0.6186393 -0.6651572 -0.5410849 -0.620685 -0.555887 -0.5632472 0.034068782
-0.100617796 0.015073809 -0.06764401 -0.010997339 -0.039452255 -0.0055874866 0.014884365 -0.02932824
-0.0015525257 -0.04089083 0.006438396 -0.025021307 0.014301514 0.043290004 0.08607286 0.055424288
0.07766135 0.084350385 0.064872414 0.05909835 0.023210507 0.015958667 0.019229673 0.023636177
-0.016132763 -0.021942267 -0.023738965 0.005518691 0.00697193 -0.0072945943 0.02414884 -0.008192474
0.029630866 -0.009990031 0.02072863 0.018601568 -0.009671256 0.0119000515 0.0229149 0.017318973
0.010796023 0.023687214 -0.008602771 0.006970566 -0.07765042 -0.015568925 0.06530845 0.03108229
0.0011475995 0.033264674 -0.048492625 -0.11580249 0.043052245 0.094484664 0.023055866 -0.03405998
-0.0022128955 -0.07150973 -0.15526602 0.038001746 0.20808098 0.1438348 0.12658547 0.1312407
0.01332119 -0.05394092 0.14174788 0.3338719 0.27054614 -0.05384925 -0.016172925 -0.1302965
-0.117609136 0.015588535 0.070356645 -0.010446411 -0.10956675 -0.016929058 -0.09022044 -0.1377297
0.0051270723 -0.020264093 -0.010818927 -0.064164214 0.054185987 -0.054974288 -0.06874352 0.009894963
0.004292907 0.035278585 -0.09409787 -0.06550145 -0.016248189 0.022105265 0.00991576 0.037660684
0.04452713 -0.08964073 -0.026307812 0.008329763 0.0008664214 0.055765964 0.0054055355 0.040928114
-0.099933006 -0.044169612 0.004364998 -0.012503173 0.06370567 0.057964843 0.10129134 0.08340546
0.1281488 0.1551773 0.18123746 0.22747566 0.1556583 0.20094392 -0.046344735 -0.073380746
-0.0071884864 0.07221389 0.1197702 0.054218415 0.0422478 -0.22687137 -0.1755372 -0.09367177
-0.032212127 0.030374702 -0.027250662 -0.0109148035 -0.2010241 -0.16606872 -0.086045064 -0.004893215
0.006045272 -0.1157665 -0.11428474 -0.049876932 -0.00383701 0.00340475 0.017146192 -0.07859405
-0.050014798 0.104635425 -0.027542071 0.09105095 0.15580659 0.07592017 -0.0491906 0.02095478
0.13868739 0.027539918 0.08732448 0.15493494 0.14736596 0.016290376 0.1292988 0.13752426
-0.2734603 -0.12102993 -0.09783376 -0.08149129 -0.2141814 -0.1685444 -0.17644617 -0.09954142
-0.08292798 0.041215204 -0.0042341263 -0.113547444 -0.083204426 0.0147033725 -0.011000056 0.0105075175
0.025147118 0.06843989 0.011563612 0.015300352 0.07479464 0.0054560374 -0.024182843 0.033501733
0.060971107 -0.023307132 0.07339772 0.03284918 -0.08424987 -0.101926036 0.04276535 0.0919429
0.06438082 0.109304704 0.053308606 -0.06464574 -0.11210659 0.008802708 0.008320899 0.03810912
0.03756279 0.054358065 -0.12902084 -0.23345041 -0.018916154 0.05467784 0.080689944 0.093533
0.06863459 -0.0062687155 -0.15418506 0.10589733 0.09707789 0.03324141 0.060032986 0.14342043
-0.11512884 -0.1839196 0.08230593 0.10338605 -0.010653875 -0.012133091 0.043948814 -0.19228186
-0.20514557 0.016683573 0.04367392 -0.024498038 -0.034150608 0.048386134 -0.11448092 -0.19269878
0.0005482685 0.031460464 0.07333425 0.08325558 0.09470272 0.022881271 0.12074295 -0.025256097
0.037849408 0.16944586 0.15910053 0.014490016 -0.10723378 -0.020487348 -0.10132184 -0.024507426
00000000: 0b04 a8be 255f 1ebf be47 2abf 8a84 0abf
00000010: 36e5 1ebf 9c4e 0ebf f830 10bf b58b 0b3d
00000020: b410 cebd 23f8 763c f188 8abd 2f2e 34bc
00000030: b098 21bd 3c17 b7bb 8ddd 733c c741 f0bc
00000040: 1e7e cbba 257d 27bd 2ef9 d23b 7cf9 ccbc
00000050: e650 6a3c dc50 313d f846 b03d 9404 633d
00000060: ea0c 9f3d e5bf ac3d d4db 843d 1d11 723d
00000070: f623 be3c c0bb 823c 8c87 9d3c a8a0 c13c
00000080: db28 84bc 45c0 b3bc 3878 c2bc 23d6 b43b
00000090: ca74 e43b 7e07 efbb cad3 c53c ba39 06bc
000000a0: 6ebc f23c 3aad 23bc 16cf a93c 5162 983c
000000b0: 3074 1ebc 6ff8 423c 07b8 bb3c 85e0 8d3c
000000c0: cde1 303c b00b c23c a3f2 0cbc 5969 e43b
000000d0: 2f07 9fbd ce14 7fbc 70c0 853d 49a0 fe3c
000000e0: 0d6b 963a 8a40 083d 34a0 46bd db29 edbd
000000f0: 8d57 303d 2d81 c13d a8df bc3c 7a82 0bbd
00000100: 3a06 11bb b173 92bd 0efe 1ebe b8a7 1b3d
00000110: 2e13 553e 6e49 133e 9f9f 013e f663 063e
00000120: 1f41 5a3c 27f1 5cbd 5b26 113e 42f1 aa3e
00000130: 0685 8a3e 0891 5cbd 157d 84bc 726c 05be
00000140: 0fdd f0bd 0e67 7f3c 2517 903d 6c27 2bbc
00000150: 8864 e0bd cfae 8abc 7ec5 b8bd 0409 0dbe
00000160: 0001 a83b e200 a6bc de41 31bc 8768 83bd
00000170: 20f2 5d3d b82c 61bd 67c9 8cbd 7c1e 223c
00000180: 84ab 8c3b 4780 103d 62b6 c0bd a025 86bd
00000190: ec1a 85bc 1a16 b53c b675 223c 1742 1a3d
000001a0: 1462 363d 8f95 b7bd 7b83 d7bc 8f79 083c
000001b0: 8e20 633a da6a 643d eb20 b13b 3da4 273d
000001c0: ada9 ccbd 32eb 34bd 4208 8f3b 1cda 4cbc
000001d0: 1e78 823d 8b6c 6d3d d671 cf3d 7bd0 aa3d
000001e0: 7039 033e cce6 1e3e 5096 393e 61ef 683e
000001f0: e464 1f3e 3ec4 4d3e fad3 3dbd a548 96bd
00000200: 658d ebbb e0e4 933d 144a f53d 2114 5e3d
00000210: 070c 2d3d f850 68be 06c0 33be fcd6 bfbd
00000220: ddf0 03bd 5ed4 f83c c83c dfbc 01d4 32bc
00000230: 43d9 4dbe eb0d 2abe 6538 b0bd 4357 a0bb
00000240: 6b17 c63b fd16 edbd 1e0e eabd c14b 4cbd
00000250: 5876 7bbb 3a22 5f3b 2c76 8c3c ebf5 a0bd
00000260: 51dc 4cbd 194b d63d e99f e1bc ec78 ba3d
00000270: c38b 1f3e 097c 9b3d 157c 49bd 5ca9 ab3c
00000280: 1104 0e3e 659b e13c 2dd7 b23d 44a7 1e3e
00000290: 1ae7 163e 6573 853c e866 043e 29d3 0c3e
000002a0: fd02 8cbe 8ade f7bd 115d c8bd e8e4 a6bd
000002b0: 5e52 5bbe e796 2cbe 4eae 34be 5fdc cbbd
000002c0: 25d6 a9bd 46d1 283d 6dbe 8abb 908b e8bd
000002d0: 1567 aabd 6ae6 703c 9439 34bc b927 2c3c
000002e0: 5401 ce3c 372a 8c3d 4e75 3d3c 54ae 7a3c
000002f0: ef2d 993d 8fc8 b23b 191b c6bc 1d39 093d
00000300: d7bc 793d 99ee bebc 8b51 963d dd8c 063d
00000310: 328b acbd 99be d0bd b82a 2f3d 8f4c bc3d
00000320: 17da 833d 25db df3d 205a 5a3d fc64 84bd
00000330: 2498 e5bd 3c39 103c 6154 083c 4f18 1c3d
00000340: 71db 193d 90a6 5e3d 0a1e 04be a00d 6fbe
00000350: 0df6 9abc dff5 5f3d c540 a53d 3b8e bf3d
00000360: 4b90 8c3d cc69 cdbb b0e2 1dbe b3e0 d83d
00000370: c6d0 c63d 2528 083d 26e5 753d cedc 123e
00000380: abc8 ebbd 6b55 3cbe 0390 a83d 11bc d33d
00000390: 978d 2ebc dfc9 46bc ac03 343d 89e5 44be
000003a0: ae11 52be fdab 883c 6de3 323d 1cb0 c8bc
000003b0: 82e1 0bbd 8a30 463d f974 eabd d452 45be
000003c0: adb9 0f3a b0dc 003d 4430 963d e781 aa3d
000003d0: 80f3 c13d 8171 bb3c 1448 f73d e0e5 cebc
000003e0: fb07 1b3d 3783 2d3e 40eb 223e 8867 6d3c
000003f0: 629d dbbd 15d5 a7bc d381 cfbd ccc3 c8bc

conv1.bias f4 [32]
-0.00034154014 0.0082762325 -0.017614482 0.063299544 0.012620221 -0.03778885 0.0024545807 -0.0034273446
-0.0006976947 -0.005395362 0.014182952 -0.029750668 -0.009397782 -0.004294298 0.0059253583 -0.0057291756
0.015710955 -0.0021423553 -0.0233664 0.00075184193 -0.002047167 -0.0026203692 0.0098307915 -0.011387634
-0.0035137406 0.0038528114 -0.002024288 -0.00092541805 0.0024881556 -0.0016547117 -0.0046391394 0.0012081756
00000000: be10 b3b9 0999 073c 3f4c 90bc 31a3 813d
00000010: 0bc5 4e3c 7bc8 1abd 08dd 203b 4d9d 60bb
00000020: 80e5 36ba 94cb b0bb 9d5f 683c acb7 f3bc
00000030: 28f9 19bc 2fb7 8cbb 8229 c23b cfbb bbbb
00000040: 43b4 803c c266 0cbb e46a bfbc 4217 453a
00000050: c329 06bb 80ba 2bbb 5411 213c 3393 3abc
00000060: c946 66bb 737f 7c3b eba9 04bb c197 72ba
00000070: 5310 233b e9e2 d8ba ec03 98bb a55b 9e3a

bn1.weight f4 [32]
0.8205444 0.93248975 1.2471926 0.70030344 1.0194384 0.84890425 0.79135984 0.6663624
0.80810845 0.77170813 1.2118136 0.9617463 0.94013196 0.80867296 0.6599665 0.84829277
0.8004859 0.8275916 0.8770906 0.7454678 0.45235753 0.5008776 0.799139 0.81817776
1.1958932 0.4346459 0.82086873 1.0968484 0.7425947 0.6717449 0.7291934 0.634737
00000000: 330f 523f a6b7 6e3f 02a4 9f3f 1647 333f
00000010: f57c 823f ca51 593f 8f96 4a3f ba96 2a3f
00000020: 32e0 4e3f aa8e 453f b51c 9b3f 0135 763f
00000030: 7dac 703f 3105 4f3f 91f3 283f b729 593f
00000040: a5ec 4c3f 0bdd 533f 0289 603f fad6 3e3f
00000050: 689b e73e 8439 003f 6094 4c3f 1974 513f
00000060: 0713 993f e889 de3e 7424 523f 8765 8c3f
00000070: b01a 3e3f 79f7 2b3f 6bac 3a3f 207e 223f

bn1.bias f4 [32]
-0.4649662 -0.60343844 -0.22931994 -0.12898318 -0.47605225 -0.06623271 -0.55708784 -0.70776504
-0.5960928 -0.24106412 -0.2380778 -0.61579674 -0.65709007 -0.69449055 -0.6324954 -0.54569674
-0.53228235 -0.9415482 -0.11839131 -0.49549484 -0.66646266 -0.8063782 -0.52433354 -0.5144067
-0.36031398 -0.70049024 -0.45414317 -0.49599302 -0.56705207 -0.5360496 -0.495572 -0.7839662
00000000: 0d10 eebe f17a 1abf d9d2 6abe 2b14 04be
00000010: 1fbd f3be 04a5 87bd 4f9d 0ebf 1730 35bf
00000020: 8a99 18bf 83d9 76be abca 73be dba4 1dbf
00000030: 0e37 28bf 22ca 31bf 38eb 21bf c8b2 0bbf
00000040: a843 08bf 4e09 71bf 2577 f2bd 80b1 fdbe
00000050: 4c9d 2abf cd6e 4ebf b93a 06bf 28b0 03bf
00000060: 137b b8be 5453 33bf 7485 e8be ccf2 fdbe
00000070: 532a 11bf 8c3a 09bf 9dbb fdbe 02b2 48bf

bn1.running_mean f4 [32]
14.649271 -1.817992 -0.7111553 0.42990354 0.73023283 -0.08814739 8.773712 17.775879
7.65227 -0.09303638 -0.37394598 -1.7115656 -1.2126617 6.8699074 1.9412365 -2.7693007
-4.6331778 4.790592 -0.14216165 17.335756 8.738598 14.522151 7.1382437 -4.3878975
-0.54803187 5.669492 -4.059294 -1.542208 11.624048 12.565029 8.779761 21.188639
00000000: 6a63 6a41 f6b3 e8bf 460e 36bf 511c dc3e
00000010: 8af0 3a3f 9e86 b4bd 2061 0c41 0035 8e41
00000020: 65df f440 dc89 bebd d975 bfbe 9514 dbbf
00000030: 8038 9bbf 48d6 db40 707a f83f 393c 31c0
00000040: fe42 94c0 884c 9940 d392 11be a1af 8a41
00000050: 4cd1 0b41 bb5a 6841 7e6c e440 a869 8cc0
00000060: d14b 0cbf 7a6c b540 bde5 81c0 1267 c5bf
00000070: 1afc 3941 5c0a 4941 e779 0c41 5582 a941

bn1.running_var f4 [32]
520.84546 11.45691 11.856885 7.048627 4.0315356 7.1298556 187.55055 676.5199
145.32973 4.313265 8.167324 11.517445 6.3700547 141.5956 19.500982 17.89764
51.71399 65.31784 5.1098347 694.92395 167.39479 461.38184 126.39699 45.035496
9.129675 73.00231 39.787655 12.310908 302.50262 345.16443 176.71373 969.9284
00000000: 1c36 0244 814f 3741 cdb5 3d41 5a8e e140
00000010: 5702 8140 c727 e440 f18c 3b43 4621 2944
00000020: 6954 1143 4406 8a40 5cad 0241 7447 3841
00000030: 7dd7 cb40 7998 0d43 0302 9c41 5e2e 8f41
00000040: 20db 4e42 bca2 8242 c483 a340 22bb 2d44
00000050: 1165 2743 e0b0 e643 42cb fc42 5924 3442
00000060: 2613 1241 2f01 9242 8f26 1f42 7bf9 4441
00000070: 5640 9743 0c95 ac43 b7b6 3043 6b7b 7244

conv2.weight f4 [64, 32, 7, 7]
0.10628496 0.021189423 0.04902113 0.060573656 0.013388652 -0.010794608 -0.0036768748 0.05845834
0.0463492 -0.0009946472 0.009245964 0.060851824 0.014449551 -0.053892013 -0.075124666 -0.13827619
-0.14013667 -0.1922308 -0.1431796 -0.188101 -0.2493166 0.1291762 0.09187854 -0.022918768
-0.004712818 -0.038055006 -0.014126588 -0.057240833 -0.124879636 -0.12615876 -0.16309415 -0.1442496
-0.15116513 -0.17679396 -0.118931055 0.02802889 -0.030258482 -0.04783103 -0.08257226 -0.104506835
-0.09614407 -0.06844023 -0.016273307 -0.037919067 -0.0030574896 -0.06597982 -0.07244393 -0.058784664
-0.08688992 -0.021444004 -0.035751857 0.01595821 -0.009952509 -0.076759264 -0.06511299 -0.07780676
-0.0010364398 -0.044069234 -0.045557123 -0.024433794 -0.05215375 -0.034149334 0.0126535045 -0.10062367
-0.0801731 -0.041915715 -0.09072565 -0.114298075 -0.068721786 -0.065786056 -0.06961991 -0.15840109
-0.17225243 -0.31282553 -0.24771786 -0.26750845 -0.31032398 -0.010336242 -0.100982755 -0.123260535
-0.22611822 -0.17842196 -0.17212248 -0.20004849 0.1382452 -0.006888171 0.04490532 0.020558946
0.004919429 0.04787852 -0.07045691 0.044145953 -0.016945297 -0.050549496 -0.02128798 -0.035519764
0.05096952 0.058085315 0.0027816566 0.048008073 0.013740847 0.039177235 0.02665468 -0.040480252
0.017746711 -0.075294 -0.0046521635 -0.07159477 -0.049243543 -0.016284123 0.012792144 0.05660254
0.049747273 0.06331012 0.051682606 0.007801432 0.010558352 0.017535245 0.102682374 -0.112692334
-0.15076798 -0.14962228 -0.1355663 -0.12943752 -0.1660074 -0.121858634 0.12228181 0.13368423
0.057142887 -0.053515278 -0.010206183 -0.04612177 0.058939442 0.027257126 0.025169244 0.026513973
-0.05011169 -0.015460821 0.017910019 -0.03202808 0.019569026 0.04759272 0.031072643 0.047136925
0.010643081 0.057446208 0.01085563 0.020620227 -0.06656195 -0.045138355 0.020910485 0.01371526
0.011404347 -0.037587628 0.016003765 0.003272193 -0.0082487725 0.032284282 -0.01246239 0.02478106
0.01770139 0.14492124 0.09624242 0.045801274 0.04907884 0.06736978 0.06844177 -0.0018489464
0.03510206 -0.0029712478 -0.064523146 -0.0012963063 0.04432658 -0.010055048 0.037963264 0.040523842
0.007234015 -0.015311547 -0.04434127 -0.00092449726 0.12120053 0.07857049 -0.01278173 -0.07237548
0.05182102 0.0036393611 0.007727338 0.014219995 0.11614345 0.015094766 -0.056542385 -0.033285014
-0.058422513 -0.12838443 -0.1481676 -0.10022557 0.014794234 0.046783056 0.094629206 0.099589
0.02947255 0.01761199 0.14027083 -0.12762716 -0.032767326 0.0054555484 -0.060404923 -0.12212941
-0.11234141 0.017187163 -0.03130251 0.039639324 0.002969938 0.03551504 -0.014383816 -0.022853335
-0.040913727 0.077685446 0.037269257 0.056161754 0.019796832 0.13625813 0.08840355 0.06881278
0.051588144 0.009619895 -0.051827405 0.00021530454 -0.0015651386 -0.12686752 0.031929355 -0.02099425
-0.04846526 -0.029801229 0.012702477 -0.046994172 -0.030861441 0.087803066 -0.0055232355 -0.07370713
0.05614472 -0.0025029543 0.018174637 0.0050893975 -0.04501996 0.009554696 0.032608144 -0.0004996521
0.024458203 0.03948498 0.112272575 0.10407562 -0.027495628 0.005187623 0.0064827274 -0.02085351
00000000: eeab d93d 7195 ad3c 61ca 483d 151c 783d
00000010: 145c 5b3c dedb 30bc b9f7 70bb 0372 6f3d
00000020: a9d8 3d3d d25e 82ba 627c 173c c33f 793d
00000030: cfbd 6c3c dfbd 5cbd f6da 99bd 4698 0dbe
00000040: fd7f 0fbe 27d8 44be ac9d 12be 8c9d 40be
00000050: da4c 7fbe c446 043e d12a bc3d 24c0 bbbc
00000060: fc6d 9abb 91df 1bbd 3473 67bc 5d75 6abd
00000070: e5c0 ffbd c32f 01be 2702 27be 2bb6 13be
00000080: 08cb 1abe 7a09 35be 2092 f3bd d89c e53c
00000090: a3e0 f7bc 78ea 43bd a51b a9bd ae07 d6bd
000000a0: 2fe7 c4bd 642a 8cbd 994f 85bc 0651 1bbd
000000b0: 2a60 48bb 6e20 87bd 7c5d 94bd 30c8 70bd
000000c0: 58f3 b1bd 56ab afbc 8a70 12bd cbba 823c
000000d0: d90f 23bc f633 9dbd f659 85bd 2759 9fbd
000000e0: 26d9 87ba f181 34bd 1b9a 3abd 6129 c8bc
000000f0: 2c9f 55bd 2ce0 0bbd a550 4f3c c813 cebd
00000100: cb31 a4bd d0af 2bbd 5fce b9bd 1c15 eabd
00000110: 02be 8cbd d7ba 86bd e294 8ebd e533 22be
00000120: f162 30be ab2a a0be c0a9 7dbe def6 88be
00000130: c9e2 9ebe 5759 29bc 0cd0 cebd 0570 fcbd
00000140: 898b 67be 3fb4 36be e040 30be 83d9 4cbe
00000150: 2690 0d3e 2bb6 e1bb a4ee 373d 3c6b a83c
00000160: 2933 a13b 441c 443d b64b 90bd 63d2 343d
00000170: ddd0 8abc fd0c 4fbd 2164 aebc 2c7d 11bd
00000180: 6ac5 503d deea 6d3d 744c 363b 1da4 443d
00000190: 4a21 613c 4f78 203d ea5a da3c 9fce 25bd
000001a0: 8d61 913c be33 9abd 2d71 98bb 47a0 92bd
000001b0: 99b3 49bd 4866 85bc 2496 513c 11d8 673d
000001c0: ccc3 4b3d bca8 813d 24b1 533d 28a3 ff3b
000001d0: f0fc 2c3c 13a6 8f3c 234b d23d 3dcb e6bd
000001e0: ec62 1abe 9536 19be e4d1 0abe 458b 04be
000001f0: d8fd 29be 0591 f9bd e36e fa3d 85e4 083e
00000200: a90e 6a3d d632 5bbd d637 27bc 2eea 3cbd
00000210: 7c6a 713d 564a df3c bb2f ce3c d533 d93c
00000220: ea41 4dbd 624f 7dbc 08b8 923c e02f 03bd
00000230: 394f a03c 95f0 423d 0e8c fe3c a612 413d
00000240: 5160 2e3c b74c 6b3d d0db 313c c0eb a83c
00000250: a251 88bd ffe2 38bd 774c ab3c f8b5 603c
00000260: 4cd9 3a3c 7cf5 19bd 541a 833c 4a72 563b
00000270: dc25 07bc 863c 043d 0d2f 4cbc a601 cb3c
00000280: 8102 913c 3c66 143e bf1a c53d 1e9a 3b3d
00000290: e506 493d 2bf9 893d 332b 8c3d 5958 f2ba
000002a0: 2dc7 0f3d 44b9 42bb b624 84bd d2e8 a9ba
000002b0: ca8f 353d eebd 24bc 5e7f 1b3d 54fc 253d
000002c0: 510b ed3b 48dd 7abc 319f 35bd f659 72ba
000002d0: fc37 f83d 91e9 a03d 766a 51bc 9839 94bd
000002e0: 4742 543d 5982 6e3b 9c35 fd3b fbfa 683c
000002f0: 9edc ed3d 0a50 773c fd98 67bd de55 08bd
00000300: 724c 6fbd 3577 03be 3fb9 17be 1043 cdbd
00000310: 8463 723c 979f 3f3d f5cc c13d 51f5 cb3d
00000320: 6b70 f13c 0547 903c 28a3 0f3e b2b0 02be
00000330: 0837 06bd 75c4 b23b 276b 77bd fc1e fabd
00000340: 4113 e6bd 18cc 8c3c 1037 00bd d85c 223d
00000350: 4ba3 423b 3878 113d 19aa 6bbc eb36 bbbc
00000360: 2795 27bd 8c19 9f3d a6a7 183d de09 663d
00000370: f72c a23c 4087 0b3e ec0c b53d b7ed 8c3d
00000380: 174e 533d c49c 1d3c f948 54bd 5fc3 6139
00000390: 5625 cdba 8fe9 01be 5bc8 023d 22fc abbc
000003a0: 8283 46bd b521 f4bc 0d1e 503c f67c 40bd
000003b0: 22d1 fcbc 18d2 b33d 42fc b4bb c4f3 96bd
000003c0: 02f8 653d 9b08 24bb fae2 943c f6c4 a63b
000003d0: d966 38bd 4d8b 1c3c 1e90 053d 16fb 02ba
000003e0: 925c c83c 01bb 213d 2aef e53d 9925 d53d
000003f0: 833e e1bc f0fc a93b 0f6d d43b fbd4 aabc

conv2.bias f4 [64]
0.0031890126 5.912403e-05 0.00082052033 0.0013125031 -0.0061884304 -0.0009767319 -0.0005199763 -0.003375047
-0.0018403716 -0.0021043376 -0.000791811 0.001335667 0.0018673962 -0.00028816747 0.0023067512 0.0034184973
-0.0008648123 -0.0035204126 -0.0014322548 0.00033490948 -0.00097416283 -0.0011432497 -0.0037850826 -0.005624869
-0.0028789863 -0.0018614348 0.0014336647 0.0012414707 0.000948354 0.0068562254 0.0041789063 0.0010624804
-0.0050451052 0.0031012422 -0.0044312207 -0.0008233203 -2.286839e-05 0.0004891741 0.0006232944 -0.00038295297
0.002598486 -0.00043417892 -0.0017502919 -0.00336335 -0.004538336 -0.0014466194 0.0071717 0.001959664
-0.0005040659 0.0013819435 -0.0010471074 -0.0024514466 -0.0038241674 -0.009564757 0.0024337138 -0.0046911947
-0.0035380195 -0.00081326475 -0.004202921 -0.0007124285 -0.00018149601 0.003860556 -0.0033726795 -0.0020438572
00000000: c1fe 503b f2fb 7738 3018 573a 4c08 ac3a
00000010: 51c8 cabb af05 80ba 054f 08ba e42f 5dbb
00000020: a038 f1ba ede8 09bb 8991 4fba 8c11 af3a
00000030: 6bc3 f43a 2f15 97b9 dd2c 173b de08 603b
00000040: 92b4 62ba b9b6 66bb 7fba bbba ca96 af39
00000050: f65e 7fba 18d9 95ba 260f 78bb d250 b8bb
00000060: 60ad 3cbb 63fb f3ba cee9 bb3a d8b8 a23a
00000070: f69a 783a 30aa e03b 35ef 883b ed42 8b3a
00000080: 6951 a5bb 363e 4b3b c633 91bb 17d4 57ba
00000090: 7ed5 bfb7 eb3b 003a 9464 233a 14c7 c8b9
000000a0: 5c4b 2a3b 82a2 e3b9 0d6a e5ba a66b 5cbb
000000b0: 52b6 94bb 7e9c bdba 9400 eb3b b56d 003b
000000c0: 4a23 04ba 5422 b53a 183f 89ba 73a8 20bb
000000d0: e29e 7abb 80b5 1cbc f17e 1f3b 98b8 99bb
000000e0: 1ede 67bb 4631 55ba a8b8 89bb 44c2 3aba
000000f0: f74f 3eb9 6201 7d3b 2c08 5dbb 3cf2 05bb

bn2.weight f4 [64]
1.3597811 0.9990593 1.4905827 1.6795981 1.4358156 1.1200601 1.4325808 1.2375714
0.9149948 1.2608548 0.9510481 0.9798841 1.6265799 1.113197 1.2371079 1.5304989
1.0150282 1.2778847 1.4311686 1.524479 1.2735652 1.0435824 1.3097004 1.5301398
1.4899849 1.157214 1.7081525 0.8795543 0.97410953 1.3709074 1.3646514 1.6940076
1.144653 1.5902869 1.426828 1.2465929 1.4659427 1.525731 1.1998523 1.2569525
1.480411 1.2520949 1.645607 1.1008874 1.4206716 1.491044 1.5350842 1.4077196
0.97320807 1.5623009 1.1767074 1.4802822 1.0564001 1.5202692 1.3645104 1.4580209
1.3175172 1.3417972 1.2756708 1.041949 1.164863 1.2086992 1.354124 1.2065902
00000000: 4f0d ae3f 5ac2 7f3f 6acb be3f 12fd d63f
00000010: cec8 b73f 215e 8f3f cf5e b73f bd68 9e3f
00000020: 193d 6a3f b163 a13f e377 733f afd9 7a3f
00000030: c533 d03f 3d7d 8e3f 8d59 9e3f 63e7 c33f
00000040: 72ec 813f ba91 a33f 8830 b73f 2122 c33f
00000050: 2f04 a33f 1c94 853f 43a4 a73f 9fdb c33f
00000060: d3b7 be3f 971f 943f bea4 da3f 782a 613f
00000070: 3e5f 793f e579 af3f e6ac ae3f 3ed5 d83f
00000080: fd83 923f 858e cb3f 4da2 b63f 5b90 9f3f
00000090: 03a4 bb3f 274b c33f c394 993f d2e3 a03f
000000a0: 1c7e bd3f a544 a03f 40a3 d23f e1e9 8c3f
000000b0: 91d8 b53f 88da be3f a47d c43f 2830 b43f
000000c0: 2a24 793f 7af9 c73f 599e 963f e379 bd3f
000000d0: 1e38 873f 2e98 c23f 47a8 ae3f 6ea0 ba3f
000000e0: 67a4 a83f 03c0 ab3f 2e49 a33f 965e 853f
000000f0: 3b1a 953f a8b6 9a3f ef53 ad3f 8c71 9a3f

bn2.bias f4 [64]
-0.07293913 -0.4114156 -0.24154164 -0.762389 -0.66719973 -0.33540082 -0.4950668 -0.45202076
-0.49338385 -0.37612402 -0.48830828 -0.4562145 -0.39458594 -0.4562797 -0.47747648 -0.5628549
-0.54860914 -0.15568994 -0.45213172 -0.46611494 -0.52587205 -0.40466413 -0.5215511 -0.36223897
-0.42616546 -0.5055939 -0.4980666 -0.5914018 -0.36389637 -0.3393384 -0.21829373 -0.57251775
-0.43279913 -0.35225788 -0.32439056 -0.5098277 -0.23790419 -0.49316302 -0.4675991 -0.37632456
-0.25878906 -0.33609623 -0.25567016 -0.39989984 -0.64314324 -0.7074241 -0.5159476 -0.66836053
-0.61662936 -0.6052009 -0.54591924 -0.59593457 -0.32419565 -0.66383684 -0.6275245 -0.5602805
-0.50771946 -0.28403583 -0.35917726 -0.44961584 -0.5635364 -0.6028061 -0.68838775 -0.4891318
00000000: 1c61 95bd 11a5 d2be b156 77be ed2b 43bf
00000010: 9acd 2abf a8b9 abbe 6579 fdbe 446f e7be
00000020: cf9c fcbe 5493 c0be 8b03 fabe f294 e9be
00000030: 2b07 cabe 7e9d e9be cc77 f4be 4217 10bf
00000040: a671 0cbf 2f6d 1fbe cf7d e7be 9ea6 eebe
00000050: 8d9f 06bf 2330 cfbe 5f84 05bf 6377 b9be
00000060: 5c32 dabe 9a6e 01bf 9602 ffbe 1c66 17bf
00000070: a050 babe c3bd adbe 6488 5fbe 8690 12bf
00000080: d997 ddbe 255b b4be 8516 a6be 1184 02bf
00000090: 289d 73be dd7f fcbe 2669 efbe 9dad c0be
000000a0: 0080 84be ce14 acbe 33e7 82be acbf ccbe
000000b0: 09a5 24bf bf19 35bf 2415 04bf ad19 2bbf
000000c0: 6cdb 1dbf 72ee 1abf 5dc1 0bbf 2b8f 18bf
000000d0: f9fc a5be 36f1 29bf 72a5 20bf 8b6e 0fbf
000000e0: e7f9 01bf 256d 91be 15e6 b7be 0c34 e6be
000000f0: ec43 10bf 8051 1abf 2e3a 30bf 7c6f fabe

bn2.running_mean f4 [64]
-8.004136 -0.58418757 -5.8947906 -4.846587 -3.5080786 1.237221 -3.2403908 -0.12768042
4.391382 -1.1711727 2.026112 -1.1297234 -8.8692875 -1.6728443 -5.7941213 -3.5328212
-5.944269 1.2033404 -7.8631544 -6.3760695 -3.429896 -3.8356495 -4.66196 -4.2275014
-5.538021 -2.0762374 -7.383498 -0.10630695 0.78048646 -8.37202 -2.9001977 -1.7647233
-1.9678018 -8.882018 0.59210014 -0.6198029 -10.65751 -1.1652062 0.9381373 -5.5489235
-10.007001 -8.402652 -8.077445 0.5817741 -2.991533 -3.5031102 -6.379518 -2.4896808
1.5593886 -1.6939843 -2.842439 -2.9829059 -0.34558317 0.12833524 -0.5983316 -2.8048875
-3.5618036 -10.625035 -2.0450046 1.70233 -3.2286613 -3.4084985 -0.8094804 -3.669625
00000000: f110 00c1 518d 15bf 20a2 bcc0 3e17 9bc0
00000010: 5c84 60c0 425d 9e3f 9062 4fc0 a8be 02be
00000020: 3486 8c40 fde8 95bf d2ab 0140 c79a 90bf
00000030: 9ae8 0dc1 c31f d6bf 7169 b9c0 be19 62c0
00000040: 7437 bec0 0f07 9a3f f69e fbc0 c308 ccc0
00000050: 6b83 5bc0 487b 75c0 c72e 95c0 b147 87c0
00000060: 7837 b1c0 13e1 04c0 9e45 ecc0 75b7 d9bd
00000070: f6cd 473f cbf3 05c1 d79c 39c0 74e2 e1bf
00000080: eee0 fbbf bf1c 0ec1 e093 173f 67ab 1ebf
00000090: 2985 2ac1 7a25 95bf c429 703f c890 b1c0
000000a0: ad1c 20c1 4371 06c1 373d 01c1 26ef 143f
000000b0: 4775 3fc0 f532 60c0 0325 ccc0 ee56 1fc0
000000c0: 0c9a c73f 7ad4 d8bf 85ea 35c0 eee7 3ec0
000000d0: 47f0 b0be 506a 033e 422c 19bf 4783 33c0
000000e0: 97f4 63c0 2500 2ac1 5be1 02c0 f3e5 d93f
000000f0: 63a2 4ec0 d724 5ac0 1c3a 4fbf 23db 6ac0

bn2.running_var f4 [64]
49.385468 23.441298 35.963783 18.553349 26.051594 37.415794 21.538855 12.1746855
24.440395 11.149753 32.048306 19.116278 57.27142 32.648586 29.833796 12.651995
34.484024 41.97267 42.746994 49.518974 25.432697 28.850355 19.783316 30.450623
37.616226 20.299786 43.498356 17.913328 30.80733 33.76149 28.213179 19.19366
18.996153 55.166794 14.968641 17.707424 62.257607 12.374192 42.515697 47.70958
39.571865 30.603834 53.286137 15.901072 14.628903 26.688757 27.835484 9.44003
16.107136 18.850067 16.07209 26.735323 33.89551 9.335835 15.277034 14.317857
16.641567 54.90481 25.929289 28.642683 19.111258 17.153044 16.457008 36.703327
00000000: b88a 4542 c787 bb41 eada 0f42 426d 9441
00000010: aa69 d041 c6a9 1542 934f ac41 83cb 4241
00000020: ee85 c341 6365 3241 7731 0042 23ee 9841
00000030: ef15 6542 2798 0242 9dab ee41 926e 4a41
00000040: a4ef 0942 04e4 2742 ecfc 2a42 6e13 4642
00000050: 2a76 cb41 87cd e641 3b44 9e41 e09a f341
00000060: 0477 1642 f665 a241 51fe 2d42 7f4e 8f41
00000070: 6975 f641 c40b 0742 97b4 e141 9e8c 9941
00000080: 1ff8 9741 ccaa 5c42 8e7f 6f41 cea8 8d41
00000090: ca07 7942 b1fc 4541 1310 2a42 9cd6 3e42
000000a0: 9749 1e42 a7d4 f441 0125 5542 ca6a 7e41
000000b0: fd0f 6a41 9382 d541 12af de41 5d0a 1741
000000c0: 6adb 8041 f0cc 9641 a493 8041 f1e1 d541
000000d0: 0195 0742 955f 1541 bb6e 7441 f115 6541
000000e0: ee21 8541 879e 5b42 2f6f cf41 3724 e541
000000f0: dbe3 9841 6f39 8941 f4a7 8341 35d0 1242
