integrated_mfdwc_cnn_dcase/results/a-b/latest_FE_a-b.pth (torch, 415473 bytes, 12 tensors)

conv1.weight f4 [32, 1, 7, 7]
00000000: 8519 a3be a391 20bf 0998 30bf 27d8 0ebf
00000010: ae58 24bf 9e82 13bf af39 13bf 61ff 323d
00000020: 43f6 bdbd 708b fd3c 184b 74bd d749 38bb
00000030: 65b3 02bd 3291 33ba 2f28 a13c c742 c6bc
00000040: 1f65 0d3c 4fc8 09bd 1cad 5f3c 3ed0 8fbc
00000050: 21ca 893c d19a 4c3d 1c1d b83d e6b9 853d
00000060: 827c ac3d d7aa bb3d f149 8b3d 94e3 7e3d
00000070: 303e dc3c 0b61 903c ab09 a53c 279d d03c
00000080: d5be 81bc 1dff aebc 2da5 debc e7ba 283c
00000090: f2db 303c ec6c a0bb b674 dd3c 64ac c3bb
000000a0: e586 013d 5537 15bc b1ff e83c 3fd4 d13c
000000b0: 9ad5 03bb f8ac a43c d612 f13c 8c33 c03c
000000c0: 278d 613c 5f6f 2c3d 4d0d 81bb 0439 2a3c
000000d0: b5e9 83bd 7877 b8bb c41b 933d fc68 3a3d
000000e0: dd85 bb3b 45c7 f43c 28fa 3ebd c0a6 dfbd
000000f0: 6e0a 1e3d 18f8 a63d d889 cd3c 3f63 2dbd
00000100: 542e 70bc 9993 a8bd aa91 2bbe b852 e53c
00000110: e455 533e 7f2b 133e cc4c 0c3e 70a4 083e
00000120: 4463 f43b d71e 6fbd 5de9 1b3e 4f6c b43e
00000130: e0b1 923e 4ca2 46bd ba67 83bc c5f6 0abe
00000140: f4d7 f2bd 272e af3c 7119 8b3d 25fa 91bc
00000150: 032b eabd feab c3bc 956b c0bd a5f0 11be
00000160: 6729 ee3b 5e53 e0bc 3521 acbc a286 86bd
00000170: 0d5e 613d 4681 7bbd f568 92bd 49c9 413c
00000180: 3bfa 83bb 4b8e ff3c 8244 cbbd 1e84 8bbd
00000190: 6828 29bc ce7a c23c 28ed 213c c4b6 323d
000001a0: e25e 553d 3476 b8bd a6b1 fdbc aa20 6f3c
000001b0: 880d fa3b beeb 773d 673d 653c 6013 4d3d
000001c0: 4ef7 dbbd 78cf 58bd ba17 7d3b 267b 76bc
000001d0: 06cb 793d 8d5c 723d 2039 d63d 3b74 c43d
000001e0: ae07 0a3e bf33 213e ed60 3b3e 61cc 6e3e
000001f0: be91 233e 928f 533e 6a2e 31bd 6ca1 8bbd
00000200: 002d 69bb 8291 933d a715 ff3d 7c22 6d3d
00000210: e67a 3f3d 7ebe 6dbe 1c2d 39be 207d c8bd
00000220: 9540 08bd 7e16 023d 5a4b dbbc 4052 02bc
00000230: d463 57be 4f97 31be e592 b5bd 9e88 b4bb
00000240: 5aaa 933b 46f9 f1bd 034b e6bd 80b9 25bd
00000250: 199d 8a39 9d35 9c3c 8d1a ff3c 6490 99bd
00000260: 53ae 35bd 92b8 ee3d f813 b3bc a5ee c53d
00000270: 1665 293e 864d a23d eb00 42bd 3078 d73c
00000280: bfdc 153e 2f02 e43c b40b b63d 908a 253e
00000290: e445 1f3e 0d60 823c b0fe 0b3e f7f0 133e
000002a0: 3f38 8fbe 64b8 f9bd 3622 c6bd e388 aabd
000002b0: 49b0 66be 7583 35be 329f 37be 4290 d3bd
000002c0: 4e46 babd 4308 3e3d 741d be3a 08fc e9bd
000002d0: 2ea2 aebd 2f3e b73c d1ca 36bc 5249 0a3c
000002e0: 22ea fd3c 1926 9c3d 56df 013c e5b6 813c
000002f0: 060d ad3d 3fc4 ce3b 0104 dbbc 8c54 113d
00000300: b8d6 863d 784c b2bc 31b2 953d 1e09 133d
00000310: a3e5 a2bd 0076 bfbd e214 353d 1f0b c63d
00000320: df17 9f3d 4e90 013e 5d6f 833d c5e1 86bd
00000330: a2b8 f0bd b02a 093c 5b6e a93b 5299 293d
00000340: f587 453d f6db 893d f70b 08be 04f7 7bbe
00000350: 0ba3 84bc 0345 6c3d 903d b53d cc22 d13d
00000360: 01fe 933d f53d 97bb ce47 2abe 33d8 d63d
00000370: 0475 d63d a2c4 2f3d f596 9c3d 6724 1f3e
00000380: b195 f2bd ad0c 40be bba3 b03d 01ae d43d
00000390: 701c 11bc 3b9b c0bb 874a 2f3d e15d 47be
000003a0: da0a 5abe 1405 983c a58b 523d dac5 9fbc
000003b0: 0dca e1bc dfaf 773d 70a6 fbbd 123a 4cbe
000003c0: ce80 10bc 9310 e33c 3d90 9c3d ae90 ae3d
000003d0: 3a92 b23d 64ef c93c 5555 fc3d 6758 e5bc
000003e0: 58d8 173d ead5 353e ebb7 273e 0749 693c
000003f0: 107f dfbd eebd cbbc 37f4 d2bd b454 cbbc
-0.31855407 -0.62722224 -0.6898199 -0.5579857 -0.64197814 -0.5762118 -0.57509893 0.04370058
-0.09275486 0.030950278 -0.059641927 -0.0028120184 -0.031909365 -0.0006849944 0.019672481 -0.024201764
0.008630066 -0.033638295 0.013652112 -0.017555352 0.016820015 0.049952332 0.08989927 0.06529598
0.084221855 0.091634445 0.068012126 0.062228754 0.026885122 0.017624399 0.020146212 0.025465561
-0.015838066 -0.021361882 -0.027178371 0.010298467 0.010794627 -0.004895797 0.027033191 -0.0059714783
0.031622786 -0.00910743 0.028442236 0.025613902 -0.002011633 0.02010201 0.029427927 0.02346208
0.0137665635 0.0420984 -0.003938353 0.01038957 -0.064410605 -0.005629476 0.0718303 0.045510277
0.005722745 0.029880175 -0.046625286 -0.10920477 0.038584165 0.08152789 0.025090143 -0.042330977
-0.014659483 -0.08231277 -0.16754785 0.027993545 0.20638233 0.14372061 0.1370117 0.13343978
0.0074581224 -0.05837902 0.1522574 0.35238883 0.28651333 -0.048494622 -0.016040672 -0.13570698
-0.11857596 0.021384312 0.06791962 -0.017819474 -0.11433985 -0.023885723 -0.0939552 -0.14251955
0.007268119 -0.027383503 -0.021011928 -0.06568648 0.055021334 -0.06140258 -0.07148925 0.011827775
-0.0040276325 0.03119578 -0.09925176 -0.06812309 -0.010324575 0.023740198 0.009883203 0.04363133
0.05209244 -0.090069205 -0.030968498 0.01459519 0.0076310076 0.060527556 0.01399169 0.050067306
-0.10740529 -0.052932233 0.0038618878 -0.015044009 0.060984634 0.059170295 0.104601145 0.09592482
0.13479492 0.15742396 0.18298693 0.23320152 0.15973565 0.20660236 -0.043257155 -0.06817898
-0.00355798 0.07205488 0.12455302 0.057894215 0.046748064 -0.23217198 -0.18083614 -0.09789491
-0.033264715 0.03175973 -0.026769329 -0.00795418 -0.21034175 -0.17342876 -0.088659085 -0.00550945
0.0045063915 -0.11815123 -0.11244776 -0.04046011 0.00026438458 0.019068534 0.03114059 -0.074982435
-0.0443557 0.11656298 -0.021860108 0.096646585 0.16542467 0.07924943 -0.047364157 0.026302427
0.14634989 0.027833072 0.08888951 0.16166139 0.15554005 0.015914941 0.13671374 0.1444739
-0.279726 -0.12193373 -0.09674494 -0.0832689 -0.22528185 -0.17725928 -0.17931822 -0.10330249
-0.09095441 0.046394598 0.0014504627 -0.11425024 -0.08527027 0.022368519 -0.011156754 0.0084403325
0.030995432 0.07624454 0.007926783 0.015834281 0.0844975 0.0063100155 -0.026735308 0.03548102
0.06583923 -0.021764979 0.07309378 0.035897367 -0.07953956 -0.093486786 0.04420937 0.0967009
0.07768225 0.12652704 0.06417725 -0.06586031 -0.11753966 0.008371994 0.005170626 0.041405983
0.04822536 0.06731407 -0.13285814 -0.24605948 -0.016191026 0.057683002 0.08849633 0.10211715
0.07226182 -0.00461554 -0.16628954 0.104904555 0.10471538 0.042912133 0.0764598 0.1554123
-0.118449576 -0.18754835 0.08624979 0.10384751 -0.008856878 -0.00587788 0.042795684 -0.19469406
-0.21293202 0.018557109 0.051402707 -0.019503523 -0.027562166 0.060470458 -0.12287605 -0.19944027
-0.008819772 0.027717864 0.07644699 0.08523689 0.08719297 0.024650283 0.12320963 -0.027996255
0.037071556 0.17757383 0.16378753 0.0142386025 -0.10912907 -0.024870839 -0.103004865 -0.024820663

conv1.bias f4 [32]
00000000: 8c8e 093b 06aa 793c f31a 32bc 73db 983d
00000010: f0f7 f43c 95e9 09bd ef79 1c3b 003a 53bb
00000020: 307a f639 877a 92bc 83dd 863b a158 11bd
00000030: ee8e 8dbc 5a06 e5bb 0c3e 013c f798 f0bb
00000040: f469 813c 6dad 9fba a3d2 55bd bf23 0039
00000050: fae2 08bb 567a 4abb 730c 163c a4d9 c3bb
00000060: 4694 37b9 c57d 713b 011d e8bb 1da9 aa3b
00000070: 3e8d 2f3b 1a74 08bb bbf0 63bb d978 bc3a
0.0020989506 0.015238291 -0.010870683 0.074637316 0.029903382 -0.033670027 0.002387639 -0.0032230616
0.00047011813 -0.017880691 0.0041157617 -0.035484914 -0.017280068 -0.0069892826 0.007888328 -0.0073424536
0.015797593 -0.0012182422 -0.052202832 0.00012220348 -0.0020887242 -0.0030895672 0.009158242 -0.0059768725
-0.00017507476 0.0036848646 -0.0070835357 0.005208148 0.0026787068 -0.0020821155 -0.0034780938 0.0014379277

bn1.weight f4 [32]
00000000: 4215 4a3f 1ea9 753f b0bf 9a3f a35d 373f
00000010: 2627 833f 3a87 533f 0940 4a3f cfc9 2a3f
00000020: ed15 4c3f bb77 3f3f 6c47 963f f27b 7a3f
00000030: 7870 733f 9a19 4e3f da1a 2c3f f000 573f
00000040: 8f84 4c3f 0bf9 523f c315 653f e3c2 3b3f
00000050: 81f2 e33e 3222 033f ab70 493f a1fd 513f
00000060: f098 973f 6b49 da3e 6fe8 523f 3699 8c3f
00000070: 69cd 3d3f de91 2a3f 9936 333f 5a2d 233f
0.78938687 0.9596118 1.2089748 0.71627253 1.0246322 0.82628214 0.7900396 0.66714185
0.79720956 0.7479207 1.1740546 0.97845376 0.9509349 0.80507815 0.6722847 0.83985806
0.7988977 0.8241126 0.8948633 0.7334425 0.44520953 0.5122405 0.7868754 0.8202763
1.1843548 0.42634138 0.82385916 1.0984256 0.74141556 0.66628826 0.70005184 0.63741076

bn1.bias f4 [32]
00000000: ca23 efbe c9cf 19bf 0627 82be 9f9b e2bd
00000010: a082 f3be 26ed 8bbd 6662 0cbf 9f43 34bf
00000020: ecaa 1cbf 0edf 6bbe 40e2 80be 7699 20bf
00000030: e388 2cbf 4f8b 31bf 5404 22bf b0d3 13bf
00000040: 4bb6 0abf ffc7 73bf 1093 ebbd 6ac4 f7be
00000050: 32d0 2fbf a862 4ebf 8899 05bf 39c8 07bf
00000060: 7a9d b2be 9f45 38bf 6793 f8be 8b6a 01bf
00000070: fdc3 10bf 680f 08bf 3fd5 ffbe 385b 49bf
-0.46706992 -0.6008268 -0.25420398 -0.110648386 -0.47560596 -0.06832342 -0.54837644 -0.7041568
-0.61198306 -0.23034307 -0.25172615 -0.6273416 -0.6739637 -0.69353193 -0.63287854 -0.57744884
-0.54184407 -0.95227045 -0.11502659 -0.4839204 -0.68677056 -0.8061929 -0.52187395 -0.5303989
-0.3488577 -0.71981233 -0.4854996 -0.50553197 -0.56549054 -0.5314851 -0.4996738 -0.78654814

bn1.running_mean f4 [32]
00000000: 5682 6441 2740 c9bf 6e21 4ebf 02bd 013e
00000010: 15a0 b33d fcbe b0bd 65cb 0d41 68c1 9b41
00000020: e7e7 0241 14e9 16be 1bd1 2ebf 7300 c5bf
00000030: a757 e7bf 4966 f640 01d1 9a3f 806a 65c0
00000040: 5a85 9ec0 46d1 9640 843d 243e a566 9741
00000050: 65be 1e41 a0f0 7a41 00ed 0941 578e 8bc0
00000060: 4b47 3dbf 4bec a040 d2d8 70c0 80d7 acbf
00000070: 0677 3c41 8b78 4b41 c664 1e41 7d8e b341
14.28182 -1.5722703 -0.8051976 0.12669757 0.087707676 -0.086301774 8.862157 19.469437
8.181617 -0.1473735 -0.6828782 -1.5390762 -1.8073624 7.699986 1.2095033 -3.5846252
-4.9537783 4.713046 0.16039091 18.92512 9.921483 15.683746 8.620361 -4.3611255
-0.7393691 5.0288444 -3.7632337 -1.3503265 11.779058 12.716929 9.899603 22.444574

bn1.running_var f4 [32]
00000000: 9010 fc43 b97e 2541 60fb 4f41 3dc9 f640
00000010: 2b79 5540 17a1 ec40 7cad 3f43 d8a7 4844
00000020: a05b 2443 3ef9 9440 46b8 1541 47f6 3141
00000030: 37ab 1e41 4aef 2b43 d982 6f41 0d02 e641
00000040: 4333 7242 5ea0 8042 6516 a540 692c 4d44
00000050: 0eab 5843 433e 0644 b053 3143 8c82 3e42
00000060: bb4f 2c41 1af2 7c42 b259 0e42 9e69 3841
00000070: f35b 9b43 2070 b043 134d 5d43 304c 8744
504.1294 10.343438 12.998871 7.712065 3.3355205 7.3946643 191.67767 802.62256
164.35791 4.655425 9.357489 11.122626 9.9168005 171.93472 14.969445 28.751001
60.55006 64.31322 5.1589837 820.6939 216.66818 536.97284 177.3269 47.627487
10.769465 63.236427 35.587593 11.525785 310.71835 352.87598 221.30107 1082.3809

conv2.weight f4 [64, 32, 7, 7]
00000000: 7ad0 c43d 9444 403c a587 3e3d f5ec 6e3d
00000010: 8f18 233c 7ab1 96bc dd17 8abc cc25 2d3d
00000020: 9872 cd3c 0273 03bd 48a2 89bc 4ee8 243d
00000030: 41c3 fdbb decb a2bd c851 d3bd d672 2ebe
00000040: 9695 34be 8a76 64be 7b5e 2cbe f0d0 60be
00000050: e7cc 92be d6f0 053e b2b2 b63d 4606 e4bc
00000060: 5c10 b9bb 3d06 1bbd 66b5 8dbc 1159 70bd
00000070: 3794 02be cac5 04be 0e3f 2fbe 7138 0fbe
00000080: d7e9 1abe 3ff7 2ebe f565 ebbd 0af2 c23c
00000090: 6abc 07bd d74a 53bd ff27 96bd 219f c4bd
000000a0: 9234 abbd b72b 6abd a2f8 63bc 66c8 15bd
000000b0: 36b6 e1b9 2963 59bd 7bbb 69bd d8f2 26bd
000000c0: 608d 95bd 2359 84bd e1ef 21bd fc00 c4bc
000000d0: f5a0 dbbc 9827 bfbd d8ca c6bd a501 c5bd
000000e0: cfc7 3ebc f773 54bd 9f36 56bd 69a5 48bd
000000f0: 16d0 8cbd 5627 31bd 7233 9bbc 4a5b 0cbe
00000100: 5aad c3bd a6d4 18bd 81d8 f6bd 1717 0bbe
00000110: 4c2f dcbd 25ae b1bd 40ea 84bd 294e 25be
00000120: 2999 46be cda1 9bbe a431 65be 0656 77be
00000130: b6f5 9dbe 872a 88bc d819 b4bd a2d1 07be
00000140: 3cbe 49be c28e 50be 2f89 1cbe 175d 47be
00000150: 4050 063e 941d e3bb d947 7a3d f9f5 913d
00000160: bab8 d2bc ae5a 8a3d dcfc 5cbd e43c 5a3c
00000170: 9fea 0bbc ea31 95bd 62a8 16bd 4d29 1cbd
00000180: aa59 733d 69c3 a03c 8196 59bb 12f4 563d
00000190: f14d d73c b6fa 283d af19 2c3d bc00 6cbd
000001a0: 88ff 5d3c 22bd acbd d80b 453c 67c6 3dbd
000001b0: c11e 0dbd 6541 eabc 9d1b 3c3c 9211 793d
000001c0: ccc4 eb3c fd32 833d 9508 7c3d 27b1 8b3c
000001d0: c433 483c 07f7 d138 067b c33d 6f22 67bd
000001e0: 4a6b c8bd 826f cfbd 8cb7 a1bd 63e7 adbd
000001f0: 38b0 e4bd 17e7 91bd 4721 1b3e 02a0 1a3e
00000200: a605 9d3d 95de 6ebc 780c 413d 9205 cabc
00000210: 22ae b03d eade 273d 0155 413d 87bb 533d
00000220: 888c edbc ff82 c03c 1c08 073d b324 1bbc
00000230: 2dd0 233d 4b6b b53d 47b9 8e3d 65ca 923d
00000240: e5c5 6e3d 17db db3d 3a9e 603d 5c48 1ebc
00000250: 17ca b6bd dcfe 9cbd 4467 3fbc d1b3 a3bc
00000260: 10cc b2bc 947c 9bbd b005 58bb e41e 29bb
00000270: ecdf d0bc b9a8 7a3b d949 39bd 426c 843b
00000280: edff 9abc 2337 093e a0a5 a83d 303e 0f3d
00000290: ba99 1f3d 4c8d 753d d909 623d 9940 8cbc
000002a0: 1a36 933d e412 f13c a8d8 e8bc 0749 253d
000002b0: 7eac b43d ffab e33c 3061 a73d b186 753d
000002c0: 009a 33bc e817 0bbd b426 7dbd f4a7 0bbc
000002d0: 1cd1 f53d 6574 a13d 07b5 84bc e86d f5bd
000002e0: 2279 8f3c 1b6c 06bd 59e8 e2bc 39c1 43bc
000002f0: 6b69 de3d 53ce 073c d372 82bd 890b 08bd
00000300: 4cc1 8ebd 546d 0cbe 9aa4 1ebe 9632 d8bd
00000310: b52c 2a3c 5848 4e3d e721 c93d a2f4 ba3d
00000320: 6c92 a13c 3c4f 3d3c 8497 133e d839 04be
00000330: 2ff3 9fbc 980e 8a3c 0664 49bd 5615 1bbe
00000340: 38b7 e4bd b44c 143d a42d 56bd 9b18 db3c
00000350: f355 bb3b 54fb 513d da30 25bd 7852 5ebd
00000360: 1ec7 41bd bcdd b63d 0f28 e23c 8a67 883d
00000370: 3818 5b3d a653 333e dd34 c43d 803c b43d
00000380: cf46 303d 7946 82bc 7f8e 82bd 5542 80bc
00000390: 7dc5 013c bc68 10be b0f3 053d 5679 1bbd
000003a0: 298c 6dbd aedc 2abd f35c 49bc 0e3e 6bbd
000003b0: 7785 d7bb 7c40 c13d 7f6b b53b ceb4 89bd
000003c0: 360f 7a3d 0fe7 85bc cde1 fe3c be4d f83c
000003d0: 677a ffbc 2196 64bc e846 ce3c dd3a 0fbc
000003e0: 849b e43b 7efe 783c 6075 903d 618a a03d
000003f0: 3451 67bd a4de 1dbc 8524 50bc 06dd 79bd
0.09610076 0.0117351 0.04651608 0.05833145 0.009954586 -0.018395174 -0.016857082 0.042272374
0.025079057 -0.032092102 -0.016801015 0.040260606 -0.0077442233 -0.07949041 -0.10318333 -0.17035994
-0.17635188 -0.22310844 -0.16832916 -0.21954703 -0.28671953 0.13080153 0.08920802 -0.027835023
-0.005647702 -0.037847746 -0.017298412 -0.05867869 -0.12751852 -0.12966076 -0.17113897 -0.13986374
-0.15128265 -0.17086504 -0.11494056 0.023797054 -0.03313867 -0.051585045 -0.073318474 -0.09600664
-0.08359636 -0.057170596 -0.013914259 -0.036568068 -0.00043051102 -0.053073082 -0.05706356 -0.040758938
-0.07302356 -0.06462314 -0.039535407 -0.02392625 -0.026810149 -0.09333724 -0.09706658 -0.09619454
-0.011644318 -0.051868405 -0.052298184 -0.048985872 -0.06875627 -0.043250404 -0.01894543 -0.13706699
-0.095545486 -0.037312172 -0.120530136 -0.13583027 -0.10751209 -0.086757936 -0.06489992 -0.16143097
-0.19394363 -0.30396882 -0.22382218 -0.24153909 -0.30851525 -0.016621841 -0.08793992 -0.13263562
-0.19701475 -0.20366958 -0.15286706 -0.19469105 0.1311655 -0.006931016 0.061103676 0.07126994
-0.02572285 0.06755577 -0.053952083 0.0133201815 -0.008539825 -0.07284911 -0.036781676 -0.038125325
0.059411682 0.019624429 -0.003320128 0.052478857 0.026282283 0.04125472 0.04201668 -0.057617888
0.013549693 -0.08434512 0.01202675 -0.04633179 -0.034453157 -0.028595636 0.011481193 0.060807772
0.028780364 0.064062096 0.061531622 0.017052246 0.012219373 0.00010011909 0.09544949 -0.056429323
-0.09786089 -0.1012869 -0.07896337 -0.08491399 -0.111664236 -0.07124155 0.15149413 0.151001
0.07667093 -0.014579435 0.04713103 -0.02466086 0.08626963 0.04098407 0.047200207 0.051692512
-0.028997675 0.023499964 0.032966718 -0.009469199 0.039993454 0.08858355 0.069689326 0.0716751
0.058294196 0.107351474 0.054838397 -0.0096608065 -0.08925264 -0.07665798 -0.011682335 -0.019983204
-0.02182582 -0.07592121 -0.0032962374 -0.0025805766 -0.0254974 0.003824754 -0.045236442 0.0040412256
-0.018920863 0.13399939 0.082347155 0.034971416 0.038964964 0.059949204 0.055185173 -0.017120646
0.071880534 0.029427953 -0.028423622 0.040352847 0.08821963 0.027791975 0.08172834 0.059942905
-0.010962009 -0.033958346 -0.06180449 -0.00852393 0.12002775 0.078835286 -0.016199602 -0.119838536
0.017513815 -0.03281794 -0.027698683 -0.011947923 0.10859951 0.008288938 -0.06369557 -0.033214126
-0.06970462 -0.1371358 -0.15492478 -0.105565235 0.010386636 0.05036196 0.098209195 0.09128691
0.01972314 0.0115545355 0.14413267 -0.1291269 -0.019525139 0.016852662 -0.049167655 -0.15144858
-0.11167759 0.036205962 -0.05228962 0.026745131 0.005717033 0.051265076 -0.04032979 -0.054277867
-0.047309034 0.08929011 0.027606992 0.066603735 0.053489894 0.17512378 0.09580395 0.08800602
0.04303628 -0.015902745 -0.06374835 -0.01565663 0.00792062 -0.14102453 0.0327031 -0.03795751
-0.057994995 -0.041714363 -0.012290227 -0.057432227 -0.0065771895 0.094361275 0.005536496 -0.06723939
0.061049663 -0.016345529 0.03111353 0.030310508 -0.031186296 -0.013951809 0.025180295 -0.008742061
0.0069765467 0.015197394 0.070536375 0.07838894 -0.056473926 -0.009635601 -0.012704019 -0.0610018

conv2.bias f4 [64]
00000000: 5c6a 3f3b 1017 efb8 4b6c 763a b2a7 d93a
00000010: fbef cfbb 178e 11bb 73c4 b93a cc64 85bb
00000020: 6b3b 29bb 3b06 b1ba 4480 13ba 60a4 9f3a
00000030: d74d 8f3a 9f56 feba 29d9 433b 5cc1 813b
00000040: 083e 6dba 74ac 68bb 85f6 02bb 877c 373a
00000050: ce86 e2ba 2d26 94ba 979b a6bb dbd4 ccbb
00000060: 9ec1 d0ba 22f4 07bb 4179 bf3a a225 943a
00000070: 9eff 2b3a f05f af3b 1d3b 6d3b 713e 0739
00000080: 593e b4bb 8d4f 833b df16 08bc 32ed 3cbb
00000090: 7855 7a3a 1c9e c4ba b4fb 083a 46a7 ac39
000000a0: 9251 4c3b 3d92 13ba 971d 06bb bbbf 53bb
000000b0: 4379 8dbb 8df5 bfba e5df fd3b 2c82 513a
000000c0: b498 8b37 fdfb 18ba 37f4 beba 8b51 8cba
000000d0: 2ec5 1bbb 75c4 3fbc abe8 013b 486b 53bb
000000e0: 4500 46bb 9504 46ba 4923 3fbb 9e8c 9eba
000000f0: bff2 07bb bbbe 6f3b 8636 80bb 2d0f 4bbb
0.0029207682 -0.00011400704 0.0009400292 0.0016605763 -0.0063457466 -0.0022209936 0.0014172926 -0.004070854
-0.002582277 -0.0013505885 -0.0005626718 0.0012179725 0.0010933232 -0.0019404477 0.0029884076 0.003959818
-0.0009050076 -0.003550318 -0.0019983363 0.0006999452 -0.0017282607 -0.0011302881 -0.0050844657 -0.0062509603
-0.0015926843 -0.002074488 0.001460828 0.0011302719 0.0006561222 0.005352013 0.0036198564 0.00012897865
-0.0055005965 0.004007286 -0.008306234 -0.0028827903 0.0009549479 -0.0015000734 0.0005225495 0.00032931025
0.003117655 -0.0005629396 -0.0020464414 -0.0032310325 -0.004317434 -0.0014645323 0.0077476376 0.00079921144
1.66412e-05 -0.0005835889 -0.0014568631 -0.0010705454 -0.0023768651 -0.011704554 0.0019822519 -0.003225999
-0.0030212563 -0.00075537834 -0.0029165319 -0.001209635 -0.0020744053 0.003658219 -0.0039127497 -0.0030984387

bn2.weight f4 [64]
00000000: 34b0 a93f 4f3a 7c3f 0e3e c03f e3e2 d73f
00000010: 8749 b33f 20a8 8c3f 102f ba3f f863 a23f
00000020: 888f 6a3f be54 9f3f 2500 783f 0a2c 7e3f
00000030: 77be d53f 4ba6 903f 8d83 9f3f 032a c73f
00000040: d038 813f 50bd a63f 37b2 ba3f e1e8 c83f
00000050: 3dc8 a33f 8240 863f 80a4 a53f f55f c03f
00000060: b0b6 bf3f 4346 953f 20e2 db3f dca1 5f3f
00000070: eea4 793f 7633 ae3f 5184 b33f a40f d83f
00000080: f3ae 953f fc66 cc3f d528 b43f d355 a03f
00000090: 903a bb3f a2ca c33f 61c2 9c3f 8127 a93f
000000a0: 8724 bf3f aeeb 9f3f 86e9 d03f bbdd 8c3f
000000b0: 545a b33f 4c5a c23f 1a66 c73f 476f b63f
000000c0: 3beb 783f 7664 c63f c3e1 943f fae4 be3f
000000d0: 6cf6 833f 429f c13f 5a86 ac3f 2e5b bc3f
000000e0: dc97 a83f ad8d ac3f c765 a13f 9b06 883f
000000f0: 6480 943f eb26 9f3f 756c ae3f 7369 9d3f
1.3256898 0.9852647 1.5018938 1.6866115 1.4006814 1.0988808 1.4545612 1.2686758
0.9162526 1.2447736 0.9687522 0.9928595 1.669875 1.1300749 1.2462021 1.5559696
1.0095463 1.3026524 1.4585637 1.5696069 1.2795483 1.0488436 1.2940826 1.5029284
1.4977627 1.1662067 1.7178383 0.8735635 0.9751729 1.3609455 1.4024755 1.6879773
1.1694015 1.5968928 1.4074961 1.2526191 1.4627247 1.5296214 1.224682 1.3215181
1.4933022 1.2493799 1.6321266 1.1005167 1.4011941 1.5183806 1.5578034 1.4252709
0.97233933 1.5499408 1.1631397 1.4913628 1.0309577 1.5126727 1.3478501 1.4715326
1.3171344 1.3480736 1.2609185 1.0627016 1.1601682 1.2433752 1.3626848 1.2297806

bn2.bias f4 [64]
00000000: 03cc d4bd 7920 eabe b093 9bbe 4eea 46bf
00000010: 409d 3fbf 5a70 bfbe 7ad5 12bf e8e3 fabe
00000020: 187a 09bf 934d cfbe 7d31 06bf 9cf3 f3be
00000030: 8ce5 dabe 7917 fabe 35ce 0cbf 3b20 1cbf
00000040: c783 1abf b816 16be 2f99 f1be 7782 fdbe
00000050: d57d 10bf a077 d6be 335f 17bf f951 dabe
00000060: abd2 efbe d3f5 0cbf fb30 0cbf fc86 23bf
00000070: a184 c1be 7e3f d2be ff2c 7bbe 8a95 1fbf
00000080: d840 f3be 3ac2 d8be e401 b3be 7c14 0ebf
00000090: 8a09 8fbe 1469 0fbf ae53 fbbe 2331 cabe
000000a0: 4be6 9cbe 55de bfbe 88f6 a3be a7b3 ddbe
000000b0: 7cd2 30bf 3407 40bf f2ba 17bf 36cd 3abf
000000c0: f404 2abf 8b30 28bf 3d77 21bf 2488 1dbf
000000d0: 82bc b3be 494b 3dbf 8895 2abf c29c 1bbf
000000e0: 6701 0dbf 428e a5be a8e0 c1be c0dc 01bf
000000f0: 5a40 12bf 8d15 21bf 60b1 3cbf 8985 04bf
-0.10390475 -0.457279 -0.30386114 -0.7770127 -0.7484932 -0.37390405 -0.5735699 -0.49002004
-0.53701925 -0.40488872 -0.52419263 -0.47646797 -0.42753255 -0.48846033 -0.55002147 -0.6098668
-0.60357326 -0.14657104 -0.47187182 -0.495136 -0.56442004 -0.41888142 -0.5912964 -0.42640665
-0.46840414 -0.550626 -0.5476224 -0.63877845 -0.377965 -0.41064066 -0.24528883 -0.62337554
-0.4751041 -0.42335683 -0.3496238 -0.55500007 -0.27936965 -0.5601971 -0.4908728 -0.39490613
-0.3064445 -0.37474313 -0.32024026 -0.43301126 -0.69071174 -0.7501099 -0.5926963 -0.7296938
-0.6641381 -0.6569907 -0.6307257 -0.6153586 -0.35104758 -0.73943 -0.66634417 -0.6078607
-0.55080265 -0.32335097 -0.37866712 -0.5072746 -0.5712944 -0.6292351 -0.7370815 -0.5176626

bn2.running_mean f4 [64]
00000000: 1098 02c1 a15b b73d 8921 f5c0 f9b4 b5c0
00000010: 6cbc 8fc0 7597 2640 bb0f 22c0 0759 203e
00000020: 2dfb f93f 853a d5bf f138 2940 67dc d7bf
00000030: ca3d efc0 8fa9 33bf 7874 bdc0 d111 36c0
00000040: 0528 c0c0 c454 e53e 319e f9c0 9d8e c8c0
00000050: 6c3c 1fc0 372e 50c0 0ea7 82c0 1802 72c0
00000060: d126 aac0 db03 63c0 6fff dcc0 6a43 f33e
00000070: 925b 063f e5de 00c1 93cd c2bf 5fc8 0bc0
00000080: 9ec5 0dbf b747 22c1 1ef5 07bf 7849 24bf
00000090: 1545 23c1 b2c9 9cbf f1c9 57bf 7a9a c9c0
000000a0: 05b4 20c1 dc4e 13c1 5238 ebc0 b079 aebe
000000b0: 05a0 65c0 ab1a 34c0 4636 cbc0 51ee 33c0
000000c0: ce75 513e 78d4 3ac0 af43 86c0 9267 2bc0
000000d0: f499 5fbf 6cc5 13c0 53b7 57c0 864d 17c0
000000e0: 3180 5ac0 b852 40c1 4433 e8bf ed33 1c3f
000000f0: 1829 80c0 c275 44c0 a199 86bf c7a2 6ec0
-8.162125 0.08953024 -7.6603436 -5.6783414 -4.4917507 2.6029942 -2.53221 0.15658961
1.9529778 -1.6658484 2.6441004 -1.6864136 -7.4762926 -0.701806 -5.9204674 -2.8448374
-6.004885 0.44791234 -7.8005605 -6.267409 -2.4880629 -3.2528207 -4.0828924 -3.7813778
-5.3172383 -3.5471103 -6.906181 0.4751237 0.52483475 -8.054418 -1.5218986 -2.1841047
-0.55379665 -10.1425085 -0.53108394 -0.64174604 -10.204366 -1.2249053 -0.84292513 -6.300107
-10.04395 -9.206753 -7.350625 -0.34077215 -3.5878918 -2.8141277 -6.350375 -2.8114207
0.20455095 -2.919218 -4.195762 -2.6781964 -0.8734429 -2.3089247 -3.3705642 -2.3641067
-3.4140742 -12.020195 -1.8140645 0.6101673 -4.0050163 -3.0696874 -1.0515634 -3.7286851

bn2.running_var f4 [64]
00000000: 9be6 5a42 b96f c241 527d 3e42 d705 c341
00000010: 6f8e ff41 61df 4542 f72f ad41 6f4a 4841
00000020: b0d2 9441 693f 3241 b099 0442 fd0c 9141
00000030: b51c 0c42 add8 b241 5550 d441 3357 5341
00000040: 13a2 0342 293d d841 1fef ff41 c364 0542
00000050: b3f4 ae41 0ba5 aa41 ba25 9641 72e8 d541
00000060: 5cec 0142 cf17 ab41 570a 1242 9b83 8c41
00000070: b320 d241 3eed 0842 ed77 dd41 9545 a041
00000080: bdab 7541 0b5c a742 a363 ac41 5dbb 9541
00000090: 24de 8742 44e8 3e41 e523 5142 e192 2442
000000a0: edbc 3742 ed8b 0242 6277 4c42 d18d 8c41
000000b0: d839 6a41 112c a241 2cc9 d241 e2c7 1541
000000c0: 5805 8341 d6b0 a441 815b a241 98f1 d941
000000d0: a553 fa41 e07a 3841 0242 9741 8224 4841
000000e0: 36b2 7441 7e8e 9942 bc86 ca41 4cc4 0e42
000000f0: d60d 8941 0f4c 7741 f97d 8d41 6bb1 1242
54.7252 24.304552 47.622383 24.377851 31.944548 49.468143 21.64842 12.518172
18.602875 11.140481 33.150085 18.131342 35.028034 22.355799 26.539225 13.208789
32.908276 27.029863 31.991758 33.3484 21.869482 21.330587 18.768421 26.738499
32.48082 21.386625 36.510098 17.56426 26.265966 34.23168 27.683558 20.033976
15.354428 83.67977 21.54865 18.716486 67.93387 11.931705 52.285053 41.143436
45.934498 32.636646 51.116585 17.569246 14.639122 20.271517 26.348228 9.3612995
16.37761 20.586346 20.29468 27.242966 31.290842 11.529999 18.90723 12.508913
15.293509 76.778305 25.315788 35.691696 17.131756 15.456069 17.68651 36.67326
