results/mfdwc-grl/a-b/best_CL_a-b.pth (torch, 109445 bytes, 4 tensors)

fc1.weight f4 [100, 256]
00000000: 1a00 efbd bf35 a4bc 8c4d 1a3e 82d8 f13d
00000010: 7ed5 0c3c 0183 abbd 32ab 5dbd 7153 873e
00000020: ff72 9e3c a560 9bbd c4d5 3e3d 093b e13d
00000030: a2ad f7be b7d8 b23d d176 b93d 8bfc 993c
00000040: 452e f5bd 7e25 e93d d566 22be 206f b83d
00000050: ae36 6d3b 5fb1 a4bc 318d 873e 3b28 5abe
00000060: 7480 743d 39c9 67be 735d a0bd 0bac 403e
00000070: f053 9b3d 4529 18be 02fc bfbd 1ecd 273e
00000080: ee25 d4be 293c 4b3c 6fbc 023f 1037 48be
00000090: 5129 8bbd f61b 463d 7500 23be 117e 3a3e
000000a0: 7df7 cdbc ed69 65be bb0e 843e 00d1 46be
000000b0: 0bb7 91be b659 2d3b 0ae6 f7bd 0570 893e
000000c0: aa88 39bc b50d c63d 7fb0 abbd eacd 203d
000000d0: e454 d93c b6ec da3b c0d1 17be b21b 9a3e
000000e0: 30d2 14bd 5fa6 3c3c 0e86 b53d ee42 7fbd
000000f0: 0760 dcbd be99 023e 1508 4cbe 9345 763e
00000100: e253 143e 145a 12be bd0e 063e 8e70 12bc
00000110: 0646 adbd b412 c9bc e5dd 023d 098a 2cbd
00000120: eae6 0ebd ec3e ccbd 92df 2bbd 0e8e 6f3e
00000130: 034c c9be 94a1 463e 8c4e 14bf daff c63e
00000140: b76c 8cbc 7e2a ba3d b550 673e 7c1d aabe
00000150: ad12 153e a2b4 82bb bd23 293e fba8 31be
00000160: 0ec0 a03d 1640 f1bc 8122 3ebd 2bb7 bc3d
00000170: c144 ffbc 8d57 abbc 271d 49bd 9c11 dd3c
00000180: 86fd c8bd fa73 57bd 01a3 d4bc 7b8d 0cba
00000190: 6d12 2fbe f37b 033e cd7d cd3d 8bd3 d5bb
000001a0: 580b 04be 485d 153d 441d 583d 2270 c13e
000001b0: 44d6 9b3b f2cf a43d 4cdb 71bd 65c0 193d
000001c0: 7d3c 02be 19ec a83d 05f3 b83e d991 91be
000001d0: d6da 26be 576a 573e e2ef 2dbe 98de c23d
000001e0: 9c08 71bd b179 d0bd 2585 8d3d 98c1 5c3e
000001f0: d6fe 59be 8057 2e3e 8c88 9cbe 7d5f 983e
00000200: a993 eb3d b4ee 1abe 6ab1 213d 6a8b 453e
00000210: 899f 47bd 4ef2 91bd 4381 4e3d a089 0cbe
00000220: d1eb 8a3d b680 fcbb 24e8 82be fad6 f13d
00000230: 927c 233e 6a96 0e3d 6945 ffbc c63c fc3a
00000240: e23d 623d 778f 4b3e cee2 8cbe 43d3 6b3e
00000250: 4550 f03c dae9 ab3c c7c3 eb3b a72e cabc
00000260: 4124 f23c e4de 4a3e 452c 76be 6d48 883e
00000270: 85b4 9d3c 0e5b f7bd a5d1 a83c f96c 203e
00000280: af9e cebc 437d f73b 969f 2e3e c9b3 643d
00000290: 25bb 12bd 2474 4e3c 5c5b 063d 2216 18bd
000002a0: a6ab a53d bc75 b83c 2f4f f0bd 2c05 153d
000002b0: e863 14be ea58 68bd d46d 733e b227 653d
000002c0: 0c4e e0bd 5402 9c3d e116 9d3c 8d82 e4bb
000002d0: 39e5 7cbe ea40 8d3c 539f 133e d7e2 05be
000002e0: 5d85 68be 0cf9 103e 9f2e 95be 75f5 d43e
000002f0: 690b c3be 937f f03d bb41 ec3e c42e dcbe
00000300: 8154 ce3d af43 b8be c64e 213e ffde 1fbc
00000310: 7631 223e 6d55 54be a2f5 ef3c 038d 98bc
00000320: 4a1c cb3c 18f4 6ebe 5c40 4d3e db87 8fbd
00000330: 2205 15be 5975 cfbd 6294 213e 06e9 ca3d
00000340: 86b5 03be a89d bf3d d2d8 943e 329b 03be
00000350: 03fb 773d 452b d6bd 1c74 d2bd d0e9 043e
00000360: d82e 343e edbd 6fbd 32a0 74bd 3bf1 83bc
00000370: 79b9 b0be 7260 35bd 43a2 b63e 74fb c6bd
00000380: 3874 38bc e563 333b b7b9 24be d436 013e
00000390: 8605 91bd 3127 69bc 2a66 863e 4d3f ba3d
000003a0: 8ab3 a6bd 610c 173e 1c11 a8be c3a4 5b3e
000003b0: d7d0 ad3d 39ee 803d aced 903c 6649 7ebd
000003c0: 8ff1 9bbe 7201 1c3e 884e 05bc 1125 463d
000003d0: 2b5b b03d 3794 2bbe bb4c c33e 4e34 d6be
000003e0: 6aa1 41bd 462f 2ebd 7a80 693e 9449 6bbe
000003f0: 3d1e ac3c 1280 d83d 6b82 fc3d e9e2 113f
-0.11669941 -0.02004516 0.15068644 0.11808874 0.008595822 -0.083745964 -0.054118343 0.26430848
0.019341944 -0.07586793 0.04659058 0.10997588 -0.4837466 0.08732741 0.090558656 0.01879718
-0.11971716 0.11384104 -0.1585954 0.090055704 0.0036195922 -0.020104108 0.26474908 -0.21304409
0.059692815 -0.22635354 -0.07830324 0.18815629 0.07584369 -0.14859493 -0.093742386 0.1638684
-0.41435188 0.01240448 0.51068777 -0.19552255 -0.0679499 0.04836651 -0.15918143 0.18212153
-0.025142426 -0.22403689 0.25792488 -0.19415665 -0.28459963 0.0026451177 -0.12104423 0.26843277
-0.011324087 0.09670583 -0.08383273 0.039258875 0.026529737 0.00668105 -0.14826107 0.30099255
-0.036333263 0.011514275 0.088634595 -0.06231969 -0.10760503 0.1275396 -0.19924958 0.24049978
0.14485124 -0.14292175 0.1309156 -0.008937968 -0.084606215 -0.024545051 0.031949896 -0.042123828
-0.034888186 -0.09972939 -0.04196126 0.23394033 -0.39315805 0.19397575 -0.57932353 0.38867074
-0.017141683 0.09090136 0.22589381 -0.3322562 0.14557905 -0.0039888183 0.1651754 -0.17349617
0.078491315 -0.029449504 -0.046419624 0.09214624 -0.031160714 -0.02091577 -0.049100067 0.026985936
-0.09813981 -0.05260084 -0.025956633 -0.00053616584 -0.17096873 0.12840252 0.1003376 -0.006525462
-0.12894952 0.036465913 0.052762285 0.37780863 0.004755767 0.08047475 -0.05904703 0.037536997
-0.12718387 0.08248157 0.3612291 -0.28431585 -0.16294417 0.21036659 -0.1698604 0.09515113
-0.0588461 -0.10179461 0.06910161 0.21558225 -0.21288618 0.17025566 -0.30572927 0.29760352
0.11502773 -0.1513012 0.039475836 0.19291463 -0.04873613 -0.07126294 0.050416242 -0.13724375
0.0678326 -0.007705773 -0.25567734 0.11808582 0.15965489 0.034811415 -0.031161027 0.0019244186
0.055234797 0.19878946 -0.27516788 0.23029809 0.02933515 0.020985533 0.0071949693 -0.024680449
0.029558303 0.19811589 -0.24040325 0.26617756 0.019251117 -0.12077914 0.020607779 0.1566657
-0.02522215 0.007552774 0.17053065 0.05583552 -0.035823006 0.012600932 0.03280197 -0.037130482
0.0808938 0.022517078 -0.11733853 0.036381885 -0.14491236 -0.05672542 0.23772365 0.05594606
-0.10952386 0.076176316 0.019175949 -0.0069735707 -0.24696817 0.017242867 0.14416246 -0.13074814
-0.22707124 0.14157504 -0.29137132 0.4159352 -0.38094643 0.11743083 0.46143898 -0.4300443
0.100747116 -0.35989138 0.15752706 -0.009757756 0.1583918 -0.20735712 0.029291932 -0.018621927
0.024793763 -0.23335302 0.20044082 -0.07008334 -0.1455274 -0.10129804 0.1577926 0.09907727
-0.12862214 0.093562424 0.2907167 -0.12852171 0.060542118 -0.10457472 -0.10276052 0.12979817
0.17595994 -0.058530737 -0.059723087 -0.016106239 -0.34516504 -0.04428143 0.3567067 -0.097159296
-0.011258177 0.0027372774 -0.1608647 0.12618572 -0.07081132 -0.014230535 0.2624982 0.09094105
-0.08139713 0.14750816 -0.32825553 0.2144957 0.08487099 0.06295437 0.017691456 -0.062081717
-0.30457732 0.15234926 -0.008136399 0.048375193 0.08611139 -0.16755758 0.38144478 -0.4183678
-0.047273077 -0.042525552 0.22802916 -0.22977287 0.021010512 0.105713025 0.12329563 0.5698686

fc1.bias f4 [100]
00000000: 8bb9 ec3d 084b bcbc 86c3 b53e bd75 833b
00000010: d54c 23bd f78e 0d3e 6fe6 093e 47b5 87bc
00000020: b191 4f3e 9a0a 2a3e 6b03 8fbe e593 82be
00000030: 9092 07bd 565e 67bc a263 a7bd 4381 6b3e
00000040: 44cc bc3e b9f4 4ebd 06e4 343d 41da 7c3e
00000050: 4412 2abd 3323 273d 21d7 03be d7b5 a03e
00000060: 500c d8bd 51f4 1fbc d452 c6bc 7fc3 52be
00000070: 8cc0 ac3d d798 833d 52c8 1ebd 4e1b 87bd
00000080: 8fea 6cbd 03cd 97bc 75cd 36be 8e35 743e
00000090: e1b4 3d3e edcc cfbd a7b5 213e a12f 8cbc
000000a0: 5eda 1cbe 34f6 bfbd 54d6 6ebe 6617 1abd
000000b0: 0d92 cdbc a469 f9bd 0700 37bd 9724 dfbc
000000c0: 17b9 0ebe d7cc 79bc b066 2dbe 917a 4cbe
000000d0: bcb8 24bd 67c4 453c 4e05 ca3d b56d c3bd
000000e0: 4d10 013e 9144 98bc 60c7 40bd 471c c73d
000000f0: cc3f 293d 37ea 993d f8a7 78b8 ead3 04be
00000100: ea72 e7bd 76b5 593e 7c1b 7ebe a222 0bbe
00000110: a020 21bd 96ad 03bd df0c fbbc 89a1 693e
00000120: 9786 f5bc 932d 29be 4c4b 793d c7df c7bc
00000130: 049a f23d 3f95 2abb 261c 563e 2ea1 9b3c
00000140: 5f46 233e 481c 583c ae4a d03d f3db 083d
00000150: 4b88 143d e809 e4bc 57b8 19be c6e4 3abc
00000160: 08c2 b93c 1c39 553e d583 22bd 29bb 6cbe
00000170: ff94 d9bd f9ac 3fbc 96d8 c1bc 9749 16bd
00000180: 0031 1ebd d9f3 243e 57da d33d f464 d43d
0.11558827 -0.022984996 0.35500735 0.004011838 -0.039868195 0.13824068 0.1346681 -0.016565932
0.2027042 0.16605607 -0.27932295 -0.2550346 -0.033098757 -0.0141216125 -0.081733 0.22998528
0.36874592 -0.050526354 0.044162773 0.24692632 -0.041521326 0.040805053 -0.12875034 0.31388733
-0.105492234 -0.009762839 -0.024209417 -0.20582388 0.08435163 0.06425636 -0.03876526 -0.06597005
-0.05784088 -0.018530374 -0.17851813 0.23848554 0.18526031 -0.10146508 0.15791951 -0.017112555
-0.15317675 -0.093731314 -0.23323947 -0.03761997 -0.025094057 -0.121783525 -0.04467776 -0.027239127
-0.13937794 -0.0152465915 -0.16933703 -0.1996863 -0.04021524 0.012070752 0.09864293 -0.09542409
0.12603875 -0.018587383 -0.04706514 0.0972219 0.041320607 0.07515376 -5.928424e-05 -0.12971464
-0.11301215 0.21260628 -0.24815172 -0.1358743 -0.039337754 -0.032147966 -0.030645786 0.22815527
-0.029971404 -0.16521291 0.060862824 -0.024398698 0.118457824 -0.00260289 0.20909175 0.018997755
0.15944813 0.0131903365 0.10170494 0.033412885 0.03626279 -0.027836755 -0.15011726 -0.011407083
0.02267553 0.20822567 -0.039676506 -0.23118271 -0.10624122 -0.011698955 -0.023662847 -0.036691274
-0.03862095 0.16108645 0.103443794 0.10370818

fc2.weight f4 [10, 100]
00000000: 117a 0e3e 3b70 62bd ff33 423e 77c2 9dbe
00000010: e3db 3b3d 6e85 6e3e cc0a 313e a861 cfbd
00000020: bbc7 a33d 1bd0 053e 5b09 3fbf 49cc 35bf
00000030: 0253 5ebd e8aa 92be d342 fcbe 409f 433d
00000040: c9a3 113e 522b 953e 6c3c 9a3e 47eb f03d
00000050: a07c 9dbe 9c20 853d 28e4 813e c613 113e
00000060: 1fa1 9ebe 3fef fbbe 762c 70bd 61da 06bf
00000070: aa31 763d aefd 8abe eb4c 1cbe fce8 c63c
00000080: 8df2 403e 0378 123e 3e48 10bf e214 c43d
00000090: a993 ee3d e7ce 723e e646 853c d976 9bbe
000000a0: 7db8 a5be d42e d2bd 6c16 5abe 3c63 d6be
000000b0: 3351 d53c 1876 0bbf 7ef2 983d c7fc 61bd
000000c0: c777 62bf f91a 743e 8fd3 cbbe 1840 cbbe
000000d0: a37b 583d 08c5 b3be e9ad 0a3e 2441 0bbe
000000e0: b144 2a3e 68ec 0b3c 6910 d9bc 0a80 b2be
000000f0: 6699 2d3e 161d 403e a1f7 b7be 8a49 7abf
00000100: a4b0 6bbe e16e 5e3e c1ce 11bf 723e 2dbf
00000110: c521 7b3d 990d 8c3d 3c35 90be b44a 243e
00000120: fc26 edb9 36bb 39bf eb05 143e 6897 37bd
00000130: 83ca bebd 6ef3 03bf 6dff b03d abce cbbd
00000140: 2fd0 b63d 2de5 c33d 151d d23d 0349 343e
00000150: 5946 96be 22b0 d3bd 6728 18be e730 92bb
00000160: f965 0c3a b3f7 733e f8e0 fe3a 1847 cdbe
00000170: 26cf 61bf 75b8 68be 8b0b 63bd 4d12 47bf
00000180: 35db babd 1478 153e 7215 893e 9f46 0f3e
00000190: b6ab 5cbe fd2a 84bd ff05 4c3e 8be9 0fbf
000001a0: ebdf 5dbd 74fc 703e 673f 4f3e 27b5 853d
000001b0: 3fbf f9bd 3b7b d23d df2d 39bf d26a 18bf
000001c0: a02e 1fbc 37d9 81bd 921a 633e cc71 623d
000001d0: 6833 da3d d5ee a43e e25f dabd 241d e73d
000001e0: c5d1 4bbf b36c 7ebe b0d2 36be ee1e 143e
000001f0: 4595 1cbf 8654 3c3e 9b3c ffbc c881 f1be
00000200: df79 053d 6d1c 01be 9a57 37bf 96c0 56bd
00000210: 2b7e 6c3e 928c 41bd c378 bfbd 0af4 143e
00000220: 1801 253e 58cc afbe b6b5 c2bc 21be ecbd
00000230: 8cb4 59be b0cd 91be 5bb4 cdbe af13 5c3e
00000240: 7b59 fe3d 3944 143d ae65 2abd 81f8 16bd
00000250: eb70 30bf e17a 5f3e f6fe afbe 0730 14bf
00000260: 0589 8c3c 4007 8dbd 6504 1dbf 0f2f 16bf
00000270: afad f73d 9af0 82bd a240 a13d c078 ae3e
00000280: 2cf6 c53d 4ff4 b4be 1079 103e f24d f53d
00000290: d327 17bf 7a51 0d3e 715b 9cbe 5d40 8e3e
000002a0: 0c4f 8e3d 8d13 ab3c 0830 cdbe 7be7 523e
000002b0: 46f6 05bc 717b b8bc 85de 14bf 0712 33bd
000002c0: 9941 573d e92c c2be 9ed9 f93d a9b5 91bf
000002d0: 5918 283e b272 12be 08d0 08bf 9a00 353e
000002e0: c8b6 2cbe 09a2 4b3d 2bf7 48be 13de 81bc
000002f0: f7ab 06bf 05de 783e 1e88 bebc e66e 00bf
00000300: 48d9 58bf 1796 cbbe 5f9e 873c 845d 4abf
00000310: 75f4 b5be 18db 003e 4059 75be 6872 003e
00000320: 361a d33b 362d b1bd 25af 1fbe c5b5 66be
00000330: 89bc e23d b44d b0be c1c0 b2be 5610 cdbd
00000340: afee 523e 4009 21be 4ef1 613d 0bde f13d
00000350: baa2 ba3d de1e 1f3e 4d02 01be 1b1d 023e
00000360: aec6 79be fdc3 db3d dd41 803d 78f7 52bf
00000370: 7356 193e c11e eb3d 2db6 eebd 0782 dbbe
00000380: 9bba 783e 97a5 953e 80e4 b83d ce0b 98be
00000390: 92f6 c3bd 3a09 3d3f 515a bd3d 6f51 f6bd
000003a0: 7349 833e babc a03d 2a25 72bd 049c 30bf
000003b0: 5f7c 173d ce52 b53e 144b 11bf 653b 6dbe
000003c0: 241a 2f3c 2620 31bf de73 843e 5695 553e
000003d0: dc12 adbb e72c 1a3e de84 553d 4e1a 9cbd
000003e0: 0a66 c03d 3d31 57be 7b2a fb3e 31b7 a73e
000003f0: 06c7 80bc f6ba 15be cb56 cebb 96da 5f3e
0.13913752 -0.055282813 0.18965147 -0.30812427 0.045863997 0.23293087 0.17289275 -0.10126048
0.0799708 0.13067667 -0.7462365 -0.7101484 -0.05427838 -0.28646016 -0.49269733 0.047759295
0.14222635 0.29134613 0.30124223 0.117636256 -0.30759144 0.0650036 0.25369382 0.14167699
-0.309823 -0.49205968 -0.05863615 -0.5267697 0.060105957 -0.27146667 -0.15263717 0.024281017
0.18842526 0.14303593 -0.5636023 0.095742956 0.11649258 0.2371174 0.016269159 -0.3036411
-0.32367316 -0.10262838 -0.21297616 -0.41872585 0.026039695 -0.5447707 0.07468127 -0.055172708
-0.88464016 0.23838414 -0.39809844 -0.39697337 0.052852284 -0.3511126 0.13542904 -0.13599068
0.16627766 0.00854025 -0.026497083 -0.3486331 0.16953048 0.18761095 -0.35931113 -0.9776846
-0.23016602 0.21721984 -0.56956106 -0.6767341 0.061311502 0.06838531 -0.28165615 0.16044122
-0.00045233208 -0.72551286 0.14455383 -0.044822127 -0.0931597 -0.5154332 0.086424686 -0.09951528
0.089264266 0.09565196 0.10259453 0.17605977 -0.29350546 -0.10336329 -0.14859162 -0.004461396
0.0005355771 0.23824959 0.0019445708 -0.40093303 -0.8820671 -0.22726615 -0.05543093 -0.777623
-0.09123842 0.14596587 0.26774174 0.13991784 -0.21549878 -0.06453512 0.19924162 -0.56215733
-0.054168623 0.23533803 0.2023903 0.06528693 -0.121946804 0.102774106 -0.7233562 -0.59537995
-0.009715706 -0.063402586 0.22178105 0.055284306 0.10654336 0.32213464 -0.106628194 0.11284855
-0.7961696 -0.24846153 -0.17853808 0.14464924 -0.6116527 0.18391618 -0.031156829 -0.47169328
0.03258693 -0.126085 -0.71618044 -0.052429758 0.23095004 -0.0472532 -0.09349205 0.14546219
0.16113698 -0.3433559 -0.023768287 -0.11559702 -0.2126028 -0.2847724 -0.40176663 0.21491884
0.12419411 0.036197875 -0.041600876 -0.036858086 -0.689223 0.21824218 -0.34374207 -0.57885784
0.01715518 -0.068861485 -0.6133483 -0.58665556 0.120936744 -0.06393547 0.07873656 0.340765
0.09666094 -0.35342643 0.14108682 0.119777575 -0.5904514 0.13800612 -0.30538514 0.2778348
0.06948671 0.020883346 -0.40075707 0.20596115 -0.008176392 -0.022519799 -0.5815204 -0.043718364
0.052552793 -0.3792489 0.1219971 -1.1383563 0.16415538 -0.14301565 -0.5344243 0.1767601
-0.168666 0.049715076 -0.19625537 -0.015852964 -0.5260615 0.24303444 -0.023258265 -0.5016922
-0.84706545 -0.39762947 0.01655501 -0.79048944 -0.35538068 0.12583578 -0.23959827 0.12543643
0.0064423336 -0.086512014 -0.15594156 -0.22530277 0.110711165 -0.34434283 -0.34912685 -0.100128815
0.20598863 -0.15726185 0.055161767 0.118099295 0.09113069 0.15539119 -0.12598534 0.12706415
-0.24392197 0.10730741 0.062625624 -0.8240886 0.14974384 0.11480475 -0.11655841 -0.4287264
0.24289934 0.29227898 0.09027958 -0.29696506 -0.09568514 0.73842204 0.09245742 -0.12027251
0.25641975 0.07848497 -0.059117474 -0.6898806 0.036983844 0.35414737 -0.56755185 -0.23167188
0.010687385 -0.6918968 0.2586965 0.20857748 -0.005281789 0.15056191 0.052128665 -0.07622205
0.093944624 -0.21014877 0.49055848 0.3275695 -0.015719902 -0.14622101 -0.0062969676 0.21860728

fc2.bias f4 [10]
00000000: 4bd6 bd3d e31c 133e 395b 09bf e603 b93e
00000010: f2d6 b2be fedd a4be cb72 8b3e 74cf 783e
00000020: 385a 14bd b614 5ebd
0.09269389 0.14366488 -0.5365482 0.36135787 -0.34929615 -0.32200617 0.27236018 0.24297887
-0.03621885 -0.05421897
