results/mfdwc-grl/a-b/best_FE_a-b.pth (torch, 415177 bytes, 12 tensors)

conv1.weight f4 [32, 1, 7, 7]
0	0x3e0605ce	0.13088152
1	0x3da65532	0.081217185
2	0x3dc1dd11	0.09465993
3	0x3c9dc2bd	0.019257898
4	0x3b525ba4	0.003209808
5	0x3c8edcbf	0.017439244
6	0x3cde5d82	0.027144197
7	0x3e1cd890	0.15316987
8	0x3e0fa7a2	0.1402879
9	0x3e1cff71	0.15331818
10	0x3ddb1e9b	0.10699197
11	0x3d8539aa	0.06505139
12	0x3d99fd62	0.07519032
13	0x3de3b3ed	0.111183025
14	0xbe5262b7	-0.20545469
15	0xbe93d309	-0.28871945
16	0xbe9b6c66	-0.3035614
17	0xbeddc567	-0.4331467
18	0xbebc466a	-0.36772472
19	0xbee14147	-0.43995115
20	0xbec1fc55	-0.37887827
21	0x3e007d02	0.12547687
22	0x3c627d02	0.0138237495
23	0xbd239ff5	-0.03994747
24	0xbd309a80	-0.043116093
25	0xbc796069	-0.01522074
26	0xbe05024b	-0.12989156
27	0xbd73cfec	-0.05952446
28	0x3c8a2476	0.016863089
29	0x3c70b534	0.01469164
30	0x3b857159	0.00407235
31	0xbd6ddb52	-0.05807049
32	0xbd5433f8	-0.051807374
33	0xbd429b36	-0.047511302
34	0xbcfd2dd0	-0.030905634
35	0x3cf331ac	0.029686771
36	0x3d38d3b9	0.04512379
37	0x3d803c3e	0.0626149
38	0x3d6296fb	0.055319767
39	0x3d5942f0	0.053042352
40	0xbd8d1419	-0.06888599
41	0xbcc2a159	-0.023758577
42	0x3cd2ed0b	0.025747797
43	0x3ce05d46	0.027388226
44	0x3d83fa4b	0.06444224
45	0x3d663b25	0.05620875
46	0x3dc0668b	0.093945585
47	0x3ba8794b	0.0051414124
48	0x3c87c078	0.016571268
49	0x3e40889b	0.18802111
50	0x3e49dd87	0.19713412
51	0x3e1d56a9	0.1536509
52	0x3e2b6d13	0.16740827
53	0x3daac432	0.083382025
54	0x3e2d6d2e	0.1693618
55	0x3e3d4ceb	0.18486373
56	0xbdcfe9f4	-0.10152045
57	0xbe31afda	-0.17352238
58	0xbe68c0f4	-0.22729856
59	0xbe6ff857	-0.23434578
60	0xbe61070e	-0.21975347
61	0xbe5ad3c9	-0.21369852
62	0xbe3c9e22	-0.18419698
63	0xbd043efc	-0.03228663
64	0xbccad96b	-0.024761876
65	0xbdf0e0d5	-0.11761633
66	0xbe0436ce	-0.12911531
67	0xbe36a326	-0.17835674
68	0xbd0727c6	-0.032996915
69	0xbd7b7757	-0.06139311
70	0xbd40ecc8	-0.047100812
71	0xbd550594	-0.052007273
72	0xbd343b36	-0.04400178
73	0xbd86a161	-0.06573749
74	0xbdd0cc68	-0.101952374
75	0xbd32268b	-0.04349379
76	0xbd166df5	-0.036725957
77	0x3d227f9b	0.039672475
78	0x3b12f4bc	0.0022423705
79	0x3d7a5c0a	0.06112293
80	0x3cf89ba7	0.030347658
81	0x3d1501e7	0.036378767
82	0x3d205dd9	0.039152
83	0x3cc1091f	0.02356392
84	0x3d13a1c8	0.03604296
85	0x3d39f72e	0.045401745
86	0x3cabb58c	0.020960592
87	0x3d4cf59b	0.050038915
88	0xbc18cb4d	-0.009325814
89	0x3cf8e8e1	0.030384483
90	0x3b6911aa	0.0035563507
91	0xbdd80208	-0.105472624
92	0xbd9fca9a	-0.07802315
93	0xbddd402d	-0.10803256
94	0xbda4bed0	-0.08044207
95	0xbdde3127	-0.10849219
96	0xbdbe8a85	-0.09303764
97	0xbdf16ee1	-0.117887266
98	0x3db62cac	0.08895239
99	0x3cf9a02a	0.03047188
100	0xba082653	-0.0005193699
101	0x3c970d5c	0.018438987
102	0x3de9b9ed	0.11412416
103	0xbd07fefc	-0.033202156
104	0xbdda25a8	-0.106517136
105	0x3d635945	0.055505056
106	0xbbc4734a	-0.005995189
107	0xbd1d5522	-0.038411267
108	0xbd0fdf6b	-0.035125177
109	0x3e00d650	0.12581754
110	0xbd734820	-0.059394956
111	0xbe4dac9d	-0.20085378
112	0x3d780a1d	0.06055652
113	0x3c478bb7	0.012179307
114	0xbc79c885	-0.0152455615
115	0x3c147bf5	0.009062757
116	0x3e79c1ab	0.24390285
117	0xbdca6570	-0.09882629
118	0xbec6e861	-0.38849166
119	0x3e7f8c0b	0.24955766
120	0x3e37c6f2	0.17946985
121	0x3eae34ad	0.34024563
122	0x3e77b8ad	0.24191542
123	0x3ef57d2a	0.47947055
124	0x3e2f0c8b	0.17094629
125	0xbd8182db	-0.06323787
126	0xbda92853	-0.08259644
127	0xbe0a05b6	-0.13478741
128	0xbd452d99	-0.04813919
129	0xbdbeb688	-0.09312159
130	0x3d3eb812	0.046562262
131	0xbd96860f	-0.073497884
132	0xbe07e892	-0.13272312
133	0xbdc3d813	-0.09562697
134	0xbe2ffce1	-0.1718631
135	0xbde6244b	-0.11237391
136	0xbe343cda	-0.17601338
137	0xbd927e44	-0.071529895
138	0xbe263793	-0.16232137
139	0xbe1d359a	-0.15352479
140	0x3d24082a	0.04004685
141	0x3ccc06cc	0.024905585
142	0x3d575bf2	0.05257792
143	0xbcc7cba8	-0.024389103
144	0x3d2d66f8	0.042334527
145	0xbaf530af	-0.0018706525
146	0xbc97bfa6	-0.018524002
147	0x3d9f828e	0.07788573
148	0x3de83434	0.11338082
149	0xbcfe570d	-0.031047368
150	0xbd0dfa40	-0.034662485
151	0x3c1d442f	0.009598776
152	0x3d814c24	0.06313351
153	0x3d0615c0	0.032735586
154	0x3e1b6859	0.15176524
155	0x3e413332	0.18867186
156	0x3dc0bbbd	0.09410808
157	0x3d2e8e3a	0.042616107
158	0x3df385fa	0.118907884
159	0x3df3c7f0	0.119033694
160	0x3e16d6ae	0.14730331
161	0xbe70bed3	-0.23510294
162	0xbebdec5d	-0.37094393
163	0xbf065da1	-0.52486616
164	0xbee024b3	-0.43778
165	0xbecd5bdc	-0.40109146
166	0xbe938eec	-0.28819978
167	0xbe9455fc	-0.2897185
168	0xbc431397	-0.011906526
169	0xbd8dab1e	-0.06917404
170	0xbbd2d0b8	-0.0064335726
171	0xbdff1b25	-0.12456349
172	0xbd45046d	-0.048099924
173	0x3a9c2b7b	0.0011914814
174	0x3c3c0ca2	0.011477621
175	0xbd30a6be	-0.043127768
176	0x3ba85734	0.0051373485
177	0xbd881025	-0.06643704
178	0xbc83d25f	-0.016091524
179	0x3c390225	0.011292015
180	0x3c6ef4a5	0.014584695
181	0x3c974161	0.018463792
182	0x3cc9c826	0.024631571
183	0xb92c31e8	-0.0001642179
184	0xbca908e1	-0.020634117
185	0x3c8914dc	0.01673358
186	0x3c81f556	0.015864056
187	0x3d016b6c	0.031596586
188	0x3beb6057	0.0071831155
189	0x3d0b3f85	0.033996124
190	0x3cf45cd9	0.02982943
191	0x3d3dfeea	0.046385683
192	0x3d9aa251	0.07550491
193	0x3d5afb96	0.053462587
194	0x3d4cc569	0.049992952
195	0x3cadb1c9	0.021202939
196	0x3dd8a31b	0.10577985
197	0x3d39cf35	0.045363624
198	0x3d555313	0.05208118
199	0x3d613c1c	0.054988965
200	0x3db93f10	0.09045231
201	0x3de23c9e	0.11046718
202	0x3e14465e	0.14479968
203	0xbcf3de0d	-0.029768968
204	0xbdcc1079	-0.099640794
205	0x3babf950	0.005248226
206	0xbe0e8347	-0.13917266
207	0xbca53ca9	-0.020170527
208	0x3ddb142c	0.10697207
209	0x3e022d51	0.127126
210	0xbd531845	-0.051536817
211	0xbc2fd456	-0.010731777
212	0xbce4dcb5	-0.027937273
213	0xbe07f9ea	-0.13278928
214	0x3dc12619	0.09431095
215	0x3e13c173	0.14429264
216	0x3dcecc40	0.10097551
217	0xbd6d8d4a	-0.057996072
218	0xbd9511a2	-0.07278754
219	0xbd9295c3	-0.07157471
220	0x3b95db69	0.004573275
221	0x3e3234d8	0.17402971
222	0x3d9ae3cf	0.07562982
223	0x3e1cbb1a	0.15305749
224	0xbe8a3efd	-0.2700118
225	0xbe7f0d5d	-0.24907441
226	0xbe4af69b	-0.19820635
227	0xbe3d5686	-0.18490037
228	0xbcec4121	-0.02883965
229	0x3cad1023	0.021125859
230	0x3d401f38	0.046904773
231	0xbe4f181d	-0.20224042
232	0xbdfb4207	-0.12268453
233	0xbe153e98	-0.14574659
234	0xbd9d23d3	-0.076728486
235	0x3e076409	0.13221754
236	0x3e2117e2	0.15731767
237	0x3e3c9c4f	0.18419002
238	0xbe326283	-0.17420392
239	0xbe2de5b9	-0.16982163
240	0x3c040b49	0.008059331
241	0x3a1d14ca	0.00059921725
242	0x3e1e6b86	0.15470704
243	0x3e3315fb	0.17488854
244	0x3e13a932	0.14420012
245	0xbda545df	-0.080699675
246	0xbb8a5cc3	-0.004222484
247	0x3e0a4ba4	0.13505417
248	0x38636888	5.421837e-05
249	0x3db34fdd	0.08755467
250	0x3d559ef2	0.052153535
251	0x3e17250a	0.14760223
252	0xbda704e0	-0.08155227
253	0xbe48106a	-0.19537511
254	0x3d066ce9	0.03281871
255	0x3de17c6c	0.1101006

conv1.bias f4 [32]
0	0x3c6d9b48	0.014502354
1	0xbbbf1525	-0.005831378
2	0xbc42a9ec	-0.011881333
3	0xbb62edd7	-0.0034626627
4	0xbcfd69d7	-0.030934257
5	0x3b55fc46	0.0032651587
6	0x3c1c01cd	0.009521914
7	0x3ccdc6b2	0.02511916
8	0x3e5c5382	0.2151623
9	0xbc1c1789	-0.009527096
10	0xbb281287	-0.0025645809
11	0x3b81cc68	0.0039611347
12	0x39a0736a	0.00030603568
13	0xbd32643d	-0.043552626
14	0x3c59a618	0.013284229
15	0x3b19c37d	0.0023462467
16	0xbb31e0aa	-0.0027141967
17	0x3c8ab808	0.016933456
18	0x3cf85a82	0.030316595
19	0x3c9102c0	0.017701507
20	0x3d09c2d9	0.033633087
21	0xbbc95be2	-0.0061449865
22	0xba86dcdf	-0.0010289213
23	0xbb65645b	-0.0035002443
24	0x3d1ddd40	0.03854108
25	0x3bdd744e	0.0067582494
26	0x3ce40698	0.027835175
27	0x3b828702	0.0039833793
28	0x3bf6abfc	0.0075278264
29	0xba5966e9	-0.0008293228
30	0xba18792a	-0.00058163947
31	0xbc015ebc	-0.007896122

bn1.weight f4 [32]
0	0x3f256982	0.6461412
1	0x3f2d13ce	0.67608345
2	0x3f270dcc	0.6525543
3	0x3f0ed030	0.5578642
4	0x3f58ccb8	0.84687376
5	0x3f3ab075	0.729255
6	0x3f819df0	1.0126324
7	0x3f3c8d84	0.73653436
8	0x3f82df05	1.022431
9	0x3f938d46	1.1527488
10	0x3f28f0bb	0.65992326
11	0x3f11820a	0.5683905
12	0x3f106f9f	0.5642032
13	0x3f9071e3	1.1284755
14	0x3f21d138	0.6320987
15	0x3f270f6d	0.6525791
16	0x3f7cd525	0.9876273
17	0x3f4ffe21	0.81247145
18	0x3f6753e8	0.90362406
19	0x3f19475d	0.59874517
20	0x3f841a1e	1.032047
21	0x3f23baf7	0.6395716
22	0x3f0f9ce0	0.5609875
23	0x3f3ad06a	0.72974265
24	0x3f1f8458	0.62311316
25	0x3f50af2d	0.815173
26	0x3f945d4e	1.1590974
27	0x3f800537	1.0001591
28	0x3f16c757	0.5889792
29	0x3f268a86	0.6505512
30	0x3f257df0	0.6464529
31	0x3f19d2b2	0.6008712

bn1.bias f4 [32]
0	0xbf2d22ba	-0.67631114
1	0xbf752e42	-0.9577371
2	0xbf15a518	-0.5845504
3	0xbef924d7	-0.4866092
4	0xbdd63ff3	-0.10461416
5	0xbda2a16b	-0.07940944
6	0xbe82f9c4	-0.2558118
7	0xbef6631d	-0.48122492
8	0xbe5db9a7	-0.21652852
9	0xbf52a6c1	-0.82285696
10	0xbf3466f1	-0.70469576
11	0xbf2555cc	-0.6458404
12	0xbee5d1ff	-0.44886777
13	0xbe88c4de	-0.26712698
14	0xbf1836df	-0.59458727
15	0xbf32b34f	-0.69804853
16	0xbf32e3c0	-0.6987877
17	0xbf1ab391	-0.60430247
18	0xbf241812	-0.6409923
19	0xbf1e22c7	-0.61771816
20	0xbf3f7ab1	-0.7479659
21	0xbeca221b	-0.39479145
22	0xbf3973f8	-0.7244258
23	0xbf142672	-0.5787116
24	0xbccd38a3	-0.02505142
25	0xbee1bb2e	-0.4408812
26	0xbf0e5bd7	-0.55608886
27	0xbea7d865	-0.32782283
28	0xbf60964a	-0.8772932
29	0xbf8ae708	-1.0851755
30	0xbf5e42b3	-0.86820525
31	0xbf27c2a2	-0.6553136

bn1.running_mean f4 [32]
0	0x4098fb9b	4.7807136
1	0x40c2c451	6.0864644
2	0xbf00eb2f	-0.5035886
3	0x40c0e848	6.0283546
4	0xbeab2dba	-0.33433324
5	0xbf1ea8bf	-0.61976236
6	0xbf35c096	-0.7099699
7	0xc14cb942	-12.795229
8	0xbf6f4d69	-0.93477494
9	0xc05d14c9	-3.4543936
10	0x408de513	4.434213
11	0x3e8946d8	0.26811862
12	0x411212e2	9.12961
13	0xbf75833a	-0.9590336
14	0x410d82cb	8.844432
15	0x41d7d89e	26.98077
16	0xbfb88085	-1.4414221
17	0xc0675419	-3.614508
18	0xc0254c18	-2.5827694
19	0x3ede14e4	0.43375313
20	0xc07786c5	-3.8676007
21	0x413b7abc	11.717464
22	0x41519e31	13.101121
23	0xbf834dfb	-1.0258173
24	0x3dd570ea	0.10421927
25	0x41be7f4f	23.812162
26	0xbfafa4ba	-1.3722146
27	0xbeb93941	-0.36176494
28	0x405cf007	3.45215
29	0x42041f1b	33.030376
30	0x41acd77b	21.605215
31	0x407ce1f6	3.9512916

bn1.running_var f4 [32]
0	0x428c5b5a	70.17842
1	0x42bcc72e	94.38902
2	0x4128acca	10.542185
3	0x42c9180c	100.54697
4	0x41103f6b	9.015483
5	0x41048456	8.282309
6	0x41a091f8	20.071274
7	0x43d3f389	423.90262
8	0x41822b23	16.271063
9	0x41f696ee	30.823696
10	0x42950141	74.50245
11	0x406a06a1	3.6566546
12	0x4345bed5	197.74544
13	0x418b376e	17.402065
14	0x43471a34	199.10236
15	0x44c7eb35	1599.3502
16	0x41356e0b	11.339366
17	0x41fcc04b	31.593893
18	0x41b10339	22.126574
19	0x411ae8e5	9.681859
20	0x421e4e17	39.57626
21	0x439e6f67	316.87033
22	0x43c3e064	391.75305
23	0x40e398a5	7.1123834
24	0x4164e3f5	14.305654
25	0x44a2df56	1302.9792
26	0x4198335a	19.025074
27	0x413ab5cf	11.669387
28	0x429babe8	77.835754
29	0x451aa064	2474.0244
30	0x44805073	1026.514
31	0x42564407	53.566433

conv2.weight f4 [64, 32, 7, 7]
0	0xbd7472a1	-0.05967963
1	0xbd8b6a82	-0.06807424
2	0xbc468bce	-0.012118293
3	0xbd2a74dc	-0.041615352
4	0xbdca5b4b	-0.09880694
5	0xbdae2835	-0.08503763
6	0xbe0a8a2d	-0.13529272
7	0xbb04982c	-0.0020232303
8	0xbde5d462	-0.112221494
9	0xbdc37959	-0.095446296
10	0xbda203dd	-0.07910893
11	0xbd17c0e1	-0.037049178
12	0xbc3ac4f6	-0.011399498
13	0xbd9e1898	-0.07719535
14	0xbd5afe4a	-0.053465165
15	0x3de0c71c	0.10975477
16	0x3e3bf4da	0.18355122
17	0x3e2b4c88	0.16728413
18	0x3df3da05	0.11906818
19	0x3d9382cf	0.07202684
20	0x3ca898b2	0.020580623
21	0xbdd85389	-0.10562808
22	0xbd02ea5a	-0.031961776
23	0xbc986628	-0.0186034
24	0xbdcca19a	-0.099917606
25	0xbdf18523	-0.11792972
26	0xbdd3ee1a	-0.10348149
27	0xbe0f2541	-0.13979055
28	0xbe5b26ca	-0.21401516
29	0xbda5ac45	-0.080894984
30	0x3d401d90	0.046903193
31	0xbd38bbfc	-0.04510115
32	0xbdecfb80	-0.11571407
33	0xbccaafab	-0.024741968
34	0x3c19f114	0.009395856
35	0xbe9521d6	-0.29127377
36	0xbe267924	-0.16257149
37	0xbe05f4c2	-0.13081649
38	0xbdb99c11	-0.090629704
39	0xbe244b32	-0.1604431
40	0xbdd66a83	-0.10469534
41	0xbde68d6b	-0.11257442
42	0x3cdf128d	0.027230525
43	0x3cdf313b	0.027245155
44	0x3e1264f0	0.14296317
45	0x3e1b34d3	0.1515687
46	0x3de5c4ff	0.11219215
47	0x3de0b8ba	0.10972734
48	0x3dc3a26d	0.09552465
49	0xbe1d5f11	-0.15368296
50	0xbe0d9159	-0.13824977
51	0xbd6a4141	-0.057191137
52	0xbd51d00c	-0.0512238
53	0xbe12e437	-0.1434487
54	0xbe051552	-0.12996414
55	0xbe54d279	-0.20783414
56	0xbd967b20	-0.07347703
57	0xbdf602f2	-0.120122805
58	0xbd012204	-0.03152658
59	0xbdac3241	-0.08408023
60	0xbd771869	-0.060326014
61	0xbd6ac9b1	-0.057321254
62	0xbdfa1cca	-0.12212522
63	0xbe17bcb3	-0.14818077
64	0x3e2752d5	0.16340192
65	0x3e821914	0.25409758
66	0x3e81221b	0.25221333
67	0x3e7b1289	0.2451879
68	0x3e0c0737	0.13674627
69	0x3dab4281	0.08362294
70	0xbe6afbfa	-0.22947684
71	0xbdc762f3	-0.0973567
72	0x3d1d79e4	0.038446322
73	0x3d048122	0.032349713
74	0xbd1fba91	-0.038996283
75	0x3c4a2611	0.012338177
76	0xbcf0363c	-0.029322736
77	0xbd84de49	-0.0648771
78	0x3c080f56	0.008304438
79	0x3cc0e6a1	0.023547472
80	0x3c280537	0.01025515
81	0xbd52aba1	-0.05143321
82	0x3b513457	0.0031922066
83	0xbd2468b9	-0.040138934
84	0xbede68f8	-0.4343946
85	0xbe37768d	-0.17916317
86	0xbe1408cc	-0.1445648
87	0xbda3358e	-0.07969199
88	0xbda0451f	-0.07825684
89	0xbddd7e52	-0.10815109
90	0xbdee941e	-0.11649345
91	0xbe4f1081	-0.2022114
92	0xbdc5cd83	-0.09658339
93	0xbc33ab62	-0.010966154
94	0x3ca1ea49	0.019765036
95	0x3cf9afa9	0.03047927
96	0x3d550ee5	0.052016158
97	0x3bf3e6a2	0.007443265
98	0x3ddb77fa	0.10716243
99	0xbb8d7b44	-0.004317673
100	0x3d57a03a	0.05264304
101	0x3dd3056e	0.1030377
102	0xbc92f75d	-0.017940218
103	0x3d809e8e	0.06280242
104	0x3e5cdee3	0.215694
105	0xbdd0cafa	-0.10194965
106	0xbe2f5bd3	-0.17124872
107	0xbd1ca5f9	-0.03824422
108	0x3db99ffa	0.09063716
109	0xbe1666ca	-0.14687648
110	0x3c437cd2	0.011931615
111	0x3d013b5e	0.031550758
112	0xbdaa290e	-0.08308612
113	0xbdf87e4b	-0.121334635
114	0xbca29ee0	-0.019851148
115	0xbdc97bc1	-0.09838057
116	0xbe16208f	-0.14660858
117	0xbe47b17f	-0.19501303
118	0xbda79a6d	-0.08183751
119	0x3dc708da	0.09718485
120	0x3e155785	0.14584167
121	0x3e2dbdf1	0.16966988
122	0xbd66a0ec	-0.05630581
123	0xbe1d0a1e	-0.1533589
124	0x3c891202	0.01673222
125	0xbd394ce2	-0.045239337
126	0x3e0de639	0.13857354
127	0x3dbccd4b	0.09218844
128	0x3e34b344	0.1764651
129	0xbd8a4bd4	-0.06752744
130	0x3d1e2aa7	0.038614895
131	0xbcdae2c2	-0.026719455
132	0x3e09f4c9	0.13472284
133	0xbc9942ac	-0.01870855
134	0xbd54ef79	-0.05198619
135	0x3e56286b	0.20913856
136	0xbd5b3b8b	-0.05352358
137	0x3e1660cc	0.14685363
138	0x3d87649d	0.06610987
139	0x3dafa084	0.08575538
140	0xbcc7391c	-0.024319224
141	0xbe6b230d	-0.2296259
142	0x3c765f23	0.015037331
143	0xbc93e3f4	-0.018053032
144	0xbe4d6d21	-0.2006116
145	0xbe50a0cc	-0.20373839
146	0xbe13bfd5	-0.14428647
147	0xba94cf40	-0.0011353269
148	0xbdd55798	-0.10417098
149	0xbd554125	-0.05206408
150	0xbde07956	-0.10960643
151	0xbe2bbe04	-0.16771704
152	0xbe00dfa8	-0.12585318
153	0xbdb10a0c	-0.086444944
154	0x3cb8f8c9	0.022579568
155	0xbdcb6d77	-0.09932988
156	0xbd1f3588	-0.03886941
157	0xbdd76039	-0.105164
158	0xbd9de7d3	-0.077102326
159	0xbd56441a	-0.05231104
160	0xbd156fe0	-0.036483645
161	0xbd62bb6e	-0.055354528
162	0x3da84776	0.08216755
163	0x3e314b17	0.17313801
164	0x3e292681	0.16518594
165	0x3e0693f2	0.13142374
166	0x3dc270b9	0.094941564
167	0x3de59ed3	0.11211934
168	0xbdb35b3a	-0.087576345
169	0xbcc6413b	-0.024201026
170	0xbc426d87	-0.011866934
171	0xbdb04fb4	-0.08608952
172	0xbdb6bc46	-0.08922629
173	0xbd78d660	-0.06075132
174	0xbdcaaf85	-0.09896759
175	0xbe2b7880	-0.16745186
176	0xbdccba80	-0.099965096
177	0xbcdea6f8	-0.027179226
178	0xbb1b5d37	-0.0023706683
179	0xbd9a258d	-0.075266935
180	0xbe08aba9	-0.13346733
181	0xbd2bd311	-0.041949335
182	0xbe82cdf9	-0.2554777
183	0xbe31c073	-0.1735857
184	0xbe15cb31	-0.14628293
185	0xbe00b47e	-0.12568852
186	0xbe003152	-0.12518814
187	0xbd7e6c25	-0.062114853
188	0xbd7c172e	-0.061545543
189	0xbb3b316f	-0.00285634
190	0xbd1aad8b	-0.03776316
191	0x3d036f46	0.03208854
192	0x3d8a9358	0.06766385
193	0x3c14d0a2	0.009082945
194	0x3ce78b68	0.028264716
195	0x3d04a5eb	0.032384794
196	0x3d34c156	0.044129692
197	0xbd98feb4	-0.07470456
198	0xbbd85db9	-0.0066029695
199	0x3da291d2	0.07937969
200	0x3e800dea	0.25010616
201	0x3d328f43	0.043593656
202	0x3e5cead0	0.21573949
203	0x3e130041	0.14355566
204	0x3de973b8	0.11399025
205	0xbc814c0a	-0.015783329
206	0x3e1a2f21	0.15057041
207	0x3e121162	0.14264444
208	0x3df83c5d	0.121208884
209	0x3cfcf483	0.030878311
210	0x3ddbc1be	0.10730313
211	0x3e9ab55d	0.30216494
212	0x3dce53fb	0.10074612
213	0x3e9c851e	0.3057031
214	0x3e88d3fd	0.26724234
215	0x3e721817	0.23642002
216	0x3e3af8db	0.18258993
217	0x3d54085b	0.05176578
218	0x3d038834	0.032112315
219	0xbe235553	-0.15950517
220	0xbddfefc7	-0.10934406
221	0xbede5333	-0.4342285
222	0xbc90359d	-0.01760369
223	0xbd8fb1d1	-0.07016338
224	0xbd16fc56	-0.03686174
225	0xbcce82f6	-0.025208931
226	0x3d48071c	0.048834905
227	0xbd13004a	-0.035888948
228	0xbd05661f	-0.032568093
229	0xbdb6b40f	-0.08921062
230	0x3dc71a45	0.097218074
231	0xbd65fd85	-0.05614998
232	0xba98a2ce	-0.0011645199
233	0x3dd8afaa	0.1058038
234	0xbd4b335a	-0.04960952
235	0xbccd49a5	-0.02505953
236	0xbe1bfa8b	-0.15232293
237	0xbdd2947f	-0.1028223
238	0x3c85d102	0.016335014
239	0x3d1747ef	0.036933836
240	0x3e0703f6	0.13185105
241	0xbd899efc	-0.06719777
242	0xbdb66c36	-0.08907358
243	0xbd5b5cf0	-0.05355543
244	0xbda22233	-0.07916679
245	0x3bfe7fa6	0.0077666817
246	0x3d8e5a46	0.06950812
247	0xbd9e3afe	-0.077260956
248	0xbd1e2d25	-0.038617272
249	0x3e31ebed	0.17375155
250	0x3e442bfe	0.19157407
251	0x3e895b59	0.26827505
252	0x3c87ca13	0.016575849
253	0x3c847bc1	0.016172292
254	0x3d043516	0.03227719
255	0xbe109a3e	-0.14121339

conv2.bias f4 [64]
0	0xbc1581d8	-0.009125195
1	0xba6abf75	-0.0008954921
2	0xb8b5bfec	-8.666501e-05
3	0xba89e013	-0.001051905
4	0x3b296905	0.002584995
5	0xba8c0ec7	-0.0010685556
6	0xbbca9267	-0.0061820033
7	0xbb10aa1d	-0.0022074052
8	0xbbb4f297	-0.005522083
9	0xbb253e1a	-0.0025214017
10	0x3ba04cdd	0.0048919753
11	0x3a2ee211	0.000667126
12	0x39fd6f07	0.00048338642
13	0x3b43b7a3	0.0029864095
14	0xba85a91d	-0.0010197494
15	0xbae5f292	-0.0017543605
16	0x3b1c1a1c	0.0023819273
17	0xbcba1e8e	-0.022719648
18	0x3bd6d730	0.006556414
19	0x3c09cdf3	0.0084109185
20	0xbc9586dd	-0.018252784
21	0x3b38fb4e	0.002822596
22	0xba94fd7e	-0.001136705
23	0xbb0a3322	-0.0021087606
24	0xbc0903c9	-0.008362719
25	0x39c90eef	0.00038348834
26	0x3af59e2f	0.0018739159
27	0x388b6dce	6.648489e-05
28	0xbb4201ba	-0.002960308
29	0x3b125ba4	0.0022332454
30	0xbc4fa24f	-0.012672975
31	0xba1b6d83	-0.0005929099
32	0xbc73e8f5	-0.014887084
33	0x3b168df6	0.00229728
34	0xba17afc3	-0.00057863834
35	0xb6e6213e	-6.858404e-06
36	0x3a5435b4	0.00080951606
37	0x3b2b8048	0.002616899
38	0xbc286ca8	-0.010279812
39	0xb8c7899a	-9.51469e-05
40	0xbb30f89b	-0.002700365
41	0x3a203751	0.00061117584
42	0xbb856d81	-0.004071892
43	0xb9886d68	-0.00026021455
44	0xbaca84af	-0.001545092
45	0x3af3b87f	0.0018594413
46	0x3c146d19	0.009059214
47	0xbbf19b4d	-0.0073732496
48	0xbab847f7	-0.0014059533
49	0x3b454316	0.00300998
50	0x3bbcd6ff	0.005762934
51	0x3b9381b3	0.0045015453
52	0xbc3f66c7	-0.011682219
53	0xba46dba6	-0.0007585831
54	0xbb53ecf4	-0.003233728
55	0xbab1f6d9	-0.0013577595
56	0x3bb11929	0.0054046107
57	0x3b9444ac	0.004524788
58	0x3ae1e3fb	0.0017234081
59	0x3be11761	0.006869242
60	0xbafa5c54	-0.0019101002
61	0xbc8b7459	-0.017023252
62	0xbab55717	-0.0013835159
63	0xbbfadb6d	-0.007655552

bn2.weight f4 [64]
0	0x3f968d74	1.1761918
1	0x3fb57b3a	1.4178231
2	0x3faad688	1.334672
3	0x3fa05a78	1.2527609
4	0x3fa12bd7	1.2591504
5	0x3fb4c241	1.4121782
6	0x3fadd95d	1.3581959
7	0x3fc48782	1.5353854
8	0x3fb58089	1.4179851
9	0x3fa53fa3	1.2910045
10	0x3fa0176c	1.2507148
11	0x3f8d914c	1.1059966
12	0x3fae9185	1.3638159
13	0x3fd6fa04	1.6795049
14	0x3f97bcd7	1.1854504
15	0x3f920f3e	1.1410902
16	0x3fcfa818	1.6223173
17	0x3fc3e063	1.5302852
18	0x3f84e972	1.0383742
19	0x3fb1db82	1.3895113
20	0x3fd9a074	1.7002091
21	0x3f96efc0	1.1791916
22	0x3f9a6cb7	1.2064427
23	0x3fade9ae	1.3586938
24	0x3fac9ef2	1.3486006
25	0x3f866b7d	1.0501553
26	0x3f87c80b	1.0607923
27	0x3fc7b35a	1.5601609
28	0x3f99f6d6	1.2028453
29	0x3f9ca1e9	1.2236911
30	0x3ff2f5fa	1.8981316
31	0x3fa303cb	1.2735533
32	0x3fe8ea93	1.8196586
33	0x3fc812d8	1.5630751
34	0x3faeae92	1.3647025
35	0x3f66d867	0.90173954
36	0x3f86cb7b	1.0530847
37	0x3fcb9b05	1.5906683
38	0x3fb29521	1.395176
39	0x3fcaacab	1.5833944
40	0x3faa4501	1.3302308
41	0x3f96c0a3	1.1777538
42	0x3fafbf8d	1.3730332
43	0x3fa8c10f	1.3183917
44	0x3f9d4b76	1.2288654
45	0x3f6a0ba7	0.9142403
46	0x3fb3510a	1.4009106
47	0x3fc20492	1.5157645
48	0x3fb39df8	1.4032583
49	0x3fa20c6c	1.2660041
50	0x3fcb9404	1.5904546
51	0x3f905e7a	1.1278832
52	0x3fc1e172	1.5146925
53	0x3fdf74eb	1.7457556
54	0x3fdd7bf1	1.7303449
55	0x3fa73c88	1.3065348
56	0x3faf446c	1.3692756
57	0x3fa82239	1.3135444
58	0x3f7a4c94	0.977731
59	0x3fb2d28c	1.3970504
60	0x3f8903f9	1.0704337
61	0x3fc7de06	1.5614631
62	0x3fb24305	1.3926703
63	0x3f63934b	0.88896626

bn2.bias f4 [64]
0	0xbedc1fe4	-0.4299308
1	0xbec02f2d	-0.37535992
2	0xbed62061	-0.41821578
3	0xbed81ae9	-0.4220803
4	0xbf0060ef	-0.5014791
5	0xbf06a899	-0.5260101
6	0xbf00473a	-0.50108683
7	0xbedbc48c	-0.4292339
8	0xbf33cfe4	-0.7023909
9	0xbf3cf2c5	-0.73807937
10	0xbf323861	-0.6961728
11	0xbf27efc1	-0.6560021
12	0xbf60ca58	-0.8780875
13	0xbf614d92	-0.8800899
14	0xbf799e3e	-0.97507083
15	0xbf121a2b	-0.5707118
16	0xbf30cb66	-0.6906036
17	0xbf07414c	-0.5283401
18	0xbf436682	-0.7632829
19	0xbf4ae9eb	-0.7926318
20	0xbf78cd8e	-0.9718865
21	0xbf339d43	-0.7016184
22	0xbed0d2c4	-0.407858
23	0xbf6cbced	-0.9247578
24	0xbf19c038	-0.6005893
25	0xbf5092eb	-0.8147418
26	0xbf41ddd7	-0.75729126
27	0xbf37a2ff	-0.7173309
28	0xbf3bcf39	-0.7336307
29	0xbf12519b	-0.5715577
30	0xbf3280ee	-0.6972798
31	0xbf225b6d	-0.63420755
32	0xbf22d86c	-0.63611484
33	0xbf5d5aab	-0.86466473
34	0xbf08022d	-0.5312832
35	0xbf351a05	-0.7074283
36	0xbf2f0fc0	-0.6838341
37	0xbf253460	-0.6453304
38	0xbf3d8728	-0.7403436
39	0xbf2661e8	-0.64993143
40	0xbf35fd68	-0.7108979
41	0xbefd7a59	-0.49507406
42	0xbf352561	-0.7076016
43	0xbf68f100	-0.90992737
44	0xbf829481	-1.020157
45	0xbf3ae64e	-0.7300767
46	0xbf0654f7	-0.52473396
47	0xbf593883	-0.84851855
48	0xbef157c5	-0.47137275
49	0xbf19e2ae	-0.6011151
50	0xbf21e3ac	-0.63238025
51	0xbf38bf9c	-0.7216737
52	0xbf327bb8	-0.6972003
53	0xbf02e9b9	-0.5113788
54	0xbecd1f29	-0.40062836
55	0xbf3a920a	-0.7287909
56	0xbf29e666	-0.66367185
57	0xbf2e9432	-0.6819488
58	0xbf58c12a	-0.84669745
59	0xbf0d5dd3	-0.5522129
60	0xbf1ec05c	-0.6201227
61	0xbf88316d	-1.0640084
62	0xbeefefe3	-0.46862707
63	0xbfa8bc94	-1.318255

bn2.running_mean f4 [64]
0	0xbf327f4d	-0.69725496
1	0xc0a425d1	-5.1296163
2	0xc1116a4a	-9.0884495
3	0xbe90b55c	-0.28263366
4	0xc0578d30	-3.3679924
5	0xbea3ff02	-0.32030493
6	0xc0980152	-4.750161
7	0xc134c32a	-11.297647
8	0xbfe537c5	-1.7907645
9	0xc0a23532	-5.0689936
10	0xc0b5acf7	-5.677364
11	0xc0611fda	-3.517569
12	0xc097a99c	-4.7394543
13	0xc08695f1	-4.2058034
14	0xbf849ba5	-1.0359999
15	0xc059c797	-3.402807
16	0xc0dd955e	-6.9244833
17	0xc020d431	-2.5129511
18	0xbf9b1698	-1.211627
19	0xc0cd902a	-6.423848
20	0xc02c0a88	-2.6881428
21	0xc08cbacf	-4.397804
22	0xbf39641d	-0.72418386
23	0xc01078ab	-2.257365
24	0xc083404f	-4.1016
25	0xbf8c1e72	-1.0946791
26	0xc05e5338	-3.4738293
27	0xc0959518	-4.67445
28	0xc03b46ac	-2.9261885
29	0xc024f1eb	-2.5772655
30	0xc019f16b	-2.40536
31	0xc0590a52	-3.391255
32	0xbfb721d5	-1.43072
33	0xc0b3b443	-5.6157546
34	0xc1024dde	-8.144011
35	0xbffe3557	-1.9860028
36	0xc0c766a5	-6.23128
37	0xbf9c7e87	-1.2226113
38	0xc024af03	-2.5731819
39	0xbfe1c22c	-1.7637382
40	0xc0dc448a	-6.8833666
41	0xc12cfad8	-10.811241
42	0xc1226ec2	-10.1520405
43	0xc02e47a2	-2.7231221
44	0xbfa24537	-1.2677373
45	0x3fbfe41f	1.4991492
46	0xc07f3aec	-3.9879713
47	0xc089bafc	-4.3040752
48	0xc0f9ab72	-7.8021784
49	0xbf8a317b	-1.079635
50	0xc0a7db6a	-5.245534
51	0xbfbd591b	-1.4792818
52	0xc0fa28f1	-7.8174977
53	0xc0f9e73d	-7.8094773
54	0xc11290c0	-9.160339
55	0xc0943f33	-4.6327147
56	0xc0eeefa2	-7.466752
57	0xc02b16a9	-2.673258
58	0xc10ad891	-8.677873
59	0xc089fa7c	-4.3118267
60	0xc0c668c4	-6.200289
61	0xc08c7487	-4.3892245
62	0xc054813f	-3.3203886
63	0xc0f3bed6	-7.6170454

bn2.running_var f4 [64]
0	0x41b7f3aa	22.993977
1	0x426ce29f	59.22131
2	0x42d550bf	106.65771
3	0x42285f14	42.09285
4	0x42176ccc	37.856247
5	0x416d97d2	14.8495655
6	0x41bc2f03	23.522955
7	0x424d377e	51.30419
8	0x41a1ff61	20.249697
9	0x4217b79b	37.929302
10	0x41d118d4	26.137123
11	0x42009a09	32.150425
12	0x418eec01	17.865236
13	0x41e385be	28.440304
14	0x421de9c0	39.47827
15	0x41ccae79	25.585192
16	0x426cda51	59.2132
17	0x414286f5	12.1579485
18	0x41dfab89	27.958757
19	0x422ff385	43.987812
20	0x417faf2e	15.9802685
21	0x41a21fc7	20.265516
22	0x41f1b63e	30.213985
23	0x412b6e6f	10.714461
24	0x41a665c8	20.799698
25	0x4240b88f	48.180233
26	0x42209971	40.149845
27	0x41e70f1f	28.882383
28	0x419d05e7	19.627882
29	0x4194adc3	18.584845
30	0x4181aaf2	16.20847
31	0x419c84d8	19.564865
32	0x41c405fd	24.502924
33	0x41db3853	27.402502
34	0x425a67e3	54.60145
35	0x42065d99	33.591404
36	0x4210e0e1	36.21961
37	0x41b031e6	22.024364
38	0x41999ab8	19.200546
39	0x421158e0	36.336792
40	0x42023089	32.547398
41	0x42ecdf48	118.4361
42	0x42968a05	75.26957
43	0x41663bf8	14.389641
44	0x41504f69	13.019387
45	0x420fc8e3	35.94618
46	0x41b96951	23.176424
47	0x41f6a0c8	30.828506
48	0x426ef14a	59.735634
49	0x420f65f6	35.84957
50	0x41ea6539	29.299425
51	0x419bd4f8	19.478989
52	0x42267de9	41.62296
53	0x42389ee2	46.15516
54	0x42b9989c	92.798065
55	0x423ad910	46.711975
56	0x4204984a	33.14872
57	0x419934b2	19.15073
58	0x422a19d6	42.52523
59	0x41983013	19.023474
60	0x420bcb54	34.948563
61	0x41da4e50	27.288239
62	0x4183b110	16.461456
63	0x4219e072	38.469185
