results/mfdwc-grl/a-b/best_D_a-b.pth (torch, 105851 bytes, 3 tensors)

fc1.weight f4 [100, 256]
0.0037957341 0.09348196 0.019651404 -0.26426464 -0.09937987 0.017857982 -0.002725524 -0.011154027
-0.100537315 0.25306338 -0.008763967 -0.038575575 -0.16039333 0.0025073313 0.21719064 -0.04837826
-0.067376375 0.08626871 0.015619932 0.10616122 -0.37186417 0.1317196 -0.014243328 0.053876888
-0.09627458 -0.2714785 -0.124302685 -0.1173967 0.15041156 0.4038303 -0.17469856 -0.44938505
0.24620162 0.0084505435 -0.030961048 0.110169284 -0.14932948 0.10152151 0.048561953 0.2068678
0.04927945 0.039581053 0.02461649 0.025551314 -0.6545784 0.09285837 0.2762085 0.3069234
-0.07381191 0.031264164 -0.11739348 0.17753847 -0.060897388 0.059062537 -0.17729323 0.18536906
0.067440085 -0.10277365 0.3851683 0.38983068 0.10818919 -0.17190923 -0.033622794 -0.043831293
0.021579806 0.07336519 -0.07987776 0.02709304 0.15629251 0.053136263 -0.42533755 -0.28048295
0.09472866 -0.19945784 0.07367386 0.1700788 0.09953691 0.02614776 0.103573956 0.48925242
0.109456085 0.1811085 -0.034644112 -0.31795672 0.16816822 -0.031763945 -0.32634524 0.13450328
-0.11085374 0.4310675 -0.15194437 -0.22503449 -0.08006174 -0.079260685 0.078530885 -0.05115651
-0.268644 0.14772134 0.12542836 -0.25793165 -0.17037559 -0.15852435 0.43405148 0.19789873
-0.17885785 0.08848307 0.09009935 0.09198515 0.1661942 -0.046615243 -0.08363662 0.19716655
0.05501836 0.008399414 0.05382016 -0.22429426 0.0044199605 -0.27284077 0.13970622 0.026797824
-0.018055396 0.09912806 -0.06006798 0.2058739 -0.22916225 0.19661647 -0.04563586 0.19657855
-3.2853954e-05 0.05171004 0.095784105 0.008247482 -0.1775071 0.14509566 -0.13449447 -0.093411274
0.24720436 -0.029899744 0.082846135 -0.24741735 0.36239654 -0.1822278 0.11582251 0.0013608908
0.13065837 -0.12097913 -0.04187625 -0.10780622 0.21244706 -0.075508535 0.08971773 0.034176055
0.10926044 -0.07515601 0.19995864 0.054463264 0.27480513 -0.11788266 -0.08454066 0.17720357
0.18680206 -0.057668317 0.16275688 -0.1393539 0.40027148 -0.09028132 -0.2324995 -0.13127288
0.46098474 -0.5186166 0.04215993 0.2306034 -0.1304786 -0.05092338 0.12232758 0.04027327
-0.052988894 0.026039764 -0.025181204 -0.118827954 -0.5185257 0.04439164 0.43200728 -0.3769464
-0.01885752 -0.08666086 -0.1408597 0.4554916 -0.5254722 0.062076304 0.017742194 -0.111037396
0.64664006 -0.083783515 -0.18349527 -0.19299276 -0.09573518 -0.07020954 0.088268824 0.7234818
0.28591892 -0.21598919 0.2280335 -0.30905834 -0.0040112236 -0.011156467 -0.1210915 -0.07508768
-0.20495501 -0.14991666 0.19304645 -0.13346528 0.09731102 -0.08488309 0.17804104 -0.33725968
0.0833891 0.14079975 -0.033443425 -0.2538306 0.34366044 0.02585354 -0.046922054 -0.29275265
0.27076638 -0.060772706 0.03939634 -0.12760004 0.23122822 0.03487742 -0.20770395 -0.14632608
-0.04953328 -0.21190749 0.14656368 0.38039392 0.011301449 -0.052659906 -0.18025964 0.03406973
-0.12782153 0.19085567 0.076463066 -0.0019978255 0.08901982 0.26536205 -0.11855126 -0.58838415
-0.08373717 -0.016168378 -0.0049156146 0.024170581 -0.30584309 0.09082554 -1.0356411 -0.09980333
00000000: dac1 783b 7873 bf3d fbfb a03c b24d 87be
00000010: ac87 cbbd e74a 923c b49e 32bb 61bf 36bc
00000020: 82e6 cdbd 8691 813e be96 0fbc 6c01 1ebd
00000030: 263e 24be 0a52 243b 3967 5e3e 4828 46bd
00000040: a0fc 89bd a6ad b03d beea 7f3c 0e6b d93d
00000050: fb64 bebe 81e1 063e d95c 69bc 03ae 5c3d
00000060: 9b2b c5bd 3bff 8abe 6892 febd ae6d f0bd
00000070: 7d05 1a3e d8c2 ce3e 2ee4 32be cc15 e6be
00000080: 471c 7c3e 2674 0a3c 06a2 fdbc 6fa0 e13d
00000090: d4e9 18be 82ea cf3d e6e8 463d 27d5 533e
000000a0: 40d9 493d be1f 223d 85a8 c93c fd50 d13c
000000b0: 7392 27bf 872c be3d 336b 8d3e 1025 9d3e
000000c0: b32a 97bd da0e 003d fe6b f0bd a5cc 353e
000000d0: 8a6f 79bd 8feb 713d 5b8c 35be 63d1 3d3e
000000e0: 071e 8a3d fe7a d2bd c834 c53e e397 c73e
000000f0: 4b92 dd3d f908 30be 0eb8 09bd 7188 33bd
00000100: 22c8 b03c 7d40 963d f396 a3bd 39f2 dd3c
00000110: 250b 203e 69a5 593d d8c5 d9be 769b 8fbe
00000120: 1a01 c23d ad3e 4cbe 52e2 963d 2329 2e3e
00000130: 02da cb3d d433 d63c 951e d43d 4b7f fa3e
00000140: 832a e03d 8274 393e fce6 0dbd 39cb a2be
00000150: 4a34 2c3e e91a 02bd b916 a7be 3abb 093e
00000160: 4907 e3bd e1b4 dc3e 4e97 1bbe 716f 66be
00000170: 69f7 a3bd 6d53 a2bd cdd4 a03d 7d89 51bd
00000180: b58b 89be 4344 173e 4b70 003e 9e0f 84be
00000190: f076 2ebe 3554 22be ff3b de3e f7a5 4a3e
000001a0: 8326 37be 9d36 b53d 0286 b83d b662 bc3d
000001b0: d02e 2a3e a0ef 3ebd ad49 abbd 07e6 493e
000001c0: ef5a 613d b29d 093c 8772 5c3d 65ad 65be
000001d0: 51d5 903b c9b1 8bbe 260f 0f3e 1c87 db3c
000001e0: e9e8 93bc a703 cb3d d809 76bd 9cd0 523e
000001f0: 82a9 6abe d455 493e abec 3abd e34b 493e
00000200: aacc 09b8 e8cd 533d 752a c43d 7220 073c
00000210: 6cc4 35be f593 143e ebb8 09be 694e bfbd
00000220: 2423 7d3e 4ff0 f4bc 3cab a93d f95a 7dbe
00000230: 0a8c b93e ed99 3abe 5a34 ed3d eb5f b23a
00000240: 4fcb 053e e8c3 f7bd 6e86 2bbd 82c9 dcbd
00000250: b98b 593e 38a4 9abd eebd b73d 31fc 0b3d
00000260: f0c3 df3d 65eb 99bd f5c1 4c3e df14 5f3d
00000270: 42b3 8c3e 776c f1bd a723 adbd da74 353e
00000280: 0a49 3f3e 9d35 6cbd bda9 263e cab2 0ebe
00000290: 62f0 cc3e 6ae5 b8bd 5914 6ebe 666c 06be
000002a0: 3106 ec3e 0fc4 04bf e4af 2c3d 4c23 6c3e
000002b0: 2f9c 05be 0995 50bd e286 fa3d 96f5 243d
000002c0: e20a 59bd 5851 d53c d048 cebc 125c f3bd
000002d0: 1abe 04bf 02d4 353d 0f30 dd3e 1eff c0be
000002e0: 167b 9abc 407b b1bd 863d 10be 3236 e93e
000002f0: 5985 06bf b943 7e3d 1458 913c 9367 e3bd
00000300: 348a 253f b196 abbd 2fe6 3bbe e59f 45be
00000310: ce10 c4bd 05ca 8fbd 49c6 b43d 1a36 393f
00000320: f763 923e 452c 5dbe 9d81 693e e53c 9ebe
00000330: 9570 83bb 9dc9 36bc d2fe f7bd 92c7 99bd
00000340: badf 51be c183 19be f8ad 453e 1fab 08be
00000350: 004b c73d 2fd7 adbd 6450 363e 4dad acbe
00000360: e8c7 aa3d cf2d 103e f9fb 08bd 16f6 81be
00000370: 43f4 af3e ceca d33c 5731 40bd ade3 95be
00000380: e4a1 8a3e cdec 78bd 0e5e 213d 96a9 02be
00000390: 17c7 6c3e a0db 0e3d 58b0 54be 81d6 15be
000003a0: 69e3 4abd 47fe 58be ca14 163e fec2 c23e
000003b0: b629 393c eab1 57bd fc95 38be b48c 0b3d
000003c0: a6e3 02be ab6f 433e ab98 9c3d f3ed 02bb
000003d0: 0650 b63d 89dd 873e 01cb f2bd 58a0 16bf
000003e0: 657e abbd 8c73 84bc 2a13 a1bb 6201 c63c
000003f0: 7797 9cbe be02 ba3d e38f 84bf b065 ccbd

fc1.bias f4 [100]
-0.22370143 0.3303267 -0.02311799 -0.13471043 0.13712998 -0.03389968 -0.065592855 0.019439688
0.3889232 -0.21810727 0.22259045 0.078509495 0.109583765 -0.27255124 0.13191597 -0.0818556
0.33108962 -0.22372942 -0.20551625 -0.13790429 0.032127213 -0.15799518 0.19370694 0.10366417
-0.045095347 -1.1132914 -0.28925872 0.26176327 0.49831536 0.12236035 0.0013848604 0.12466211
0.3526526 0.44792816 -0.93878555 0.38066897 -0.12387482 -0.13914847 0.010645078 0.3043097
0.12333563 0.010878033 0.34485298 -1.1881944 -0.18508683 0.092604026 0.39067832 0.14682025
0.29542226 0.09297749 -0.1404509 0.04138932 0.2743095 0.03350749 0.1490286 -0.87131035
-0.22390038 0.14062254 -0.11128351 -0.051709883 -0.19493042 0.052816164 -0.082146645 0.3332437
0.08457261 -0.051945783 0.43044817 0.015926545 -0.06757157 0.2404404 0.1031968 0.5786149
0.36362314 -0.2115199 0.12162977 0.05420928 0.031105435 -0.015938561 0.14300679 0.028410776
-0.17144427 -0.07857064 0.11643691 0.055468455 0.0013128478 0.12909934 -1.1203701 0.09834452
0.41228136 -0.030042818 -0.1815949 0.4258139 -0.2032312 0.06541849 -0.0099805 0.40966797
0.4293284 0.23078984 -0.24194878 0.31603003
00000000: fd11 65be 9520 a93e f061 bdbc 88f1 09be
00000010: cd6b 0c3e 64da 0abd 8c55 86bd fb3f 9f3c
00000020: f120 c73e 8357 5fbe c0ee 633e 96c9 a03d
00000030: 746d e03d d68b 8bbe fb14 073e e9a3 a7bd
00000040: 9484 a93e 5319 65be da72 52be c836 0dbe
00000050: d397 033d 7dc9 21be 1d5b 463e e14d d43d
00000060: e6b5 38bd 5580 8ebf b819 94be d605 863e
00000070: 3123 ff3e 1098 fa3d 3484 b53a d94e ff3d
00000080: e28e b43e d756 e53e 4054 70bf 0be7 c23e
00000090: 15b2 fdbd f07c 0ebe b168 2e3c 7bce 9b3e
000000a0: 6497 fc3d c739 323c 9290 b03e c116 98bf
000000b0: 6787 3dbe 2ea7 bd3d fd06 c83e 0c58 163e
000000c0: 9641 973e fb6a be3d 5cd2 0fbe d987 293d
000000d0: 4b72 8c3e 263f 093d f49a 183e 320e 5fbf
000000e0: 2446 65be 5bff 0f3e 9ce8 e3bd becd 53bd
000000f0: d79b 47be c355 583d 803c a8bd eb9e aa3e
00000100: 6834 ad3d 1ac5 54bd b463 dc3e 6378 823c
00000110: f762 8abd 0236 763e d858 d33d 1b20 143f
00000120: d02c ba3e ac98 58be 0719 f93d 8d0a 5e3d
00000130: d3d0 fe3c 9691 82bc 5f70 123e b7bd e83c
00000140: 168f 2fbe a5e9 a0bd 7a76 ee3d e432 633d
00000150: dd13 ac3a 9e32 043e 4a68 8fbf da68 c93d
00000160: 8b16 d33e 5b1c f6bc 03f4 39be 4804 da3e
00000170: d71b 50be 21fa 853d 4085 23bc 00c0 d13e
00000180: efd0 db3e 2c54 6c3e 6cc1 77be b0ce a13e

fc2.weight f4 [1, 100]
-0.16098893 -0.22441311 0.026225042 -0.20335232 -0.2029536 0.501888 -0.07829777 -0.14693047
0.23073256 0.20951447 -0.42731574 -0.16121414 0.21870609 0.1684206 -0.28608096 -0.2649045
0.46053776 0.29611772 -0.01630848 -0.16974142 -0.17639093 -0.0707715 -0.1278195 -0.07517056
0.04880148 0.2843401 0.14659736 -0.07518623 0.22845866 -0.39147544 -0.12992346 -0.01969303
0.28889912 0.2227425 0.13976356 0.29083422 0.27605343 -0.019466821 -0.0027734144 -0.13545503
-0.407542 -0.13114966 0.23822534 0.5156353 -0.12766753 -0.09395037 -0.39148203 0.038645487
-0.22638442 -0.12945887 -0.009730825 -0.16418049 0.13544138 -0.19440743 -0.0071107796 0.42669675
-0.05563393 -0.14248936 -0.2065572 0.07314076 -0.036039747 -0.24401374 0.0054354304 -0.389655
-0.0043160277 0.050758943 -0.38293552 0.025553616 -0.0024832708 -0.13520528 0.011712685 -0.35142884
-0.2770932 0.0069570546 -0.0037554414 -0.2035166 -0.30778852 -0.04031681 -0.05778239 0.014200254
0.12245357 -0.11954232 0.40468588 0.18711339 -0.041378357 0.095009394 0.4732882 -0.0399722
-0.2676505 -0.28766415 0.037054516 -0.42327031 -0.012246421 -0.4077962 -0.14152078 -0.21822856
-0.21880251 -0.20365489 0.27941102 -0.27270943
00000000: 48da 24be 8dcc 65be e6d5 d63c 973b 50be
00000010: 12d3 4fbe bb7b 003f 955a a0bd f174 16be
00000020: 2845 6c3e f68a 563e 21c9 dabe 5215 25be
00000030: 7df4 5f3e 7376 2c3e 3479 92be 90a1 87be
00000040: 9bcb eb3e be9c 973e 5d99 85bc b2d0 2dbe
00000050: d39f 34be a6f0 90bd 1de3 02be 06f3 99bd
00000060: 10e4 473d 0795 913e 9e1d 163e 3dfb 99bd
00000070: 11f1 693e 786f c8be a80a 05be 4753 a1bc
00000080: 96ea 933e 9c16 643e 2e1e 0f3e 39e8 943e
00000090: e056 8d3e e278 9fbc 2cc2 35bb b9b4 0abe
000000a0: 58a9 d0be 194c 06be 58f1 733e ad00 043f
000000b0: 47bb 02be 0d69 c0bd 5570 c8be bb4a 1e3d
000000c0: 51d1 67be de90 04be 0a6e 1fbc ee1e 28be
000000d0: 25b1 0a3e be12 47be 8b01 e9bb ff77 da3e
000000e0: 67e0 63bd bbe8 11be bb83 53be d3ca 953d
000000f0: 6a9e 13bd bdde 79be b21b b23b dc80 c7be
00000100: 776d 8dbb 9ce8 4f3d 2010 c4be d155 d13c
00000110: 5fbe 22bb 4173 0abe 90e6 3f3c 7bee b3be
00000120: 29df 8dbe 01f8 e33b da1d 76bb a866 50be
00000130: 7596 9dbe 3d23 25bd 3aad 6cbd 2fa8 683c
00000140: f0c8 fa3d 9bd2 f4bd fd32 cf3e a79a 3f3e
00000150: 5a7c 29bd 4994 c23d d552 f23e e4b9 23bd
00000160: 7d09 89be b748 93be 7ac6 173d e3b6 d8be
00000170: 36a5 48bc aaca d0be d3ea 10be 4f77 5fbe
00000180: c40d 60be e88a 50be f60e 8f3e 92a0 8bbe
