results/mfdwc-grl/a-b/latest_FE_a-b.pth (torch, 415217 bytes, 12 tensors)

conv1.weight f4 [32, 1, 7, 7]
0.13530326 0.08324364 0.09681672 0.016789276 0.0017326422 0.015970971 0.024686262 0.15627374
0.14382151 0.15592471 0.10475264 0.06376801 0.07371086 0.10792644 -0.20612156 -0.28949717
-0.30745286 -0.44526774 -0.37764826 -0.45385987 -0.39043033 0.12544389 0.015566743 -0.043502446
-0.050745256 -0.022589628 -0.1395591 -0.06955448 0.027331354 0.027635973 0.0120551605 -0.056281667
-0.04909256 -0.044181306 -0.024426294 0.02632767 0.046409495 0.06435562 0.050604556 0.045721352
-0.07904069 -0.031773437 0.028767267 0.03083782 0.06848501 0.05973685 0.095460005 0.0056947106
0.016080208 0.18746692 0.19434877 0.15126535 0.1642657 0.08000722 0.16636379 0.1830433
-0.11225274 -0.18933965 -0.24217375 -0.2486259 -0.23635036 -0.22663501 -0.19728735 -0.039417267
-0.03482584 -0.12594202 -0.13892262 -0.18587172 -0.041256044 -0.07049112 -0.03423029 -0.04171484
-0.03481052 -0.056308426 -0.08913313 -0.033398464 -0.028458487 0.05056127 0.012132487 0.06929348
0.04290769 0.04689514 0.048352685 0.031458348 0.04808287 0.054638334 0.030162513 0.061966114
0.0020054183 0.042083863 0.013616519 -0.09939971 -0.07295147 -0.10090557 -0.07500961 -0.10535662
-0.08528778 -0.11267569 0.08549579 0.031850774 -4.8852486e-05 0.012589109 0.11731114 -0.04269023
-0.11360909 0.04730117 -0.004886668 -0.039582223 -0.0433581 0.1232562 -0.07093431 -0.20346422
0.05703781 0.009609112 -0.014794444 0.0013825987 0.24298814 -0.106361374 -0.39975393 0.25016618
0.1817972 0.342288 0.2437578 0.48911482 0.16942282 -0.07410266 -0.082497 -0.14080743
-0.053729627 -0.09852057 0.04173076 -0.07754514 -0.14528695 -0.09944629 -0.17213698 -0.11698944
-0.18467528 -0.0732502 -0.16625838 -0.15898745 0.044892445 0.028623037 0.052021544 -0.02667263
0.043151483 -0.0006595961 -0.022147078 0.086986035 0.12078856 -0.025859337 -0.029868811 0.015047058
0.06946252 0.03955891 0.15804191 0.19595088 0.09718397 0.04360917 0.1221166 0.12438263
0.15279253 -0.23144175 -0.37787557 -0.53683424 -0.44486293 -0.4024983 -0.2934634 -0.2919616
-0.008878152 -0.06923323 -0.005274203 -0.12530531 -0.04787431 0.0032768566 0.011061586 -0.03586613
0.009737142 -0.061752982 -0.008955878 0.019508366 0.017157283 0.01990662 0.037359424 0.008511551
-0.013684075 0.02352308 0.02717522 0.035270803 0.009622781 0.034661084 0.02963141 0.04355711
0.07492684 0.055582732 0.048360236 0.01705151 0.10804638 0.050834104 0.060351677 0.06440062
0.093642496 0.10737593 0.14033403 -0.024930358 -0.09276318 0.0078139305 -0.13786535 -0.021485288
0.10492544 0.13281742 -0.055274274 -0.013045927 -0.030715154 -0.1282384 0.093445644 0.14498016
0.10995456 -0.06373415 -0.07698719 -0.06627241 0.0034028396 0.18794073 0.08338592 0.16410968
-0.28682172 -0.25493884 -0.20546147 -0.18498118 -0.022980219 0.023541175 0.041855022 -0.20469913
-0.1196261 -0.14726086 -0.08048967 0.14853843 0.17725413 0.19120876 -0.19975351 -0.19022961
-0.01059098 -0.01872734 0.13993415 0.15465748 0.13489088 -0.073411085 -0.0014372927 0.14246301
0.0010002862 0.09392097 0.054315172 0.15681702 -0.07299877 -0.20038652 0.037588127 0.11969148
00000000: f08c 0a3e a47b aa3d d847 c63d aa89 893c
00000010: d319 e33a 8ed5 823c d83a ca3c 3906 203e
00000020: f245 133e baaa 1f3e 8d88 d63d cd98 823d
00000030: b8f5 963d 8a08 dd3d 8811 53be f938 94be
00000040: 766a 9dbe 22fa e3be 1d5b c1be 5260 e8be
00000050: 7ce6 c7be 5d74 003e a70b 7f3c 9f2f 32bd
00000060: 42da 4fbd e20d b9bc 95e8 0ebe 9472 8ebd
00000070: 01e6 df3c d664 e23c 0283 453c 9b87 66bd
00000080: 4815 49bd 75f7 34bd a719 c8bc 20ad d73c
00000090: e217 3e3d e1cc 833d b946 4f3d 5046 3b3d
000000a0: 16e0 a1bd dd24 02bd 55a9 eb3c 999f fc3c
000000b0: de41 8c3d a1ae 743d 8980 c33d b29a ba3b
000000c0: a4ba 833c 54f7 3f3e 5d03 473e 4ee5 1a3e
000000d0: 4535 283e d3da a33d 455b 2a3e b46f 3b3e
000000e0: c4e4 e5bd 41e2 41be 65fc 77be ca97 7ebe
000000f0: d405 72be 0213 68be b205 4abe 0074 21bd
00000100: 8aa5 0ebd f2f6 00be bb41 0ebe 2855 3ebe
00000110: 19fc 28bd a65d 90bd 1035 0cbd 2edd 2abd
00000120: 7a95 0ebd aaa3 66bd 6e8b b6bd d4cc 08bd
00000130: c621 e9bc 5619 4f3d 57c7 463c bde9 8d3d
00000140: f9bf 2f3d 1e15 403d 770d 463d 78da 003d
00000150: 8bf2 443d 72cc 5f3d 6017 f73c 2ed0 7d3d
00000160: 566d 033b 2160 2c3d d217 5f3c 1392 cbbd
00000170: 9567 95bd 94a7 cebd a39e 99bd 36c5 d7bd
00000180: 5cab aebd 83c2 e6bd 6b18 af3d f575 023d
00000190: f5e6 4cb8 8d42 4e3c d340 f03d f3db 2ebd
000001a0: e2ab e8bd dfbe 413d 5820 a0bb f820 22bd
000001b0: 4398 31bd bf6d fc3d 0246 91bd ed58 50be
000001c0: 7ba0 693d 896f 1d3c 6564 72bc 5038 b53a
000001d0: e2d1 783e fed3 d9bd 8cac ccbe c815 803e
000001e0: 0c29 3a3e 5f40 af3e a59b 793e 426d fa3e
000001f0: 2d7d 2d3e 23c3 97bd 30f4 a8bd d32f 10be
00000200: 9913 5cbd 27c5 c9bd e0ed 2a3d fdcf 9ebd
00000210: 1ac6 14be 7faa cbbd ad44 30be 2998 efbd
00000220: 841b 3dbe 3304 96bd a33f 2abe 9bcd 22be
00000230: 24e1 373d dc7a ea3c 8b14 553d 8f80 dabc
00000240: 9cbf 303d bfe8 2cba ca6d b5bc bc25 b23d
00000250: fe5f f73d f6d6 d3bc 70af f4bc f087 763c
00000260: 5e42 8e3d 8608 223d bdd5 213e 59a7 483e
00000270: 6408 c73d 879f 323d 4518 fa3d 52bc fe3d
00000280: a575 1c3e 11ff 6cbe e878 c1be f86d 09bf
00000290: 13c5 e3be 4214 cebe d640 96be fe7b 95be
000002a0: ab75 11bc 27ca 8dbd 39d3 acbb 0950 00be
000002b0: da17 44bd 88c0 563b a83b 353c 5de8 12bd
000002c0: 8988 1f3c b2f0 7cbd adbb 12bc 02d0 9f3c
000002d0: 6e8d 8c3c 3513 a33c 3206 193d 0874 0b3c
000002e0: 2c33 60bc 79b3 c03c 919e de3c 1e78 103d
000002f0: dea8 1d3c c8f8 0d3d 92bd f23c f168 323d
00000300: 3e73 993d b8aa 633d 6215 463d 9caf 8b3c
00000310: 6c47 dd3d 6c37 503d 5233 773d 79e4 833d
00000320: a3c7 bf3d e9e7 db3d b9b3 0f3e c03a ccbc
00000330: 9ffa bdbd 0006 003c 932c 0dbe ea01 b0bc
00000340: 26e3 d63d 4a01 083e 4767 62bd 95be 55bc
00000350: 599e fbbc ed50 03be 6e60 bf3d ae75 143e
00000360: db2f e13d 0d87 82bd 76ab 9dbd d4b9 87bd
00000370: 2d02 5f3b 8973 403e 3dc6 aa3d 5e0c 283e
00000380: 4cda 92be 5887 82be 7e64 52be b56b 3dbe
00000390: 0341 bcbc 6cd9 c03c 2c70 2b3d a69c 51be
000003a0: 87fe f4bd 8dcb 16be c5d7 a4bd 751a 183e
000003b0: 1b82 353e 3bcc 433e 2f8c 4cbe 8dcb 42be
000003c0: ca85 2dbc 146a 99bc e64a 0f3e 885e 1e3e
000003d0: d620 0a3e 8d58 96bd 8a63 bcba d3e1 113e
000003e0: 091c 833a a359 c03d 9679 5e3d a494 203e
000003f0: 6180 95bd 2032 4dbe 02f6 193d cf20 f53d

conv1.bias f4 [32]
0.017049355 -0.0068123913 -0.007691641 -0.0030377752 -0.06146948 0.020517258 0.017041475 0.025109474
0.21288876 -0.017874524 -0.0019835406 0.0006360103 0.0027889428 -0.04573413 0.012558032 0.0020182135
-0.011432703 0.009141621 0.037690297 0.018264018 0.020472944 -0.008421509 0.0005329142 -0.011953251
0.045341264 0.006767046 0.02016513 0.01236947 0.0073611503 -0.0012699203 -0.0011549811 -0.008778443
00000000: 17ab 8b3c 7b3a dfbb 290a fcbb 6915 47bb
00000010: 6cc7 7bbd cf13 a83c 909a 8b3c 62b2 cd3c
00000020: 83ff 593e 986d 92bc 4afe 01bb eeb9 263a
00000030: b2c6 363b b653 3bbd 34c0 4d3c 0144 043b
00000040: 3b50 3bbc bdc6 153c 2461 1a3d 6c9e 953c
00000050: e0b6 a73c 5efa 09bc 44b3 0b3a 92d7 43bc
00000060: c3b7 393d 19be dd3b 5831 a53c 51a9 4a3c
00000070: ce35 f13b 7473 a6ba bc62 97ba 75d3 0fbc

bn1.weight f4 [32]
0.62521005 0.6551006 0.65494955 0.5437031 0.81552917 0.69938564 0.9497081 0.75466794
1.0153227 1.1610826 0.63360643 0.5572389 0.55735695 1.1097113 0.6193948 0.6391066
1.0161703 0.8217168 0.92068404 0.5678273 1.0616148 0.63003665 0.57157683 0.73973966
0.6552289 0.8236165 1.168222 0.9930527 0.59914386 0.6636473 0.6485238 0.56946504
00000000: c40d 203f acb4 273f c6aa 273f 2030 0b3f
00000010: 85c6 503f f00a 333f 1220 733f eb31 413f
00000020: 18f6 813f 5b9e 943f 0834 223f 35a7 0e3f
00000030: f2ae 0e3f 050b 8e3f a890 1e3f 7d9c 233f
00000040: de11 823f 085c 523f f3b1 6b3f 215d 113f
00000050: fee2 873f 154a 213f dc52 123f 945f 3d3f
00000060: 15bd 273f 88d8 523f 4c88 953f b438 7e3f
00000070: 7e61 193f cae4 293f a805 263f 76c8 113f

bn1.bias f4 [32]
-0.676851 -0.9795103 -0.6263715 -0.4722141 -0.09969716 -0.080495864 -0.30914178 -0.47812948
-0.21645299 -0.8397506 -0.73717374 -0.66743404 -0.42789522 -0.2687422 -0.59156185 -0.702079
-0.6972598 -0.61604184 -0.6376853 -0.6348582 -0.74700963 -0.36611664 -0.7106678 -0.59280205
-0.017154668 -0.43515798 -0.53305024 -0.30034685 -0.8785301 -1.0896735 -0.87985057 -0.6684463
00000000: 1b46 2dbf 30c1 7abf e259 20bf 0cc6 f1be
00000010: 062e ccbd 04db a4bd d547 9ebe 63cd f4be
00000020: daa5 5dbe e5f9 56bf 6bb7 3cbf f5dc 2abf
00000030: 1515 dbbe 9498 89be 9970 17bf 73bb 33bf
00000040: 9e7f 32bf ebb4 1dbf 583f 23bf 1186 22bf
00000050: 063c 3fbf a473 bbbe 53ee 35bf e0c1 17bf
00000060: f287 8cbc 07cd debe fb75 08bf 10c7 99be
00000070: 59e7 60bf 6c7a 8bbf e33d 61bf 4c1f 2bbf

bn1.running_mean f4 [32]
5.1786094 5.771443 0.02511834 5.546581 -0.560064 -0.24633087 -0.87008893 -11.713804
-1.0304179 -3.6836455 4.279399 -0.5766089 10.532011 -1.3149511 8.255765 27.818653
-1.5525651 -4.2558556 -2.51077 0.40527302 -3.7666419 12.846904 13.95741 -1.6894116
-0.8204921 23.808895 -1.7698638 -0.29948032 4.870694 35.92433 21.725016 4.4817586
00000000: 2bb7 a540 a9af b840 fac4 cd3c 977d b140
00000010: 5b60 0fbf 293e 7cbe 26be 5ebf be6b 3bc1
00000020: bce4 83bf d9c0 6bc0 d6f0 8840 a49c 13bf
00000030: 1e83 2841 5150 a8bf 9d17 0441 9a8c de41
00000040: 74ba c6bf f82f 88c0 75b0 20c0 f27f cf3e
00000050: a910 71c0 eb8c 4d41 8d51 5f41 a43e d8bf
00000060: c50b 52bf 9e78 be41 e68a e2bf 7c55 99be
00000070: badc 9b40 84b2 0f42 d5cc ad41 916a 8f40

bn1.running_var f4 [32]
79.50169 85.427025 10.426258 89.21608 10.387759 8.765515 22.06754 367.83475
17.840296 34.571873 73.50278 4.259378 256.3815 20.542334 177.48619 1699.4951
13.041891 42.764748 22.313793 10.022925 38.63952 376.11093 441.62384 10.558842
14.2051325 1306.2418 22.93718 11.724458 110.931305 2905.099 1035.3044 64.217186
00000000: de00 9f42 a3da aa42 f4d1 2641 a26e b242
00000010: 4334 2641 8d3f 0c41 528a b041 d9ea b743
00000020: edb8 8e41 9949 0a42 6c01 9342 d34c 8840
00000030: d530 8043 b356 a441 777c 3143 d86f d444
00000040: 96ab 5041 1a0f 2b42 a682 b241 e75d 2041
00000050: de8e 1a42 330e bc43 dacf dc43 04f1 2841
00000060: 3948 6341 bd47 a344 587f b741 6197 3b41
00000070: d4dc dd42 9691 3545 be69 8144 336f 8042

conv2.weight f4 [64, 32, 7, 7]
-0.026425067 -0.029637763 0.03706418 -0.004728429 -0.06762536 -0.048296317 -0.102059126 0.031293772
-0.075921655 -0.062815964 -0.052128874 -0.013177577 0.010546299 -0.05906798 -0.04731063 0.119479515
0.20738718 0.18514389 0.1390623 0.08848998 0.031250834 -0.10980181 -0.044334706 -0.008991163
-0.09604656 -0.11325431 -0.10064378 -0.13750438 -0.16869508 -0.07268211 0.08788621 -0.0132292
-0.07825105 0.018658819 0.05629481 -0.30646214 -0.18371707 -0.11586369 -0.0807774 -0.14678097
-0.08737282 -0.09849982 0.021249028 0.0019550754 0.14063063 0.14503667 0.10684353 0.108952194
0.09888249 -0.12891056 -0.10917216 -0.030077076 -0.029677084 -0.1252131 -0.10174517 -0.19324596
-0.035031606 -0.06999048 0.010802732 -0.049476895 -0.031873796 -0.034256723 -0.098499686 -0.13077466
0.18596831 0.27496436 0.27257898 0.2638276 0.14948481 0.09250826 -0.20524944 -0.07916203
0.049496908 0.049172744 -0.025274392 0.03146058 -0.0029965902 -0.029644264 0.036674358 0.052439462
0.02326693 -0.048163768 0.015179219 -0.020502314 -0.40758598 -0.15897001 -0.13274267 -0.07197796
-0.06809972 -0.09012405 -0.09189628 -0.20188825 -0.106382295 -0.020958649 0.0066404874 0.014971143
0.036984343 -0.007882242 0.07666624 0.003666126 0.029887618 0.07475035 -0.017199397 0.012271157
0.16949244 -0.11448831 -0.18006179 -0.05401672 0.11661328 -0.1369101 -0.015777912 0.026233515
-0.14997658 -0.09612641 -0.024417961 -0.15689051 -0.20106792 -0.23731627 -0.11805039 0.03589122
0.14897957 0.1744944 -0.027844254 -0.19767861 0.01871092 -0.057392314 0.14159463 0.1467733
0.20517682 -0.02401646 0.0682587 0.0032773495 0.1492131 -0.02004887 -0.024972685 0.25131977
-0.023805374 0.16909057 0.107839145 0.093315154 -0.024460874 -0.19582441 0.015159058 -0.03812851
-0.23114817 -0.2266005 -0.16867161 0.010093791 -0.0877421 -0.040510606 -0.104139425 -0.16665778
-0.11686803 -0.07866527 0.017503768 -0.101101644 -0.04282999 -0.11433358 -0.08242093 -0.061579376
-0.047937904 -0.04620218 0.10254615 0.1900844 0.17569022 0.14291407 0.10610397 0.12219436
-0.10325568 -0.03458215 -0.039373796 -0.1122551 -0.11344179 -0.08542864 -0.121798605 -0.14478266
-0.06594671 -0.012835049 0.0061225984 -0.06292531 -0.12043348 -0.02702862 -0.25370544 -0.16007099
-0.1460368 -0.13000174 -0.124186516 -0.060135476 -0.055885177 0.0056296377 -0.025464244 0.031613223
0.06872371 0.01129197 0.030820455 0.03654627 0.02791781 -0.08444971 -0.0013385208 0.07820809
0.23627739 0.058176383 0.20683426 0.14642471 0.13605936 -0.0016069368 0.17190504 0.13953564
0.15253823 0.019796086 0.105286434 0.3044888 0.09836101 0.30837932 0.26199424 0.27405486
0.17427792 0.06100844 0.046769522 -0.15890752 -0.093085974 -0.44183853 0.040175635 -0.08157372
-0.037395738 -0.025166076 0.037884504 -0.049648747 -0.039184902 -0.056063958 0.08535504 -0.04641473
-0.0055764164 0.0964533 -0.034238163 -0.0052474327 -0.15091778 -0.10146487 0.031283528 0.02090685
0.12126073 -0.040008564 -0.064505555 -0.07418694 -0.090797454 0.0073655928 0.06899494 -0.06355908
-0.028182453 0.13292176 0.18324822 0.2423595 0.010941769 0.005465563 0.010789977 -0.13644525
00000000: 6279 d8bc e5ca f2bc 9cd0 173d f0f0 9abb
00000010: 2a7f 8abd 5cd2 45bd 6004 d1bd e62d 003d
00000020: d07c 9bbd a8a5 80bd 1685 55bd c4e6 57bc
00000030: 62ca 2c3c 44f1 71bd cbc8 41bd adb1 f43d
00000040: 4e5d 543e 5c96 3d3e 5966 0e3e 3c3a b53d
00000050: e000 003d c5df e0bd 4f98 35bd ac4f 13bc
00000060: 0fb4 c4bd e0f1 e7bd 531e cebd f3cd 0cbe
00000070: 67be 2cbe 5cda 94bd affd b33d 49bf 58bc
00000080: 1642 a0bd 61da 983c 6395 663d 9be8 9cbe
00000090: 5420 3cbe f149 edbd 9f6e a5bd c04d 16be
000000a0: 85f0 b2bd 46ba c9bd 7112 ae3c b920 003b
000000b0: 7a01 103e 7e84 143e c8d0 da3d 5422 df3d
000000c0: e782 ca3d 2101 04be a795 dfbd 3364 f6bc
000000d0: 5b1d f3bc dd37 00be c65f d0bd 45e2 45be
000000e0: 4d7d 0fbd 2b57 8fbd f1fd 303c 49a8 4abd
000000f0: 198e 02bd c750 0cbd 34ba c9bd cbe9 05be
00000100: 7a6e 3e3e 21c8 8c3e 798f 8b3e 6914 873e
00000110: 8c12 193e f874 bd3d e92c 52be b41f a2bd
00000120: 45bd 4a3d 5c69 493d 3e0c cfbc cfdc 003d
00000130: 7162 44bb 87d8 f2bc da37 163d c3ca 563d
00000140: 4a9a be3c 5f47 45bd 42b2 783c 78f4 a7bc
00000150: 1caf d0be 09c9 22be b2ed 07be 2e69 93bd
00000160: de77 8bbd f592 b8bd 1e34 bcbd cbbb 4ebe
00000170: f6de d9bd 79b1 abbc 7298 d93b 8649 753c
00000180: e57c 173d 8524 01bc 3103 9d3d 6343 703b
00000190: e1d6 f43c b616 993d c0e5 8cbc f60c 493c
000001a0: 6d8f 2d3e d978 eabd 1e62 38be a340 5dbd
000001b0: f1d2 ee3d 2932 0cbe ae40 81bc abe7 d63c
000001c0: 7693 19be ecdd c4bd 2d08 c8bc e8a7 20be
000001d0: c0e4 4dbe 0903 73be 67c4 f1bd ac02 133d
000001e0: 1a8e 183e a9ae 323e a219 e4bc 436c 4abe
000001f0: a547 993c 3414 6bbd 2ffe 103e bd4b 163e
00000200: df19 523e 2bbe c4bc 38cb 8b3d cdc8 563b
00000210: 52cb 183e 873d a4bc 8493 ccbc fcac 803e
00000220: 7d03 c3bc 1426 2d3e c5da dc3d 041c bf3d
00000230: 2c62 c8bc 3286 48be b35d 783c a42c 1cbd
00000240: 1bb2 6cbe f609 68be 40b8 2cbe 6e60 253c
00000250: 21b2 b3bd 73ee 25bd 0d47 d5bd 56a8 2abe
00000260: 8158 efbd 421b a1bd 1064 8f3c 610e cfbd
00000270: 806e 2fbd b927 eabd 4ecc a8bd a83a 7cbd
00000280: 895a 44bd 7f3e 3dbd b703 d23d 7ca5 423e
00000290: 23e8 333e 1158 123e 0a4d d93d 0941 fa3d
000002a0: b777 d3bd 03a6 0dbd 6b46 21bd 00e6 e5bd
000002b0: 2b54 e8bd 36f5 aebd 8c71 f9bd e841 14be
000002c0: 120f 87bd 194a 52bc 14a0 c83b fcde 80bd
000002d0: d4a5 f6bd 206b ddbc aee5 81be a6e9 23be
000002e0: ac8a 15be 2d1f 05be 8055 febd 9e50 76bd
000002f0: dbe7 64bd d378 b83b 649a d0bc de7c 013d
00000300: 04bf 8c3d f401 393c 2e7b fc3c 8bb1 153d
00000310: e4b3 e43c f8f3 acbd 4e71 afba 902b a03d
00000320: b3f2 713e 5c4a 6e3d 5ccc 533e 5cf0 153e
00000330: 2553 0b3e da9f d2ba e007 303e 6ee2 0e3e
00000340: fb32 1c3e 672b a23c 6aa0 d73d f5e5 9b3e
00000350: 7f71 c93d e5e3 9d3e 1c24 863e eb50 8c3e
00000360: e975 323e fce3 793d 6691 3f3d a7b8 22be
00000370: dca3 bebd a938 e2be 358f 243d 1f10 a7bd
00000380: 462c 19bd 1629 cebc c82c 1b3d 7c5c 4bbd
00000390: 5980 20bd 52a3 65bd a0ce ae3d 5f1d 3ebd
000003a0: 5fba b6bb 4f89 c53d 513d 0cbd a8f2 abbb
000003b0: 318a 1abe d0cc cfbd 2823 003d d844 ab3c
000003c0: 8c57 f83d 05e0 23bd 7d1b 84bd 53ef 97bd
000003d0: 04f4 b9bd 125b f13b 384d 8d3d 432b 82bd
000003e0: e3de e6bc a41c 083e 6ca5 3b3e 172d 783e
000003f0: 1b45 333c 7718 b33b 72c8 303c 4eb8 0bbe

conv2.bias f4 [64]
-0.009657356 -0.0034219197 -0.00096412253 -0.0028289752 0.0023552394 0.00085268443 -0.007305393 0.00065416185
-0.012868235 -0.0005008686 0.0056488956 0.00021593507 0.00033428537 0.0029289732 -0.0006736068 -0.004268301
0.0018521198 -0.018229576 0.005840377 0.0074378075 -0.019829968 0.00051185983 -0.0020181655 0.0014397054
-0.0072904746 0.00035373744 0.0015158928 -0.0002809379 -0.0018009996 0.0056483513 -0.005860894 0.0005025362
-0.0108389165 0.0002630459 -0.0006197413 -0.0009909205 0.00066809455 0.004719166 -0.01353393 0.0009042449
-0.0041552125 0.00046761485 -0.0036314137 0.0021033757 0.0015351895 0.002267482 0.009071175 -0.0052855173
5.834503e-05 0.0027562769 0.008714628 0.0040255683 -0.01359626 -0.00023732279 -0.0013698814 -0.0013258158
0.006687619 0.0045888033 0.0013440079 0.0033064678 -0.0035464314 -0.015591434 -0.0016064374 -0.0071373177
00000000: e339 1ebc 4942 60bb 2bbd 7cba 5466 39bb
00000010: 5c5a 1a3b af86 5f3a 1462 efbb 0f7c 2b3a
00000020: 4ad5 52bc b94c 03ba 5f1a b93b a16c 6239
00000030: 0643 af39 04f4 3f3b fd94 30ba 1bdd 8bbb
00000040: d4c2 f23a 3156 95bc a260 bf3b dab8 f33b
00000050: 7572 a2bc 552e 063a 3343 04bb 7fb4 bc3a
00000060: efe4 eebb d675 b939 ecb0 c63a d94a 93b9
00000070: 850f ecba ce15 b93b be0c c0bb a2bc 033a
00000080: b695 31bc 6ce9 8939 2276 22ba c6e1 81ba
00000090: 1123 2f3a 3ca3 9a3b 6bbd 5dbc d90a 6d3a
000000a0: 7328 88bb 342a f539 03fd 6dbb cad8 093b
000000b0: 6938 c93a 099a 143b 449f 143c 2232 adbb
000000c0: 80b7 7438 a7a2 343b cdc7 0e3c eae8 833b
000000d0: d9c2 5ebc dad9 78b9 988d b3ba ffc6 adba
000000e0: d023 db3b ac5d 963b 6c29 b03a 53b1 583b
000000f0: 3f6b 68bb 3773 7fbc 188f d2ba 29e0 e9bb

bn2.weight f4 [64]
1.1662713 1.3999014 1.3710642 1.2512664 1.2998991 1.4151589 1.3448011 1.5438148
1.4398772 1.3177453 1.2648163 1.0940213 1.3690658 1.6789812 1.205899 1.1353565
1.6459756 1.5703337 1.0404414 1.3581606 1.7017224 1.2057809 1.2094218 1.3662219
1.3489312 1.0605146 1.0537945 1.5690212 1.217338 1.2057403 1.9168644 1.2702321
1.8163077 1.5483187 1.3852407 0.88812107 1.0505742 1.575923 1.3906877 1.5643083
1.3659008 1.2017621 1.340117 1.3360577 1.2227958 0.90851647 1.3891493 1.5215288
1.4467273 1.2413669 1.5936381 1.1173074 1.4970903 1.7396551 1.7149862 1.3113691
1.3980179 1.3142813 0.9975107 1.400225 1.059727 1.5687387 1.394552 0.93140996
00000000: 6148 953f f82f b33f 087f af3f 7f29 a03f
00000010: 1863 a63f ed23 b53f 7122 ac3f b99b c53f
00000020: e54d b83f e1ab a83f 80e5 a13f e408 8c3f
00000030: 8c3d af3f dbe8 d63f e65a 9a3f 5d53 913f
00000040: 54af d23f b200 c93f 2f2d 853f 35d8 ad3f
00000050: 0ad2 d93f 0757 9a3f 55ce 9a3f 5ce0 ae3f
00000060: c7a9 ac3f f1be 873f bde2 863f b0d5 c83f
00000070: bbd1 9b3f b355 9a3f d05b f53f f796 a23f
00000080: c57c e83f 4f2f c63f 914f b13f e75b 633f
00000090: 3779 863f d8b7 c93f 0e02 b23f 413b c83f
000000a0: d6d5 ae3f 57d3 993f f488 ab3f f003 ab3f
000000b0: 9384 9c3f 8994 683f a5cf b13f 75c1 c23f
000000c0: 5c2e b93f 1ce5 9e3f 55fc cb3f ee03 8f3f
000000d0: a8a0 bf3f 05ad de3f ab84 db3f f1da a73f
000000e0: 40f2 b23f 5f3a a83f dc5c 7f3f 933a b33f
000000f0: 22a5 873f 6ecc c83f ae80 b23f e270 6e3f

bn2.bias f4 [64]
-0.4457346 -0.39793903 -0.43412313 -0.4449429 -0.4959138 -0.52897996 -0.51694906 -0.43378016
-0.72454613 -0.72665924 -0.7181919 -0.6745719 -0.8749994 -0.92860353 -0.9969947 -0.5961686
-0.7150382 -0.5542163 -0.7659688 -0.8207234 -1.0057795 -0.71919703 -0.43764624 -0.94070166
-0.6081264 -0.84591675 -0.7755985 -0.7263344 -0.77685493 -0.6045138 -0.69831026 -0.6226332
-0.66336286 -0.9278863 -0.54017556 -0.7340092 -0.71280175 -0.66385835 -0.76451635 -0.67982966
-0.71553147 -0.50518966 -0.77611446 -0.91072446 -1.0713431 -0.7564322 -0.5503891 -0.873237
-0.5061004 -0.65086395 -0.66112757 -0.7211038 -0.72338784 -0.55251807 -0.44606394 -0.74734014
-0.6626267 -0.71796745 -0.852728 -0.57436305 -0.6130561 -1.0981611 -0.482026 -1.272926
00000000: 5337 e4be aabe cbbe 6345 debe 8ecf e3be
00000010: 6ae8 fdbe 3b6b 07bf c656 04bf 6f18 debe
00000020: db7b 39bf 5706 3abf 6ddb 37bf beb0 2cbf
00000030: f6ff 5fbf f6b8 6dbf 0b3b 7fbf 819e 18bf
00000040: be0c 37bf 1fe1 0dbf 8816 44bf ee1a 52bf
00000050: 62bd 80bf 4c1d 38bf 2b13 e0be d3d1 70bf
00000060: 2cae 1bbf 008e 58bf a08d 46bf 0df1 39bf
00000070: f7df 46bf 6bc1 1abf 76c4 32bf e464 1fbf
00000080: 26d2 29bf f589 6dbf f248 0abf 07e8 3bbf
00000090: 2d7a 36bf 9ff2 29bf 58b7 43bf 5109 2ebf
000000a0: 122d 37bf 1c54 01bf 70af 46bf 3d25 69bf
000000b0: c521 89bf 8aa5 41bf 4de6 0cbf 768c 5fbf
000000c0: cc8f 01bf 059f 26bf a83f 29bf 429a 38bf
000000d0: f22f 39bf d371 0dbf 7e62 e4be af51 3fbf
000000e0: e7a1 29bf b7cc 37bf 624c 5abf 7509 13bf
000000f0: 3ff1 1cbf 8b90 8cbf 1dcc f6be 3def a2bf

bn2.running_mean f4 [64]
-0.94725835 -6.1254554 -8.433026 -0.822882 -4.5762467 -0.99685425 -4.8711343 -10.829947
-0.9600335 -4.940483 -5.963751 -3.7764096 -4.7735925 -3.661813 -1.5769786 -3.2873905
-6.321404 -2.4430406 -1.7139047 -6.3096747 -2.1414883 -4.1088 0.24495828 -2.9899313
-4.073292 -1.3565302 -4.552343 -4.9056935 -2.377867 -2.7702324 -1.8677428 -3.7146952
-0.07801333 -5.907969 -8.228441 -2.8892877 -6.380899 -1.3082874 -3.6220949 -1.479416
-6.8700347 -10.634477 -8.1564865 -3.379388 -1.3201765 1.8934181 -3.640349 -4.0021443
-8.84591 -0.97563046 -4.8932433 -4.4142003 -7.4795957 -7.5464354 -8.080594 -4.3269596
-7.681729 -1.8415865 -8.411407 -3.2401106 -4.870272 -3.9897423 -3.1676512 -11.800742
00000000: 867f 72bf bb03 c4c0 aded 06c1 65a8 52bf
00000010: 9d70 92c0 d731 7fbf 55e0 9bc0 7747 2dc1
00000020: c1c4 75bf 7018 9ec0 0cd7 bec0 b2b0 71c0
00000030: 45c1 98c0 255b 6ac0 6fda c9bf 9b64 52c0
00000040: f148 cac0 c75a 1cc0 3b61 dbbf dbe8 c9c0
00000050: 250e 09c0 4a7b 83c0 58d6 7a3e 095b 3fc0
00000060: 6858 82c0 c8a2 adbf cbac 91c0 71fb 9cc0
00000070: f92e 18c0 7d4b 31c0 3212 efbf 91bd 6dc0
00000080: 74c5 9fbd 150e bdc0 b2a7 03c1 17ea 38c0
00000090: 5330 ccc0 f675 a7bf 67d0 67c0 815d bdbf
000000a0: 53d7 dbc0 d126 2ac1 f880 02c1 e547 58c0
000000b0: 8bfb a8bf 865b f23f 7afb 68c0 9111 80c0
000000c0: d988 0dc1 ebc2 79bf 7395 9cc0 2141 8dc0
000000d0: d958 efc0 667c f1c0 1d4a 01c1 7476 8ac0
000000e0: b9d0 f5c0 1bb9 ebbf 2095 06c1 f95d 4fc0
000000f0: 45d9 9bc0 f057 7fc0 ccba 4ac0 d7cf 3cc1

bn2.running_var f4 [64]
20.512726 66.18494 85.1136 38.8367 40.252975 13.491183 22.553976 45.14495
17.400682 35.156998 25.727976 29.27714 16.918745 22.739838 35.412888 26.142916
49.18089 10.129587 25.709034 38.023537 13.479404 15.869866 29.94531 11.853662
18.993042 42.579655 34.894764 27.828196 17.844744 18.84111 14.5955515 18.18097
23.241241 27.213257 50.55041 36.526566 28.794064 18.901247 18.054375 37.698517
27.924345 84.22263 50.530838 14.3189335 12.792182 41.04873 19.155935 26.665655
61.94944 34.528446 19.304237 31.93114 38.141884 39.23684 78.001114 45.98469
30.451271 17.295446 32.135395 14.335383 30.896816 27.446957 13.377072 46.641563
00000000: 101a a441 b05e 8442 2a3a aa42 c858 1b42
00000010: 0c03 2142 e3db 5741 8b6e b441 6e94 3442
00000020: 9934 8b41 c4a0 0c42 e5d2 cd41 9537 ea41
00000030: 9759 8741 30eb b541 cca6 0d42 b124 d141
00000040: 3bb9 4442 ca12 2241 1aac cd41 1a18 1842
00000050: a4ab 5741 f9ea 7d41 ff8f ef41 99a8 3d41
00000060: c0f1 9741 9151 2a42 3d94 0b42 25a0 de41
00000070: 09c2 8e41 98ba 9641 6187 6941 a072 9141
00000080: 10ee b941 c0b4 d941 9f33 4a42 341b 1242
00000090: 3e5a e641 c135 9741 5c6f 9041 48cb 1642
000000a0: 0f65 df41 fd71 a842 941f 4a42 5a1a 6541
000000b0: c7ac 4c41 e631 2442 5b3f 9941 4353 d541
000000c0: 3acc 7742 211d 0a42 146f 9a41 fa72 ff41
000000d0: 4a91 1842 86f2 1c42 9200 9c42 53f0 3742
000000e0: 349c f341 135d 8a41 a58a 0042 bb5d 6541
000000f0: ae2c f741 5e93 db41 7d08 5641 f690 3a42
