results/mfdwc-grl/a-b/latest_CL_a-b.pth (torch, 109465 bytes, 4 tensors)

fc1.weight f4 [100, 256]
-0.08693451 -0.0026023064 0.16645364 0.13332506 0.011460296 -0.11044424 -0.05931115 0.2616028
0.016125139 -0.071564935 0.0294109 0.09498406 -0.49540055 0.09003777 0.09385309 0.020053612
-0.106258854 0.10913997 -0.16930018 0.05478124 -0.0032734482 -0.041807473 0.27063137 -0.22234273
0.07187253 -0.24477154 -0.07994807 0.19521691 0.06780528 -0.2019415 -0.15004069 0.12640464
-0.41956863 -0.029020578 0.5107273 -0.20022835 -0.100528024 0.033197217 -0.2173513 0.16672567
-0.037082873 -0.23934376 0.24718305 -0.22887631 -0.28348827 0.03803097 -0.1193994 0.32438716
0.0015293334 0.09313683 -0.10446469 0.025850171 0.041536592 0.017406676 -0.16005743 0.30436513
-0.013248033 0.027244074 0.09484388 -0.0663039 -0.06981347 0.13464166 -0.20747286 0.2812419
0.1378953 -0.17018273 0.12184618 -0.028236145 -0.082461596 -0.028645482 0.054827027 -0.02747026
0.0015087256 -0.072766006 0.0024781507 0.2717103 -0.427074 0.1934497 -0.6094541 0.37950796
-0.011530872 0.103245035 0.2616389 -0.31654912 0.13587436 -0.01529664 0.14771132 -0.22209261
0.061207365 -0.042257193 -0.07662453 0.10056599 -0.027492166 -0.0173068 -0.050127022 0.046911046
-0.09380271 -0.0493855 0.0011760136 0.01264559 -0.17995685 0.12926319 0.0991681 -0.034049857
-0.12654614 0.048385486 0.07304546 0.39771083 -0.014692075 0.029558064 -0.08885873 0.0127843395
-0.1294258 0.088378035 0.3593217 -0.29036242 -0.14064106 0.23061785 -0.16750093 0.12456524
-0.05291216 -0.09960589 0.06033124 0.21620639 -0.21333654 0.12548107 -0.32396606 0.2697295
0.13422902 -0.12835854 0.057190266 0.22157498 -0.02109113 -0.052927244 0.06894023 -0.110262595
0.06865352 -0.013214699 -0.27826798 0.09214775 0.1978958 0.03143399 -0.043584064 0.023709772
0.081917256 0.22003506 -0.27191177 0.24651001 0.040456153 0.052631833 0.029106798 0.01238951
0.01828014 0.18263057 -0.23556231 0.28243062 0.030016653 -0.12165085 0.013175099 0.1461665
-0.04925093 -0.05569242 0.13826145 0.019571155 -0.0075308126 0.05758714 0.047214877 -0.021207282
0.04928066 -0.022993142 -0.14059217 0.024246328 -0.12296661 -0.027439171 0.28364375 0.10026703
-0.06949934 0.086391374 0.030390026 0.023999713 -0.22482474 0.026041951 0.1470086 -0.11548701
-0.20845065 0.1535703 -0.29449204 0.42556944 -0.39804333 0.10169392 0.48171932 -0.44921252
0.085103914 -0.38979852 0.15876885 -0.0051852087 0.1450177 -0.22004594 0.008689416 -0.027654579
0.02850281 -0.233752 0.21921702 -0.06502701 -0.14767453 -0.09261545 0.16397996 0.09678368
-0.13821822 0.10172831 0.3049161 -0.1254579 0.08008185 -0.08528553 -0.08653277 0.14210506
0.16688465 -0.07587532 -0.069616936 -0.0228151 -0.33486402 -0.02575215 0.39179838 -0.092597336
-0.012280332 -0.00014720269 -0.21525845 0.11265517 -0.07024876 -0.023617072 0.27622506 0.08876753
-0.062168628 0.15955848 -0.3389282 0.21871738 0.09159087 0.078357734 0.024450678 -0.05164084
-0.32445228 0.14397149 -0.03692972 0.010520493 0.08057461 -0.17589507 0.38020244 -0.45646548
-0.0074933222 -0.0051508565 0.27247337 -0.21120879 -0.0017365562 0.08206593 0.11132569 0.58142036
00000000: b80a b2bd 758b 2abb d372 2a3e 5d86 083e
00000010: f7c3 3b3c 9730 e2bd 40f0 72bd cdf0 853e
00000020: de18 843c a390 92bd 21ef f03c 0187 c23d
00000030: 24a5 fdbe b965 b83d 0d36 c03d 7947 a43c
00000040: 3e9e d9bd c784 df3d 075d 2dbe 4b62 603d
00000050: 5987 56bb 503e 2bbd 3290 8a3e d0ad 63be
00000060: e831 933d 64a5 7abe d0bb a3bd f1e6 473e
00000070: 7fdd 8a3d c1c9 4ebe 44a4 19be 3870 013e
00000080: b3d1 d6be 90bc edbc 06bf 023f a908 4dbe
00000090: a3e1 cdbd cef9 073d 5791 5ebe 22ba 2a3e
000000a0: 36e4 17bd 8816 75be 8e1d 7d3e 8d5e 6abe
000000b0: 6025 91be 5dc6 1b3d ac87 f4bd 1316 a63e
000000c0: ea73 c83a 86be be3d 95f1 d5bd bdc3 d33c
000000d0: 4622 2a3d 7298 8e3c 18e6 23be bfd5 9b3e
000000e0: 470e 59bc f72e df3c 823d c23d 57ca 87bd
000000f0: 5dfa 8ebd 81df 093e c473 54be f0fe 8f3e
00000100: 6d34 0d3e 6244 2ebe 7d8a f93d 7d4f e7bc
00000110: a0e1 a8bd eea9 eabc 4e92 603d 5009 e1bc
00000120: 6ec0 c53a 5806 95bd 7868 223b 9d1d 8b3e
00000130: 71a9 dabe ae17 463e 2f05 1cbf de4e c23e
00000140: fceb 3cbc 2272 d33d 89f5 853e ba12 a2be
00000150: a622 0b3e c29e 7abc a341 173e 3f6c 63be
00000160: 93b4 7a3d e115 2dbd 52ed 9cbd 8bf5 cd3d
00000170: 4037 e1bc fdc6 8dbc fe51 4dbd cc25 403d
00000180: a31b c0bd 7348 4abd 7824 9a3a 732f 4f3c
00000190: 9c46 38be 925d 043e a518 cb3d dd77 0bbd
000001a0: 5095 01be dc2f 463d dc98 953d c1a0 cb3e
000001b0: 07b7 70bc c123 f23c 91fb b5bd 6875 513c
000001c0: 3288 04be 8bff b43d 04f9 b73e 62aa 94be
000001d0: 3604 10be 1627 6c3e 5d85 2bbe 101c ff3d
000001e0: 6cba 58bd 2cfe cbbd e41d 773d 3565 5d3e
000001f0: e574 5abe 1c7e 003e e1de a5be fc19 8a3e
00000200: 5573 093e 6c70 03be 5740 6a3d 8de4 623e
00000210: 4ec7 acbc 3dca 58bd 8930 8d3d 5bd1 e1bd
00000220: 379a 8c3d 7782 58bc 2479 8ebe f6b7 bc3d
00000230: 32a5 4a3e edc0 003d 3485 32bd ff3a c23c
00000240: 3cc4 a73d df50 613e 0538 8bbe 1f6d 7c3e
00000250: 5ab5 253d 7a94 573d 6171 ee3c 5ffd 4a3c
00000260: 3bc0 953c 8203 3b3e 3f37 71be bf9a 903e
00000270: 7ce5 f53c 1524 f9bd 5fdc 573c acac 153e
00000280: 58bb 49bd bc1d 64bd 6994 0d3e b053 a03c
00000290: 09c5 f6bb 7ee0 6b3d 6364 413d e5ba adbc
000002a0: 84da 493d 1d5c bcbc 65f7 0fbe 3ca0 c63c
000002b0: ebd5 fbbd 1dc8 e0bc c139 913e cd58 cd3d
000002c0: ac55 8ebd f6ed b03d 81f4 f83c 0c9b c43c
000002d0: 7538 66be ee55 d53c 6c89 163e 7484 ecbd
000002e0: 1674 55be 8841 1d3e a9c7 96be 3de4 d93e
000002f0: 56cc cbbe e744 d03d eaa3 f63e 2fff e5be
00000300: f64a ae3d ac93 c7be 4d94 223e afe8 a9bb
00000310: 857f 143e b953 61be 0d5e 0e3c db8b e2bc
00000320: ba7e e93c af5c 6fbe 6d7a 603e e22c 85bd
00000330: fe37 17be 2bad bdbd 5dea 273e 8636 c63d
00000340: 1489 0dbe ef56 d03d f71d 9c3e 0978 00be
00000350: f401 a43d 2eaa aebd 1838 b1bd fd83 113e
00000360: cfe3 2a3e 8564 9bbd 5393 8ebd bce6 babc
00000370: 4c73 abbe 2cf6 d2bc cc99 c83e aca3 bdbd
00000380: 7233 49bc 6c5a 1ab9 b66c 5cbe c1b7 e63d
00000390: 95de 8fbd 9778 c1bc 5f6d 8d3e c0cb b53d
000003a0: 88a4 7ebd 4c63 233e ff87 adbe 73f7 5f3e
000003b0: fe93 bb3d 057a a03d ca4c c83c 5885 53bd
000003c0: 9c1e a6be 436d 133e 9e43 17bd 255e 2c3c
000003d0: 4d04 a53d d61d 34be e5a9 c23e d8b5 e9be
000003e0: 8b8a f5bb 84c8 a8bb a181 8b3e 1e47 58be
000003f0: 289d e3ba 2f12 a83d b9fe e33d f7d7 143f

fc1.bias f4 [100]
0.10423563 -0.022807496 0.36095214 0.0015895858 -0.06069853 0.14555193 0.13247822 -0.016565932
0.20735756 0.17088541 -0.2805945 -0.2647412 -0.033098757 -0.015631907 -0.08742962 0.23267029
0.3749577 -0.04096287 0.04602052 0.26755252 -0.029677786 0.041912638 -0.11936691 0.3386016
-0.10391102 -0.008579252 -0.024209417 -0.21758054 0.10237348 0.072329335 -0.03820664 -0.077327445
-0.06755977 -0.018530374 -0.18244453 0.2373516 0.18357955 -0.11460382 0.17506534 -0.016767714
-0.15625241 -0.10857183 -0.25218445 -0.038487934 -0.025094057 -0.11520685 -0.04467776 -0.027239127
-0.13269636 -0.017612685 -0.18651594 -0.21828626 -0.04021524 0.013207696 0.09447918 -0.09637293
0.11663992 -0.018587383 -0.04706514 0.09398973 0.039078224 0.0752995 -0.010094024 -0.12620725
-0.11486509 0.213609 -0.25718716 -0.124730006 -0.039337754 -0.032147966 -0.040239714 0.24585457
-0.029971404 -0.18893577 0.050539795 -0.024398698 0.123127386 -0.005046237 0.21817048 0.020253807
0.17099716 0.01891243 0.09821981 0.043210093 0.040279154 -0.027836755 -0.15952745 -0.011407083
0.0057801935 0.20407997 -0.039676506 -0.23981535 -0.11489668 -0.016850755 -0.023662847 -0.053501952
-0.046664365 0.15809202 0.0949054 0.118088
00000000: 7d79 d53d c9d6 babc b8ce b83e a659 d03a
00000010: 069f 78bd 910b 153e 5fa8 073e 47b5 87bc
00000020: 8a55 543e 96fc 2e3e 15aa 8fbe 298c 87be
00000030: 9092 07bd 7c0e 80bc 4d0e b3bd 1f41 6e3e
00000040: 75fa bf3e afc8 27bd 0380 3c3d a5fc 883e
00000050: d41e f3bc 96ac 2b3d a376 f4bd 305d ad3e
00000060: 4dcf d4bd fe8f 0cbc d452 c6bc 6fcd 5ebe
00000070: 30a9 d13d 6721 943d 917e 1cbd da5d 9ebd
00000080: c75c 8abd 03cd 97bc bdd2 3abe 4c0c 733e
00000090: 47fc 3b3e 68b5 eabd 5444 333e 725c 89bc
000000a0: a200 20be e85a debd 521e 81be 86a5 1dbd
000000b0: 0d92 cdbc 92f1 ebbd 0700 37bd 9724 dfbc
000000c0: 8ee1 07be 7a48 90bc 09fe 3ebe 6f86 5fbe
000000d0: bcb8 24bd 1865 583c 4d7e c13d 2c5f c5bd
000000e0: e9e0 ee3d 9144 98bc 60c7 40bd b07d c03d
000000f0: 7d10 203d a036 9a3d 6861 25bc 793c 01be
00000100: 633e ebbd 51bc 5a3e 09ae 83be 7272 ffbd
00000110: a020 21bd 96ad 03bd 66d2 24bd 4dc1 7b3e
00000120: 9786 f5bc 6178 41be d102 4f3d c7df c7bc
00000130: 362a fc3d e75a a5bb 1568 5f3e 50eb a53c
00000140: e119 2f3e 3eee 9a3c 7827 c93d 11fd 303d
00000150: c1fb 243d e809 e4bc 2a5b 23be c6e4 3abc
00000160: c767 bd3b 57fa 503e d583 22bd 2892 75be
00000170: f34e ebbd 980a 8abc 96d8 c1bc dd24 5bbd
00000180: 2223 3fbd e0e2 213e c35d c23d 1fd8 f13d

fc2.weight f4 [10, 100]
0.14728084 -0.08710086 0.19344725 -0.2610625 0.045863997 0.22591183 0.1623777 -0.10126048
0.09599674 0.12543963 -0.7795942 -0.7727347 -0.05427838 -0.3237977 -0.5031673 0.07001948
0.15827508 0.28772056 0.2874301 0.106073394 -0.3324045 0.073016025 0.27961138 0.1487899
-0.33287722 -0.5295915 -0.05863615 -0.52218884 0.057764973 -0.3311033 -0.19053143 0.03202242
0.19161916 0.14303593 -0.5973025 0.07502161 0.13940433 0.21183313 0.018571418 -0.30242094
-0.36207408 -0.07686052 -0.27715462 -0.41731092 0.026039695 -0.5718481 0.07468127 -0.055172708
-0.9356819 0.23073725 -0.4237004 -0.46339428 0.052852284 -0.36370078 0.12965085 -0.13440068
0.15049644 0.00854025 -0.026497083 -0.379909 0.17421992 0.14748418 -0.38042217 -1.0288692
-0.27042535 0.19693105 -0.54739815 -0.70847625 0.061311502 0.06838531 -0.30399814 0.1836217
-0.00045233208 -0.7748086 0.12856302 -0.044822127 -0.1163245 -0.57708114 0.09666454 -0.11628821
0.09669998 0.10183362 0.112758406 0.17573805 -0.3300455 -0.10336329 -0.14882815 -0.004461396
0.01583707 0.2504254 0.0019445708 -0.43255526 -0.93934274 -0.22611435 -0.05543093 -0.76500994
-0.094761185 0.16195144 0.2770472 0.15864421 -0.24884678 -0.0705193 0.1969914 -0.5859484
-0.054168623 0.2537381 0.20342602 0.06528693 -0.10674539 0.116576456 -0.76754105 -0.60502666
-0.009715706 -0.10908832 0.24215303 0.06480124 0.115424804 0.32468754 -0.074201755 0.13062236
-0.8110586 -0.25560454 -0.17874813 0.16724803 -0.6121511 0.19439948 -0.031156829 -0.46442652
0.0034015602 -0.118118025 -0.704577 -0.05858899 0.21989022 -0.0472532 -0.10315071 0.18161501
0.14410296 -0.34081545 0.02795714 -0.11156178 -0.17350915 -0.3217421 -0.3859673 0.19527322
0.12419411 0.05500554 -0.041600876 -0.036858086 -0.68035537 0.2277942 -0.39433312 -0.592319
0.01715518 -0.08551993 -0.6257129 -0.6005527 0.1536821 -0.06393547 0.07873656 0.3554227
0.06346202 -0.36715218 0.12678398 0.14067073 -0.60917765 0.14797953 -0.30446744 0.28671706
0.06948671 0.020883346 -0.4017908 0.21211807 -0.008176392 0.018981313 -0.5759762 -0.043718364
0.08934925 -0.36028057 0.13584277 -1.1680397 0.16658384 -0.16386396 -0.5609716 0.19857335
-0.13021393 0.049715076 -0.21394013 -0.015852964 -0.5281574 0.2503814 -0.023258265 -0.49437356
-0.8578636 -0.41902354 0.01655501 -0.85542274 -0.39320126 0.13270225 -0.2420647 0.124818884
-0.006262417 -0.09282339 -0.14472808 -0.24329175 0.11075184 -0.35629418 -0.37060654 -0.100128815
0.20437154 -0.14922507 0.048797414 0.09459083 0.09113069 0.12982821 -0.13300298 0.1239911
-0.24288851 0.13919494 0.07346758 -0.82306033 0.14484435 0.10300563 -0.113583185 -0.44618884
0.24680887 0.27523464 0.09027958 -0.3207512 -0.13724147 0.74978137 0.08818921 -0.13472787
0.27300993 0.07848497 -0.04785641 -0.6785002 0.025816303 0.35808486 -0.5915334 -0.25261274
0.034444302 -0.72325087 0.25991568 0.19266331 -0.005281789 0.16083014 0.052128665 -0.07622205
0.1058921 -0.22483954 0.46472776 0.35528022 -0.015719902 -0.13395438 -0.0122226225 0.22134256
00000000: cad0 163e f061 b2bd 0917 463e fca9 85be
00000010: e3db 3b3d 6e55 673e 5746 263e a861 cfbd
00000020: f099 c43d 3f73 003e 7c93 47bf f1d1 45bf
00000030: 0253 5ebd d0c8 a5be 92cf 00bf 6066 8f3d
00000040: dd12 223e 1c50 933e 0a2a 933e 023d d93d
00000050: ec30 aabe 6d89 953d 3929 8f3e 615c 183e
00000060: e26e aabe 4f93 07bf 762c 70bd 2bae 05bf
00000070: f79a 6c3d 5f86 a9be ac1a 43be f129 033d
00000080: d037 443e 0378 123e d1e8 18bf eea4 993d
00000090: 02c0 0e3e c9ea 583e 1623 983c ebd6 9abe
000000a0: c661 b9be 0c69 9dbd 36e7 8dbe c7a9 d5be
000000b0: 3351 d53c a364 12bf 7ef2 983d c7fc 61bd
000000c0: d988 6fbf 6346 6c3e 42ef d8be 0442 edbe
000000d0: a37b 583d fd36 babe 31c3 043e 55a0 09be
000000e0: bd1b 1a3e 68ec 0b3c 6910 d9bc 6f83 c2be
000000f0: b566 323e 1806 173e b2c6 c2be fcb1 83bf
00000100: 3175 8abe 4ba8 493e 4922 0cbf b35e 35bf
00000110: c521 7b3d 990d 8c3d a5a5 9bbe 5407 3c3e
00000120: fc26 edb9 db59 46bf 06a6 033e 6897 37bd
00000130: 8a3b eebd 97bb 13bf 0ff8 c53d 8328 eebd
00000140: a40a c63d 258e d03d e1ed e63d adf4 333e
00000150: b9fb a8be 22b0 d3bd 6866 18be e730 92bb
00000160: bebc 813c c237 803e f8e0 fe3a e277 ddbe
00000170: c478 70bf 858a 67be 8b0b 63bd b1d7 43bf
00000180: 2712 c2bd 99d6 253e 21d9 8d3e a173 223e
00000190: b1d1 7ebe 6c6c 90bd 1db8 493e b700 16bf
000001a0: ebdf 5dbd f6e9 813e e94e 503e 27b5 853d
000001b0: 549d dabd a3bf ee3d 927d 44bf 07e3 1abf
000001c0: a02e 1fbc b269 dfbd f7f6 773e 83b6 843d
000001d0: d763 ec3d 723d a63e 17f7 97bd dec1 053e
000001e0: 89a1 4fbf 99de 82be c009 37be 1143 2b3e
000001f0: efb5 1cbf a810 473e 9b3c ffbc 50c9 edbe
00000200: b6ec 5e3b dde7 f1bd 295f 34bf 02fb 6fbd
00000210: e72a 613e 928c 41bd ae40 d3bd 49f9 393e
00000220: ba8f 133e 5d7f aebe 5f06 e53c 817a e4bd
00000230: 62ac 31be 61bb a4be 829d c5be b4f5 473e
00000240: 7b59 fe3d 7d4d 613d ae65 2abd 81f8 16bd
00000250: c52b 2ebf e242 693e 08e6 c9be 38a2 17bf
00000260: 0589 8c3c 1325 afbd b82e 20bf d2bd 19bf
00000270: d75e 1d3e 9af0 82bd a240 a13d f7f9 b53e
00000280: 60f8 813d 5ffb bbbe a9d3 013e fd0b 103e
00000290: 11f3 1bbf f287 173e 28e3 9bbe 94cc 923e
000002a0: 0c4f 8e3d 8d13 ab3c 86b7 cdbe 7b35 593e
000002b0: 46f6 05bc b37e 9b3c 2d73 13bf 0712 33bd
000002c0: bdfc b63d b276 b8be 5e1a 0b3e 5382 95bf
000002d0: f494 2a3e f4cb 27be d69b 0fbf d056 4b3e
000002e0: cd56 05be 09a2 4b3d 1f13 5bbe 13de 81bc
000002f0: 5335 07bf fe31 803e 1e88 bebc 881e fdbe
00000300: f39c 5bbf 418a d6be 5f9e 873c fcfc 5abf
00000310: ad51 c9be 19e3 073e cfdf 77be 0ba1 ff3d
00000320: f634 cdbb 311a bebd 9933 14be 7921 79be
00000330: dcd1 e23d 316c b6be 24c0 bdbe 5610 cdbd
00000340: c646 513e 75ce 18be ccdf 473d d6b8 c13d
00000350: baa2 ba3d b0f1 043e ef31 08be 0cef fd3d
00000360: c4b7 78be 1e89 0e3e 2c76 963d 15b4 52bf
00000370: 1452 143e 9ef4 d23d 4d9e e8bd dd72 e4be
00000380: 77bb 7c3e 8eeb 8c3e 80e4 b83d 8039 a4be
00000390: 0789 0cbe acf1 3f3f 8b9c b43d 1af6 09be
000003a0: f5c7 8b3e babc a03d 1505 44bd 30b2 2dbf
000003b0: b67c d33c e656 b73e bc6e 17bf 7556 81be
000003c0: 7815 0d3d f826 39bf ab13 853e 8849 453e
000003d0: dc12 adbb a8b0 243e de84 553d 4e1a 9cbd
000003e0: f5dd d83d 563c 66be ccf0 ed3e 4ae7 b53e
000003f0: 06c7 80bc 562b 09be 6541 48bc a0a7 623e

fc2.bias f4 [10]
0.09524342 0.15229727 -0.57380223 0.3629115 -0.36550242 -0.34195 0.30584618 0.24319433
-0.0442389 -0.043099847
00000000: fb0e c33d d1f3 1b3e b4e4 12bf 89cf b93e
00000010: 2223 bbbe 1214 afbe df97 9c3e ef07 793e
00000020: d933 35bd 7789 30bd
