integrated_mfdwc_cnn_dcase/results/CL_2025-12-18 07_45_22.315682.pth (torch, 109561 bytes, 4 tensors)

fc1.weight f4 [100, 256]
00000000: cf62 d83c 5b17 0a3e 9d3d 9fbd 16be 88bd
00000010: 98cc 333c 77e9 a83d 8417 f3bb 2bcc 19be
00000020: 85be 093f 38ef 91be 3f3a 48bd afeb 47be
00000030: f307 69be de48 3cbc b4d5 65bd 868f da3e
00000040: 34ff 833e a880 a03c 6d19 44bd f7df 73be
00000050: 449a 823e 6944 b83d d1ec 0ebd 1e0f 5dbe
00000060: 62ee 7c3d 9802 08bd ce74 8b3d 1f97 e5be
00000070: ca85 c9bd 7144 923d 3c26 c6bd 940a 353e
00000080: 8a93 fe3d 88c5 073b 8ee3 9cbe f4ff 053d
00000090: ab5b 1c3e 6e59 e7bb ca92 e5be c82b 06be
000000a0: 4fb3 ee3d d3f3 bcbc 2183 073d 8908 a73d
000000b0: 1f0f f43d 6aa0 a03a 9f3e 93be 4965 debe
000000c0: ed8d 03be 9d7c ab3e 4dd8 c3bd 4e54 0bbc
000000d0: 4182 0fbe e73f 273e c042 07be 5a31 903d
000000e0: 5064 893c ade8 ce3d 1fb7 2c3b c45c 4bbe
000000f0: 6ff0 54bc 9c65 0e3e aa0e 11be 1d32 4bbe
00000100: b6ee a9bd 2c45 853e af4e 83bd 24f0 2ebe
00000110: b806 8c3d 957a c83c 5825 1dbe 4bf6 9bbe
00000120: e347 2b3d a857 90bd 10bd 48be 0e40 523d
00000130: cd7f 643e 74fc 2b3e c6bd 42be 8cc8 b3bd
00000140: e8e0 57be 4ae3 8d3d 8b0e 863d e29f 52bd
00000150: 3c53 31be 5726 243d 1e3e bbbc 61ce 2cbe
00000160: cb43 143d 6df4 9e3d 9cbe 1b3c ec5c 79bd
00000170: 3725 a53e 63a6 c6bd ae5b ad3d 9ca4 2dbe
00000180: 19ba 1e3e 47d5 a3bd 4ed2 5c3e 9b50 3cbe
00000190: ac6c f33d ea62 b63d 9741 09be 3ed8 07bd
000001a0: fe07 88be 1444 5d3e 648b 19be 3644 d73e
000001b0: 8466 bdbd 7d3e 693d 57be a03d 8aec f4b9
000001c0: d420 be3d 1f97 093e 44ff 403d f94c 9dbe
000001d0: 9d20 37bd f2d1 1e3e 5fbd 9abd a70c b53c
000001e0: 1c1b 2d3d 5466 1abe 670b 1b3d 4e67 55be
000001f0: 4ad9 633d c953 513d 83a0 8bbd 26a0 a4be
00000200: 825a 163e c90e 84bc 7b2b 2e3d 1834 01bf
00000210: 5020 7e3e af30 babb b3b8 5e3c 9a48 8bbd
00000220: 288f 1d3e a564 a0bc d039 b8be 485d 763d
00000230: 0624 533d 7513 213e 9b41 a6bd 0161 2dbe
00000240: 586f 93bd f19b 4f3e 23fe 3d3d 170a 82bc
00000250: 40d5 893e dfd4 953c cf51 90be 9188 38be
00000260: df02 193e 1687 1dbd 837b debe f2c7 fdbd
00000270: be03 c63d ccee d83b c6a7 c1bd 4bc6 d8bc
00000280: cdb1 393e bd4d 62bd a4df 013e ddf6 aebd
00000290: f932 88bc 437e 56bb 8340 ee3d 9c9b a63c
000002a0: 24a4 0ebe 8fd0 913e 8a78 d4bd 9395 5d3e
000002b0: 5f64 333e ee9c f2bc 2a9a 99be 3577 51be
000002c0: 0579 0c3e 2a8a 1dbe afd3 8abe bc82 003e
000002d0: 8a49 ec3d 3eae f93d d0e1 05bd 7ff9 82be
000002e0: 17f8 05bc 3dce d73d bea8 4bbe f69a 293e
000002f0: 6660 753c 962c 103c b86a 7ebe a59e e1bd
00000300: 35be bb3d e66d 0c3e 8f6c 85be 82f2 e63c
00000310: 85cc ad3c 50d6 833d 5a85 f73c 6a69 05be
00000320: 7b89 853d 0880 64bc 86fb 9ebe 0351 ab39
00000330: 1974 f03d 936d 00be b5f0 c93c dc05 15be
00000340: 0a93 253e c722 943c 8fb1 3e3d 72bf 96be
00000350: 32de 923c 6d09 283d be1a 35be f947 953d
00000360: 6e0c c0bd a0ac 183e 2b1f 24bd 3dd2 a1bd
00000370: 00e2 c33d bd6a 02bd 78d7 ae3c a175 833d
00000380: d974 443e 8976 9a3b e548 88be 9b4b 6ebe
00000390: 1e25 acbd 728f 7e3e 0460 e03d 949a f5bd
000003a0: 28d5 533c 2535 bd3d 4a67 1c3d 715f 9cbe
000003b0: 4094 a63d 472c 8a3d 15e7 c3be 6a54 55bd
000003c0: ee06 cbbd 7799 123e f3b8 5e3d 7a00 00be
000003d0: 4707 8abe 411b 633e 75bb 513d 7fac 8fbd
000003e0: fe28 8bbd 49fd b33d 95c1 793d dcfa 31be
000003f0: 8701 5a3e 73a4 483d ac8a 7bbe 8ec5 31be
0.026414303 0.13485472 -0.07775424 -0.06676881 0.010974072 0.08247655 -0.0074185748 -0.1501929
0.53806335 -0.28502822 -0.048883673 -0.195235 -0.22756939 -0.011491982 -0.056112006 0.42687625
0.25780642 0.019592598 -0.04787581 -0.23815905 0.2550832 0.08997423 -0.034893814 -0.21587798
0.061750777 -0.0332056 0.06809388 -0.4484186 -0.09839971 0.071419604 -0.096752614 0.17679816
0.124304846 0.0020717103 -0.3064236 0.0327148 0.15269344 -0.0070602214 -0.44838554 -0.13102639
0.11655294 -0.023065483 0.03308404 0.08155925 0.119169466 0.0012254838 -0.28758714 -0.4343665
-0.12847109 0.3349351 -0.095627405 -0.0085039865 -0.14014532 0.1633297 -0.13209057 0.07040663
0.016771466 0.10102973 0.0026354266 -0.19859606 -0.012996777 0.13905948 -0.1416575 -0.19843335
-0.082974836 0.26029336 -0.06411492 -0.17083794 0.06837219 0.024472514 -0.15346277 -0.30461344
0.041816603 -0.07047969 -0.19603372 0.05133062 0.22314377 0.16795522 -0.19017705 -0.08778486
-0.21081889 0.069281176 0.065457426 -0.051422007 -0.17316908 0.040075626 -0.022856768 -0.16875602
0.036197465 0.07761464 0.009505894 -0.060879633 0.32254955 -0.096997045 0.08464752 -0.16957325
0.15500678 -0.07999664 0.215646 -0.18390124 0.11885962 0.08905585 -0.13403927 -0.03316521
-0.26568598 0.21608001 -0.1499458 0.42044228 -0.09248069 0.05694436 0.078488044 -0.00046715542
0.09283605 0.13436554 0.04711844 -0.30722788 -0.044708837 0.15509775 -0.07555651 0.02210076
0.04226218 -0.15078098 0.03785267 -0.20840189 0.055627145 0.051105294 -0.068177246 -0.32153434
0.14682963 -0.016120331 0.042521935 -0.50470114 0.24817014 -0.005682073 0.01359384 -0.06800957
0.15386641 -0.019579241 -0.35981607 0.060147554 0.051548027 0.15730079 -0.08117982 -0.16931535
-0.071989715 0.2027433 0.04638494 -0.015873952 0.2692051 0.018289981 -0.28187415 -0.18020846
0.14942501 -0.038458906 -0.43453607 -0.12391652 0.096686825 0.0066202637 -0.09455828 -0.026461741
0.18134232 -0.05524992 0.12682968 -0.08543179 -0.016625868 -0.0032729066 0.116333984 0.020337872
-0.13929802 0.2847943 -0.103745535 0.2163909 0.17518757 -0.029615846 -0.3000043 -0.2045563
0.1371804 -0.15384737 -0.27114627 0.12549871 0.11537464 0.12191437 -0.032686055 -0.25580975
-0.008176825 0.10537384 -0.19888589 0.16563019 0.014976596 0.008799693 -0.24845397 -0.11016587
0.091671385 0.13713798 -0.26059386 0.028191809 0.021215687 0.06437361 0.030214954 -0.13028494
0.06520363 -0.013946541 -0.31051272 0.0003267602 0.11740894 -0.12541799 0.02465091 -0.14553016
0.16169372 0.01808299 0.04655605 -0.29442936 0.017928217 0.041024614 -0.17685983 0.07289118
-0.09377371 0.14909601 -0.040068787 -0.07901428 0.095645905 -0.031840075 0.021342978 0.0641892
0.19185199 0.0047138375 -0.26618114 -0.23271029 -0.08405517 0.24859408 0.109558135 -0.11992374
0.012929238 0.09238652 0.03818444 -0.30541566 0.08133745 0.067467265 -0.3826224 -0.052082457
-0.09913431 0.14316355 0.0543756 -0.12500182 -0.26958677 0.22178365 0.051204164 -0.07015323
-0.06794928 0.08788545 0.06097563 -0.17380852 0.21289645 0.048984956 -0.24564618 -0.17360517

fc1.bias f4 [100]
00000000: 2282 e2bd 3957 8cbc e2ac bebd 0234 573e
00000010: 5243 fe3c e855 46bd 5944 32bd d321 10bd
00000020: c2c8 74bd 45c4 07bd e0c4 8cbc 3f0c 423e
00000030: 7719 a8bc 96a9 1f3d b27b 10be 7435 3dbc
00000040: ca5e 353d 3d70 acbd a5d6 5d3a c666 2abd
00000050: 114e 1a3d 8681 453e 03ab b3bd f3d7 d2bd
00000060: fa7f 3b3e de61 09bd 24cb c9bc 40f1 1e3d
00000070: d882 a6bd 31e7 e6bd b289 fcbc 273f a3bc
00000080: c3db a63d e111 c4bc d032 b33d dc83 63bd
00000090: 1bf1 c43d 4227 773a d57c b4bc 93f0 c6bd
000000a0: 83a3 ca3d cd8f a8bc ea4d 1d3d 1f80 0fbe
000000b0: 8b7e b5bc e0cc 1e3d c15d bdbc ba92 00bd
000000c0: dc05 aabc 309f 453d d73b 16bd fe07 70bc
000000d0: 48a6 473b be3a 85bd 9fa3 da3d 45ae cf3b
000000e0: 3ade 033e 147a 84bd 7c16 46bd 9463 1f3e
000000f0: 815d 89bc 7dd6 ef3d 0d36 a0bc c217 ccbc
00000100: fdf5 e33d 6923 0dbd 2b0b 813e 6f0a 87ba
00000110: d16e 46bd 0e35 2ebe ded0 313e 46ec efbc
00000120: b8ed b8bc 914a 6a3d 191c 9ebc ed4a 4bbd
00000130: c433 133e 9e32 babd ba71 cdbc b56a bf3d
00000140: 2a6f d03c 34b2 87bc 7c32 243d 6138 143e
00000150: dd03 10bc aa7b 07bd 076d 0d3e 91bb 80bc
00000160: d50c 583e 6766 b9bb 0b9b 7d3a b9a3 a2bd
00000170: 9b4e d9bc bdbc 9fbc 942b 11bc 6943 6a3c
00000180: 810e dfbb b2a5 19bd 5255 073e 14d5 9bbc
-0.11059977 -0.017131435 -0.093103185 0.21015933 0.03103796 -0.04842177 -0.043522213 -0.035188507
-0.05976177 -0.03314616 -0.017183721 0.18949984 -0.020519955 0.03898009 -0.14109686 -0.011548389
0.04427985 -0.08419845 0.00084624655 -0.04160192 0.037672106 0.1928769 -0.08772852 -0.10295095
0.18310538 -0.0335406 -0.024632998 0.038804293 -0.08130425 -0.11274565 -0.030827377 -0.019927574
0.08147385 -0.023934307 0.08749926 -0.055545673 0.096163 0.0009428152 -0.02203218 -0.09713855
0.09894469 -0.020576382 0.038404383 -0.14013718 -0.022155067 0.038769603 -0.023115994 -0.03138993
-0.020754747 0.048247516 -0.03667816 -0.014650343 0.0030464102 -0.06505345 0.106757395 0.006337913
0.12877741 -0.06468597 -0.048361287 0.1556533 -0.016768219 0.11710832 -0.019557023 -0.024913672
0.11130903 -0.034457598 0.25203833 -0.0010302792 -0.048445527 -0.17012426 0.17364833 -0.029287469
-0.02257429 0.05720002 -0.019300507 -0.049632 0.14375216 -0.09091686 -0.025078643 0.093465246
0.025443632 -0.016564466 0.04008721 0.14474632 -0.008789984 -0.03307692 0.13811122 -0.015714439
0.21098645 -0.0056579593 0.0009674287 -0.07941384 -0.02652674 -0.019499177 -0.0088604875 0.014298298
-0.006807149 -0.037511535 0.13216141 -0.019022502

fc2.weight f4 [10, 100]
00000000: c534 76be a701 93be 6820 77be 1fe3 053e
00000010: f183 87be ac5f ce3c 116c 88bd 6e1e d7be
00000020: 081d ffbc 984d 5b3d 5bfe 64bc 6b51 cc3d
00000030: a189 f3bd d1ea 35be 5d36 9dbe 3d1d 683d
00000040: 8bda c8bd bd5c 54be 6b36 99be 9cd8 18bf
00000050: 74b0 b2bc 0517 843d 6593 c0be d230 c8bc
00000060: 144f a13d c47b e3bd 8ada 8f3d b4a8 d8bd
00000070: 86c6 f3be f62b 9bbe 869f 3f3d 575f 2fbc
00000080: 5cf0 943e 67a4 943d 18d4 ad3d 40c5 94be
00000090: f35d e83d f2c7 00be 870d 6d3d 09de 8fbe
000000a0: 026d b4bd 062a 8d3d 18d2 31be 09ad f0bd
000000b0: ce12 0ebf decd eebd 5129 b43d a5a7 43be
000000c0: b905 f2bc 3af8 81be abff a23d 777c 7fbd
000000d0: ec2b 43be 0aef a03d c7ff ce3d 9ac7 2fbe
000000e0: c272 1d3e 6079 22bf c2f1 bfbd 711c 0a3e
000000f0: 74d0 7abd 029b 9f3e 0a8c 10be e66a c03c
00000100: 345a 363e dff1 8bbd 0fe4 093e 280d d5bd
00000110: 0287 e1bc 503e 14be 6e2c 173e 1a08 24bd
00000120: 6724 7ebe c32e 973e 074a 54bd a110 dcbe
00000130: 9d16 4abd 6599 54bc a5f6 babd 014d e6bc
00000140: 339a c83d b307 4a3e ad81 bdbe 04f9 293e
00000150: 9036 23bf 43a6 813e 4cdd 29bc 28dc dabd
00000160: dd0d 233e e63f 763d 9f58 a13e 04b1 bebe
00000170: b009 dcbe 3c61 08be 374c 0a3d 8a19 343d
00000180: 58e8 973e ce55 2abd f931 833d 64a6 1fbd
00000190: 7075 61bd 4d95 bcbc 8d75 f3be bb69 293e
000001a0: 3327 abbe b610 933c 2cd4 15bd 6dd6 923d
000001b0: d984 c9be cc3e e53c b976 9c3d 5f02 ea3d
000001c0: 6a5c 923d 0709 ebbd 9502 06bf d239 243d
000001d0: 2f07 cd3d 8044 e9be 4301 673e f805 02bf
000001e0: 5f14 01bf 2784 bb3d 3bea fabd 1fac ecbe
000001f0: e014 bc3d 81f6 48bc a39c 80bd e015 75be
00000200: 1f36 fbbe 34cd e6be 7e74 a53d b46b 433d
00000210: cbcd 9c3e 2a39 6d3c 73d0 53be c90e 34bd
00000220: e56b 213e bad6 f4be f33f 643d 07f5 06bf
00000230: 6291 debe 865f 8a3d a038 61bd 8d05 cfbe
00000240: e7c6 6fbe bc06 72be fe19 88bc a924 aabe
00000250: 028d 5c3d 2f9f 2c3c 37ad 9fbd eac3 72bc
00000260: e398 863e 6c97 983d 0034 e33d 306f 1abe
00000270: 3424 2a3e b46f 20bf 152f febc 035a 2f3e
00000280: a106 8fbc 22cc a73e 3eab 01be 8b2f 80bd
00000290: 6bc3 533e 3666 883d 817a f53d f17c 9ebe
000002a0: 7edc 553e e999 f3be d00e 183d 790d c9bd
000002b0: 72c8 953d ca4f 523e e85b c2bb e817 15bf
000002c0: 38ce 1b3d 3043 ddbe d00e 223d fb72 81be
000002d0: 9afb 8c3d b871 263e 16e5 c3bd 90fe e83b
000002e0: 8e81 103e 7abf 883c 007d 7bbd 5528 c2ba
000002f0: ead3 2a3e 9b75 513d 202a bebe 3f57 d8bd
00000300: 2c6a 63be 1a38 3fbe 13af 84bc 1624 f0be
00000310: 68e7 47be 8718 31bd 05b3 8e3d 2e94 82bd
00000320: 4b6f 7e3e 84ed b1bd 5ce8 523e 5eb1 ac3d
00000330: ffb2 d53e a781 4f3c 76ae 60bc 00cd 16be
00000340: 0117 0f3e 16d1 6c3c 2803 d2bd 6b31 783d
00000350: dd6b 86be 2aac b03e b9b6 503e c66a a9bd
00000360: 5505 16be 504a 0b3e a358 763e 9952 753d
00000370: 388a 96be fa05 c33b fe0a 09bf 5bfc 163e
00000380: 1230 2cbf e86b 0a3c b5c2 cbbc 146a 053e
00000390: 3e37 7bbe cd07 aebe b3af c73d 5867 823c
000003a0: f161 be3c ba0c 9dbd c283 3c3e 312f c53d
000003b0: 71cd 3ebe f002 283e 0564 3b3d 69e0 f2be
000003c0: 9897 e73d 8ab8 6ebd a927 133f 3bc7 fbbd
000003d0: cdb3 223e 8bbc 3f3e 9aaa e63c 0e1b fe3e
000003e0: 0dae 5abc 66cf b83e e743 12bc d2f6 2c3d
000003f0: 3f5c 6ebe e4e6 d6be 5fdc c8be 475d ea3e
-0.24043567 -0.28712198 -0.24133456 0.13074921 -0.2646785 0.025192104 -0.06661237 -0.42015404
-0.031141773 0.053540796 -0.013976659 0.09976467 -0.11891485 -0.17765357 -0.30705538 0.05666851
-0.09807309 -0.20738502 -0.2992433 -0.5970552 -0.021812655 0.06449703 -0.37612453 -0.024437342
0.07876411 -0.11107591 0.07024105 -0.105790526 -0.476124 -0.30306977 0.046782993 -0.010703883
0.2908963 0.0725792 0.08487719 -0.2905674 0.113460444 -0.12576273 0.05787423 -0.28099087
-0.08809854 0.06892781 -0.173653 -0.11751754 -0.55497444 -0.1166036 0.08796943 -0.1910692
-0.029543744 -0.25384694 0.07958921 -0.06237456 -0.19059724 0.07858093 0.101073794 -0.17165986
0.15375808 -0.63466454 -0.093722835 0.13487412 -0.061233953 0.3117295 -0.1411592 0.023488473
0.17807847 -0.068332426 0.13465904 -0.104029 -0.027530197 -0.14476895 0.14763042 -0.04004679
-0.24818574 0.29527864 -0.05182841 -0.42981437 -0.049337972 -0.012976025 -0.09129075 -0.02811289
0.09795036 0.197295 -0.37012997 0.16598898 -0.6375513 0.2532216 -0.010367703 -0.10686523
0.15923257 0.060119532 0.31512925 -0.37244427 -0.4297614 -0.13318342 0.03376409 0.04396967
0.29669452 -0.041585736 0.06406016 -0.03897704 -0.055043638 -0.02302041 -0.47550622 0.16544239
-0.33428344 0.017952304 -0.036579296 0.07169805 -0.39359167 0.027984045 0.07639832 0.114262335
0.07146533 -0.11476331 -0.5234769 0.040094204 0.10011136 -0.45560074 0.22559075 -0.5079036
-0.5042171 0.091560654 -0.12251707 -0.46225068 0.09183669 -0.012265802 -0.06279876 -0.23934126
-0.4906473 -0.45078433 0.0807886 0.047710136 0.30625758 0.014478961 -0.20684986 -0.043959413
0.15763815 -0.47820073 0.05572505 -0.5271763 -0.43470293 0.06756501 -0.054985642 -0.40433922
-0.23415719 -0.23635381 -0.016613957 -0.33231094 0.053845413 0.010535999 -0.0779671 -0.014817217
0.26288518 0.074507564 0.110939026 -0.15081477 0.16615373 -0.62670445 -0.03102831 0.1712418
-0.017459216 0.32772928 -0.1266298 -0.06259068 0.20680015 0.0666012 0.119862564 -0.30954698
0.20884892 -0.47578362 0.0371235 -0.09817023 0.073136225 0.2053825 -0.0059313662 -0.58239603
0.038038462 -0.43215322 0.039564908 -0.25283036 0.06883927 0.16254318 -0.09565179 0.0071104243
0.14111921 0.016692866 -0.061398506 -0.0014813045 0.16682401 0.051137548 -0.37141514 -0.10563516
-0.2220847 -0.18673745 -0.016196763 -0.4690253 -0.19521868 -0.04323628 0.06967739 -0.06375919
0.24847142 -0.08687881 0.2059645 0.084322676 0.41738126 0.012665189 -0.01371347 -0.14726639
0.13973619 0.014454147 -0.10254508 0.060594004 -0.26254168 0.3450635 0.20382203 -0.082723185
-0.14650472 0.13602567 0.2405725 0.059893224 -0.29402328 0.00595164 -0.535324 0.14744703
-0.6726085 0.008448578 -0.024873117 0.13028747 -0.24532792 -0.33990327 0.09750309 0.015918419
0.023240061 -0.07668443 0.18409637 0.09628142 -0.18633057 0.1640737 0.045749683 -0.47436836
0.11308211 -0.05828146 0.5748239 -0.122938596 0.15888901 0.18724267 0.028157521 0.49630016
-0.013347161 0.36095732 -0.008927322 0.042227574 -0.23277377 -0.4197303 -0.3923063 0.4577429

fc2.bias f4 [10]
00000000: 997d 00bd b19a 153e df15 7abe a0c3 943e
00000010: 141c 5abe 3180 e7bd 6609 3d3e dbf8 b03c
00000020: ff61 d9bd 631f cdbc
-0.03136978 0.14609791 -0.24422406 0.290555 -0.21299773 -0.113037474 0.18460616 0.021603039
-0.106143944 -0.02503938
