results/mfdwc-baseline/a-s1/best_CL_a-s1.pth (torch, 109561 bytes, 4 tensors)

fc1.weight f4 [100, 256]
000000 bb 08 80 bd ea 99 dc 3b 67 51 c3 bd 1c 34 e3 bc
       -0.06251665 0.006732215 -0.09537011 -0.027734809
000010 2f c8 ae 3d 17 be a9 bc 11 39 e5 3c 7c ea 64 bd
       0.08534276 -0.020720525 0.027981313 -0.055887684
000020 61 fc 49 bd 57 0d b6 3c a6 7d 5b bd 5e 05 69 3d
       -0.049312953 0.022223158 -0.053586625 0.056889884
000030 57 7d 68 bc 79 14 57 3c a7 88 92 bd a4 c6 25 bc
       -0.01419004 0.01312744 -0.071549706 -0.01011816
000040 c9 49 d1 bd dc ea 6a bd 82 eb e4 bd d5 7b 3e bb
       -0.102191515 -0.057352886 -0.11177732 -0.002906551
000050 41 eb c3 bd 20 d1 f1 bd 89 d7 4d 3d 41 27 48 3d
       -0.095663555 -0.118074656 0.05025438 0.04886556
000060 3b 9e b1 bd 2d 1b 9a 3c a8 8a 44 3d c7 85 ea bc
       -0.08672758 0.018811787 0.047983795 -0.028628243
000070 4e 08 9c bd cd 81 24 bd ec 6c e7 bd 44 c8 2c 3d
       -0.076187715 -0.04016285 -0.11300072 0.042183176
000080 e3 5d 4b bd c8 f9 e7 bd 89 e7 9e bd ad cc f9 bc
       -0.049650084 -0.11326939 -0.077590056 -0.030493105
000090 22 a9 c6 bd 8d d7 f5 bd 0e 1b 41 3c 05 0f 43 3c
       -0.09700228 -0.12004004 0.0117862355 0.011905436
0000a0 5b 68 ce bd 0d bd 25 3c 2b df d3 bd b4 8a 85 3c
       -0.10078498 0.010115874 -0.103453 0.01630149
0000b0 7c 84 0f be a8 fe 57 3d 1c 89 26 3d 3a 29 85 3c
       -0.14015383 0.052733094 0.0406581 0.01625501
0000c0 37 b2 1b 3c 4d 16 6f bd 10 cf f6 bd 53 ac 97 3d
       0.009502939 -0.058370877 -0.12051213 0.07405915
0000d0 bd 56 0a bd 16 ac 85 3d 04 8c ca bd 56 dc c9 bd
       -0.033774126 0.065269634 -0.09889987 -0.09856479
0000e0 7c f0 6d bd 9a f2 c6 3c d7 95 5b 3d 04 c9 47 bd
       -0.058090672 0.024285603 0.053609695 -0.048775688
0000f0 a1 fc 9e bd 4e bf 9c 3c f6 a0 5d bd 17 bb 9d 3c
       -0.07763029 0.01913419 -0.054108582 0.01925425
000100 2b 24 05 bc 5b 61 0c bd 05 9d b2 bc f0 e4 06 bd
       -0.008126299 -0.034272533 -0.021803388 -0.032933176
000110 83 f3 a4 bd 9f 31 f4 3c 36 7b 1a bd e4 7d fc bd
       -0.08054259 0.029808817 -0.03771516 -0.12328699
000120 05 41 a0 3d 87 bf d0 bd d0 70 2a bd 47 8d 17 bd
       0.078249015 -0.10192781 -0.041611493 -0.036999967
000130 13 68 c2 bd 58 5d 53 3d 96 a4 d0 bd e3 f6 95 3a
       -0.09492507 0.05160269 -0.10187642 0.0011441376
000140 b0 c6 7c 3d 49 c6 89 3d 67 1e 20 3d 4e c3 49 3d
       0.06171292 0.06727273 0.039091494 0.049258523
000150 bc c8 96 3d ff ae e6 bc 87 44 ba bd f3 67 8d 3d
       0.07362506 -0.028159617 -0.09095102 0.06904592
000160 b2 ad bb 3c 2a 1d 4e bd 88 4d 8d 3d dc 92 8d 3c
       0.022909973 -0.05032078 0.068995535 0.017281942
000170 2f c9 ff bc 1f a7 81 bd 51 c0 f7 bd 5a a5 6d ba
       -0.031223862 -0.06330704 -0.12097228 -0.0009065472
000180 83 0a 8b bc 7a ea 39 3c 40 f2 2e 3d 86 7e 99 bd
       -0.016972786 0.0113474075 0.042711496 -0.074948356
000190 0a 87 d9 bd d4 0b a7 bc eb 10 a1 bc 79 2d af bc
       -0.1062146 -0.020391382 -0.019661387 -0.021383988
0001a0 ce 6f 5d 3d be 29 c5 3d 2c 52 66 3a 82 62 1d bc
       0.054061703 0.09627102 0.0008786048 -0.009606006
0001b0 f3 dc b9 3d 4a 58 e9 bd 5b 48 54 bc 52 da 0e 3d
       0.09075346 -0.11393793 -0.012956704 0.034876175
0001c0 f2 da a1 bc f4 78 0b 3d 23 51 16 bb 0a ea 87 bd
       -0.019757722 0.034050897 -0.0022936545 -0.06636436
0001d0 4d 7c d1 bd 0b 72 a9 3c ca 41 e6 bd 14 37 14 be
       -0.102287866 0.020684263 -0.11243017 -0.14474136
0001e0 28 30 29 3d 90 54 44 bd bb b9 3a 3d 41 74 05 3c
       0.04130569 -0.047932208 0.045587283 0.008145393
0001f0 f0 d0 8d 3d 98 f2 11 bd 7f 5f 6c bc 54 42 70 3d
       0.06924617 -0.035631746 -0.014427065 0.058657005
000200 a7 ad 54 bd 4c 5f 49 3d be 1e 30 bd 54 63 85 3d
       -0.05192342 0.049163148 -0.042998068 0.06513086
000210 53 0d 56 bd 6d 9e d2 bd c2 0b e5 bd c4 0d b3 bd
       -0.0522588 -0.102841236 -0.11183883 -0.0874286
000220 27 6f a9 bd e7 51 c6 3d a1 c0 3c bd bd f5 f7 3c
       -0.08273154 0.096835904 -0.046082143 0.030268544
000230 34 9b 07 3d aa ad 07 3d 6d 15 98 bd c0 e2 3a bc
       0.033106998 0.033124603 -0.07425962 -0.0114066005
000240 60 06 45 3d 2a 77 5a bd bf 5d 81 bd 91 e9 33 bc
       0.048101783 -0.0533363 -0.06316709 -0.01098098
000250 3f 09 55 3a 58 e3 0a be 4b 94 8b bb 70 62 d5 bd
       0.0008126683 -0.13563287 -0.0042596213 -0.10419166
000260 f6 20 3e 3d fe 2e cb bd 2e ac a6 bc 9e 15 ce bd
       0.046418153 -0.099210724 -0.020345774 -0.10062717
000270 fa a8 34 3d a6 9b 04 bd a3 64 aa 3d 37 40 90 bd
       0.04410646 -0.032375 0.08319976 -0.07043498
000280 94 dc 82 bd 03 f8 fc bd b1 73 05 bd 11 58 40 3d
       -0.06389728 -0.12351992 -0.032581035 0.046958987
000290 85 f5 a1 3a 19 64 16 3d 11 61 c7 3c a0 e4 7f 3d
       0.0012356496 0.036716554 0.024338277 0.062473893
0002a0 df bf 05 be 00 66 be 3c f6 31 f3 bd 0a 94 15 3c
       -0.13061474 0.023241997 -0.11874764 0.009129534
0002b0 a0 54 9b 3d 81 ad 1d bd ec b5 dd bd 1d 18 0b 3d
       0.075845 -0.038495544 -0.108257145 0.033958543
0002c0 1f 03 eb bd 55 1e 07 3d 46 f2 c3 bd 68 cb ac bd
       -0.11475205 0.03298791 -0.09567694 -0.08437234
0002d0 7b 2c 48 bd 1e 83 23 bc 04 22 f6 3c e7 f9 12 be
       -0.048870545 -0.009979991 0.030045517 -0.14353143
0002e0 33 75 f7 bd a3 6d fd 3c ee 69 19 bb 8a 64 c4 bd
       -0.12082901 0.030936068 -0.0023409086 -0.09589489
0002f0 10 21 c9 bd c8 bb 0b 3d 2c 13 9f bc 59 12 3b 3d
       -0.09820759 0.03411463 -0.019418322 0.045671795
000300 15 53 8a bd 1b f0 07 be 10 a6 bd bd 7c 20 21 3c
       -0.06754128 -0.13275187 -0.092601895 0.009834405
000310 05 33 0d 3d 30 63 c9 3d 22 b6 96 bd 80 9f 5b bd
       0.034472484 0.09833372 -0.07358958 -0.053618908
000320 aa 60 cb bd 72 cd dc 3c 56 fe f3 3b be 65 48 3c
       -0.099305466 0.026953433 0.0074460907 0.0122312885
000330 21 68 b9 3c 07 4b 6b 3d 87 6a cd bd f8 86 4c 3d
       0.02263266 0.0574446 -0.10030084 0.049933404
000340 e8 8b 43 bd e9 0c 0c be c5 ad ff bc 3b d9 23 bc
       -0.047740847 -0.136768 -0.03121079 -0.010000522
000350 bf b8 e0 3c 66 48 91 bc 3c 25 a5 bd e9 c5 22 ba
       0.027431844 -0.017734718 -0.080637425 -0.00062093005
000360 be 69 55 3d f3 93 0b bb 26 2c 8a 3c ba 5f 36 3d
       0.052102797 -0.0021297901 0.016866755 0.044524886
000370 c2 81 1d bd e3 4e 10 3c 91 bf 18 be 00 52 0d be
       -0.038453825 0.008807871 -0.14916827 -0.13800812
000380 11 30 54 bd ce 6e fd 3b 51 89 ee bd 59 7c 0c bd
       -0.051803652 0.007734156 -0.11647285 -0.034298275
000390 79 be 6b bc 9f a7 a9 bd 29 13 d4 bd 47 58 84 3d
       -0.014388674 -0.08283924 -0.10355217 0.0646215
0003a0 cb 6d c9 3d a9 08 38 3d 00 be 71 bd 06 73 57 3d
       0.098353945 0.044930134 -0.05901909 0.05259993
0003b0 be 67 7e 3c fb 72 5c 3d 2f bd f9 bd ab 41 11 bd
       0.015527664 0.05382059 -0.12194287 -0.035463016
0003c0 af 57 5a bd 99 1d 95 bd 38 79 62 3d e5 c2 17 3d
       -0.053306278 -0.07281036 0.055291384 0.0370511
0003d0 4c 07 69 3d 0a e9 b5 bd bf 61 08 3c 2e 9a 6a 3a
       0.056891724 -0.08882339 0.008324086 0.0008949366
0003e0 10 5a 87 bd 4f 78 83 3d 6a ec a7 bd e4 d6 50 bc
       -0.06608975 0.064194314 -0.08199389 -0.012746546
0003f0 5a e9 99 bd 49 04 db bd c1 63 17 bc 8a 6a 93 3d
       -0.075152114 -0.10694177 -0.009240092 0.07198055

fc1.bias f4 [100]
000000 49 aa c3 bc 96 31 8a 3d 29 51 09 3e 2c 00 99 3c
       -0.02388491 0.06747739 0.13409866 0.01867684
000010 da c0 dd 3d cc 6f df bc 90 0b 9b bc 3a 8a a7 3c
       0.10827799 -0.027274989 -0.018926412 0.020451654
000020 ce 40 ea 3d 52 3b ad bc 3c 1d d9 3c 03 56 38 bd
       0.11438142 -0.02114645 0.026503198 -0.045003902
000030 73 bd a2 bc 43 e2 2c 3d 4c e9 06 3d b1 0a e3 3a
       -0.019865727 0.042207967 0.032937333 0.0017321912
000040 41 85 e3 bc 9d 06 c2 bc 73 8c af bc b8 7f f0 bd
       -0.027773501 -0.023684794 -0.021429276 -0.117431104
000050 95 07 b2 bc ec 50 11 bd 9e c9 a0 bd 59 c7 90 3d
       -0.021732131 -0.035477564 -0.078509554 0.070692725
000060 c7 6a 22 bc 62 29 bd 3d a4 0a ca b9 d9 25 c7 3c
       -0.009913153 0.09236409 -0.0003853637 0.02431004
000070 ce 65 ed bc 87 d3 3c bd 5c 14 bd 3d ea ec 2c bd
       -0.028979208 -0.046100166 0.09232399 -0.042218126
000080 52 d7 77 bb 10 9c 84 bc 00 be 9b 3c 72 b1 9a bc
       -0.003781755 -0.016187698 0.019011497 -0.01888344
000090 a1 7f 66 bd 3c 8e ad bc e4 c9 0a 3d 8e af ae bc
       -0.05627406 -0.021185987 0.033883944 -0.021323945
0000a0 39 91 de 3d 32 e3 e9 bc 7f 07 51 bd d9 ef 35 bc
       0.10867543 -0.028550718 -0.05103254 -0.011104547
0000b0 7c 69 29 3d b8 3a 32 3d 03 88 44 bd 91 a1 0b bd
       0.041360363 0.04351303 -0.047981273 -0.03408963
0000c0 85 c9 3a ba 98 28 06 bd 3e d4 71 3c 06 f8 f8 bd
       -0.00071253657 -0.032753557 0.014760075 -0.12156682
0000d0 00 b8 c2 bc 1b c1 e2 bd 5e c8 8b 3c 60 0d 00 3d
       -0.023769379 -0.11071988 0.017063316 0.031262755
0000e0 f8 7a c3 bc 55 17 15 bc 52 5d cf bb 1d 66 ac bc
       -0.023862347 -0.009099801 -0.0063282633 -0.021044785
0000f0 4b 92 a3 bc 9d e8 97 3c ab d9 c3 3d 72 11 94 bc
       -0.019967219 0.018543536 0.09563001 -0.018074725
000100 93 58 f3 3d a0 fc c9 bd 44 6d 96 3d 4f 2c 91 bc
       0.118821286 -0.098626375 0.073450595 -0.017721323
000110 31 38 ab 3d 87 00 b9 3d 26 f3 b4 3d 3e ca 22 bd
       0.08360327 0.09033304 0.088354394 -0.039743654
000120 83 7d 8f 3c 4e 96 2a 3d 86 18 ae bc a0 d4 00 bd
       0.017515903 0.041647248 -0.021251928 -0.031452775
000130 91 b3 bf bc 14 7e 78 bd 61 eb 10 bd 91 b0 bf bc
       -0.023401054 -0.060667112 -0.035380725 -0.023399623
000140 45 be 13 bd 81 6c af 3d e6 b7 9d bc fa 67 2d bd
       -0.036070127 0.08565617 -0.019252729 -0.042335488
000150 3b 71 62 bd e0 11 aa 3d 41 36 ee bc a9 92 f9 3b
       -0.055283766 0.08304191 -0.029078605 0.00761636
000160 5f 58 b5 bd bf cd f4 3c db 2c d0 3c f6 71 a9 3c
       -0.08854746 0.029883264 0.025412014 0.020684224
000170 88 07 e0 bc ed 74 7d bc 06 53 c7 bc 92 ce 5a 3d
       -0.027347341 -0.015469772 -0.02433158 0.053419657
000180 e5 76 90 3d c6 09 94 3d 34 4b 3c bc d5 be e7 bc
       0.07053927 0.07228427 -0.011492539 -0.028289238

fc2.weight f4 [10, 100]
000000 0e 06 76 3d 91 19 d2 3d 69 2e bf 3d 97 c6 05 be
       0.060064368 0.10258783 0.09335024 -0.13064037
000010 b2 fc 00 3e 1c d0 b3 be 0c b5 ea 3c 1b a4 14 3d
       0.12596396 -0.35119712 0.028650783 0.036289316
000020 c6 de 16 3e e2 3a 99 be e2 12 85 be 5f b1 96 be
       0.14733419 -0.29927737 -0.2599097 -0.29432198
000030 8e cf 59 3d 2d e0 54 be aa 02 f6 bd e5 1e 93 be
       0.053176455 -0.20788641 -0.12012227 -0.28734508
000040 61 ec 13 3e 27 dc 01 3e 0a 2e 05 3e 51 85 67 be
       0.1444564 0.12681638 0.13005844 -0.2260945
000050 b3 db 24 bd ba d0 26 be 46 56 43 be 9b 25 26 3d
       -0.040248584 -0.1629056 -0.1907588 0.040563207
000060 ec 75 b3 3d 4c 85 1e 3e fc 16 2f bd c8 78 ad 3c
       0.08762726 0.15480536 -0.04274653 0.021175757
000070 c7 11 2c be a4 72 98 bd 1d 56 46 3d 3e df 89 be
       -0.16803657 -0.07443741 0.048421968 -0.26928133
000080 7a 34 99 be 03 7d 04 3e d3 79 e0 3c 03 79 80 3d
       -0.2992285 0.12938313 0.02740184 0.06273081
000090 f7 ec 87 be 00 56 bf be 48 dc b1 3d 43 75 11 bd
       -0.26547977 -0.373703 0.086845934 -0.03551222
0000a0 ee 73 d6 3d 88 a2 53 bd ab e3 c2 be f9 f6 01 3e
       0.104713306 -0.051668674 -0.38064322 0.12691869
0000b0 32 d9 a1 bc 24 9a 24 be 28 b7 e7 bc 66 c9 8d bd
       -0.019756887 -0.16074425 -0.028285578 -0.06923179
0000c0 44 29 0c 3e c2 0e 83 3e 19 88 e8 bd 37 f0 02 be
       0.13687617 0.25597197 -0.113540836 -0.12786947
0000d0 1e 74 41 bd 67 c2 2c be d4 1a f3 3a 38 5f 30 be
       -0.04722988 -0.16871034 0.0018547424 -0.17223823
0000e0 4e a1 42 bd da f5 88 3e d9 ed d8 3d 75 59 12 3c
       -0.047517113 0.2675007 0.10592241 0.008932461
0000f0 51 bf 1a 3d 53 91 12 be b2 89 b0 3d 8e 9e 46 bd
       0.03778011 -0.1431325 0.08620013 -0.048491053
000100 6b 77 ed 3d 0a a3 78 be 61 7a 19 be d5 0c 88 bd
       0.11595043 -0.24280944 -0.1498809 -0.066430725
000110 39 74 ea 3d 88 fa 2c 3e 31 e6 a3 3b d8 d5 b6 be
       0.11447949 0.16892445 0.005001806 -0.35710025
000120 3c b1 6f 3e 95 8b d3 3c 12 1a 9a 3d 9a 94 77 3d
       0.23407453 0.025823394 0.07524504 0.060444452
000130 0b f8 e2 bd 9a 1d fe bd 07 74 88 bc b0 31 d2 bc
       -0.11082467 -0.1240799 -0.016656889 -0.025658458
000140 60 02 a8 bd a3 e6 da 3d d3 bb 0c 3c 03 3f 3b 3e
       -0.08203578 0.10688522 0.008589703 0.18285756
000150 16 da 53 be ff c6 18 3e 64 c7 40 3d 63 f5 38 be
       -0.20688662 0.14919661 0.047065154 -0.18062358
000160 53 81 b8 be 0e 89 98 bb 07 ea 61 3d da 67 97 be
       -0.36036167 -0.00465501 0.055154826 -0.2957142
000170 e8 e6 0d 3d 59 3e 86 3d ec 72 28 be 86 e0 84 3d
       0.034644037 0.065548606 -0.16450089 0.06488137
000180 f0 cc bb 3c c7 ca bc 3d 5d ca 0f bd 11 96 fc bd
       0.02292487 0.09218364 -0.035105098 -0.123333104
000190 5e 35 d4 3d b2 56 4c bd b1 45 f8 3d cc 50 5e 3d
       0.103617415 -0.049887367 0.121226676 0.054276273
0001a0 3a 39 ee 3d 9b ac e0 be 00 7b 84 bd f8 40 22 3e
       0.11632009 -0.43881688 -0.06468773 0.15845096
0001b0 db e8 3d 3e 93 5a 0d bc 9f d7 97 be 07 a4 e5 be
       0.18545859 -0.008627552 -0.29656693 -0.44851705
0001c0 9a d5 6f 3c 2d 3f 5d be 9c f1 5b be c6 fb ad be
       0.014638329 -0.21606131 -0.21478885 -0.3398115
0001d0 79 85 93 bd 50 81 b8 3c 00 a1 10 3e 51 52 b0 be
       -0.07203192 0.022522599 0.14123917 -0.34437802
0001e0 e5 f5 f2 3b 15 31 0c bf 11 72 8e be 78 cd 4a be
       0.007414567 -0.54762393 -0.278214 -0.19804943
0001f0 ed 2c bc ba aa 37 61 3e a6 8f 0f be 29 c4 72 3d
       -0.0014356651 0.2199389 -0.14019641 0.059269104
000200 3d 60 52 3d df ee 67 3d 30 fc 8f 3d 7f b4 54 be
       0.05136131 0.05662429 0.07030523 -0.20771979
000210 7d 48 0a 3e bb a2 23 3e 72 78 88 3d d1 a5 9d bd
       0.13504215 0.15980045 0.06663598 -0.076976426
000220 fd 46 1c be 13 1e 8c 3d 42 bc 30 bc c7 f8 28 bd
       -0.15261455 0.06841674 -0.010787072 -0.041252878
000230 18 e1 02 3e 00 43 d2 3c 54 dd 51 be 06 73 b9 bd
       0.12781179 0.025666714 -0.20494586 -0.09055142
000240 4c 6a ca be 4d ee 5b bd 85 ca 73 be 0b a0 b4 3d
       -0.39534223 -0.05369406 -0.23807724 0.08819588
000250 f3 b3 28 bb 6f 9e ac 3b bc ed f2 bd 8c f6 74 be
       -0.0025742024 0.00526791 -0.118617505 -0.23922175
000260 0f 09 18 be 1c 2d 6b be c6 35 84 be 4c 88 58 be
       -0.14847206 -0.22966427 -0.25822276 -0.21145743
000270 44 a4 6b bd 43 32 8b 3d d6 54 38 3e aa a4 3f 3d
       -0.057529703 0.06796696 0.18001112 0.046787895
000280 b1 15 8c bd 25 ab 1f 3d 15 a3 01 3e 94 ed a9 bd
       -0.06840075 0.038981576 0.12659867 -0.082972676
000290 e8 4a 1f 3e e5 4c 26 be 3f 9c 2e be 43 32 da be
       0.15555918 -0.1624027 -0.1705179 -0.42616472
0002a0 03 86 e5 3d 7d cc 7a bd f7 60 62 3d 38 4f a7 be
       0.11207201 -0.06123017 0.055268254 -0.32677627
0002b0 b7 4a 7a 3e 8f 78 fb 3d d3 2a 21 bb a8 7a 97 be
       0.24442564 0.12278854 -0.0024592176 -0.29585767
0002c0 2d 56 d2 3d 33 6a e1 be 9b 5a a6 bd 54 89 69 3d
       0.10270343 -0.44026336 -0.0812275 0.057015732
0002d0 93 a5 9d 3d 80 7d 10 3e 02 8b d8 bc 76 8f 27 3e
       0.076975964 0.14110374 -0.026433472 0.1636332
0002e0 6f 06 96 be 6a ca 54 3e b3 c7 b2 bd af 5f 30 be
       -0.29301783 0.2078034 -0.08729496 -0.17224
0002f0 76 68 a4 be a0 ad e2 bd 48 6c 0c 3e 4b b4 95 be
       -0.32110947 -0.110682726 0.13713181 -0.29239115
000300 2a 6d 2d bc 27 cd 8f bd d6 c3 ae be 23 20 bc be
       -0.010585109 -0.070215516 -0.34133786 -0.36743268
000310 01 49 19 3c 66 5e 04 3e f2 b8 80 3c 28 1c 93 bd
       0.009355784 0.12926635 0.015713189 -0.07183105
000320 7a 49 46 bd c4 2f 84 3d 25 38 bc be 3a 9d 95 be
       -0.048409916 0.06454423 -0.36761585 -0.29221517
000330 bc 27 9c be aa 56 ac 3c 98 b4 79 3c e2 85 25 be
       -0.30499065 0.021037418 0.015240811 -0.16164353
000340 b5 42 34 bd 33 d0 09 3e 4c 27 14 3e d5 d1 fb bc
       -0.04400893 0.13458328 0.14468116 -0.030739704
000350 9b d0 be 3c cb 90 7b 3d 94 f8 57 3e e2 c7 b7 3e
       0.02329283 0.061417382 0.21090919 0.35894686
000360 8f 12 4f 3d 88 62 e5 bc d3 88 1f be 67 b2 8d be
       0.05055481 -0.028001085 -0.15579538 -0.27675173
000370 de 83 ce bd 83 b2 48 3c 01 c0 c7 3d 91 e3 07 be
       -0.100837454 0.012249592 0.09753419 -0.13270403
000380 b1 c6 c6 3c f9 0f 26 be 74 2d c4 3e 6b 7e c7 be
       0.024264665 -0.1621703 0.38315928 -0.38963637
000390 cc 4e 3b be 13 32 f8 bc 38 dd 6f 3d d9 ec f5 3d
       -0.18291777 -0.030297315 0.05856058 0.12008066
0003a0 75 55 ef bd 01 61 be 3d aa 3c 35 3e 7d 24 b6 bd
       -0.116862215 0.09295846 0.17698923 -0.08893678
0003b0 85 cc f6 bd 8f 73 3c 3e a2 08 51 3e 22 54 42 bc
       -0.12050728 0.18403457 0.2041345 -0.011860879
0003c0 1c 10 16 be 72 34 6b 3d 42 a4 94 3d 30 ea a7 3d
       -0.14654583 0.057423063 0.07257892 0.081989646
0003d0 bc 63 d5 3d 77 d3 8f bd 09 95 40 3e a7 87 0b 3d
       0.104194134 -0.070227556 0.18806852 0.034064915
0003e0 25 99 17 be 95 63 ec 3d a9 dd ef 3d ff bd 0e 3d
       -0.14804514 0.11542431 0.117122 0.034849163
0003f0 75 6c 8e bd 2b a2 8b be c9 da aa 3d 97 5e 88 3e
       -0.0695428 -0.27272162 0.08342511 0.26634666

fc2.bias f4 [10]
000000 86 72 d8 bc 8a cd ff 3d 7d 88 d0 bd 5d 15 53 3e
       -0.026421797 0.12490375 -0.10182283 0.20613618
000010 c8 16 81 bd d9 26 ce bc 42 f7 a8 3d fe b1 a3 3d
       -0.06303173 -0.025165008 0.08250286 0.07992934
000020 60 27 d3 bd 8b 3d 8d bd
       -0.103102446 -0.06896504
