results/mfdwc-baseline/a-s1/latest_CL_a-s1.pth (torch, 109561 bytes, 4 tensors)

fc1.weight f4 [100, 256]
0	0xbd8008bb	-0.06251665
1	0x3bdc99ea	0.006732215
2	0xbdc35167	-0.09537011
3	0xbce3341c	-0.027734809
4	0x3daec82f	0.08534276
5	0xbca9be17	-0.020720525
6	0x3ce53911	0.027981313
7	0xbd64ea7c	-0.055887684
8	0xbd49fc61	-0.049312953
9	0x3cb60d57	0.022223158
10	0xbd5b7da6	-0.053586625
11	0x3d69055e	0.056889884
12	0xbc898bbe	-0.016790267
13	0x3c2162f9	0.009850257
14	0xbd93d8ee	-0.072191104
15	0xbc441289	-0.01196731
16	0xbdd149c9	-0.102191515
17	0xbd6aeadc	-0.057352886
18	0xbde4eb82	-0.11177732
19	0xbb3e7bd5	-0.002906551
20	0xbdc41374	-0.09574023
21	0xbdf4083a	-0.119156316
22	0x3d41f1c8	0.04734972
23	0x3d3a4cd7	0.045483436
24	0xbdb19e3b	-0.08672758
25	0x3c7cfbb9	0.015440875
26	0x3d249d66	0.04018917
27	0xbd112dc5	-0.03544404
28	0xbd9c084e	-0.076187715
29	0xbd2481cd	-0.04016285
30	0xbde76cec	-0.11300072
31	0x3d2cc844	0.042183176
32	0xbd4b5de3	-0.049650084
33	0xbded009a	-0.1157238
34	0xbd9ee789	-0.077590056
35	0xbcfe3917	-0.031033082
36	0xbdc6a922	-0.09700228
37	0xbdf5d78d	-0.12004004
38	0x3c104960	0.008806556
39	0x3c26dfd9	0.010185205
40	0xbdce685b	-0.10078498
41	0x3c25bd0d	0.010115874
42	0xbdd3df2b	-0.103453
43	0x3c858ab4	0.01630149
44	0xbe0f847c	-0.14015383
45	0x3d57fea8	0.052733094
46	0x3d26891c	0.0406581
47	0x3c85293a	0.01625501
48	0x3c1bb237	0.009502939
49	0xbd6f164d	-0.058370877
50	0xbdf6cf10	-0.12051213
51	0x3d97ac53	0.07405915
52	0xbd0a56bd	-0.033774126
53	0x3d818c75	0.06325618
54	0xbdd20f65	-0.102568425
55	0xbdd0e75a	-0.10200377
56	0xbd6df07c	-0.058090672
57	0x3cc6f29a	0.024285603
58	0x3d5b95d7	0.053609695
59	0xbd47c904	-0.048775688
60	0xbd9efca1	-0.07763029
61	0x3c9cbf4e	0.01913419
62	0xbd5da0f6	-0.054108582
63	0x3c9dbb17	0.01925425
64	0xbc1896e0	-0.009313315
65	0xbd171c7d	-0.036892403
66	0xbcd314a0	-0.02576667
67	0xbd1425f0	-0.036168993
68	0xbda4f383	-0.08054259
69	0x3cf4319f	0.029808817
70	0xbd1a7b36	-0.03771516
71	0xbdfc7de4	-0.12328699
72	0x3d9c04e5	0.07618121
73	0xbdd8f4c2	-0.10593559
74	0xbd329e01	-0.043607716
75	0xbd2493e2	-0.040180095
76	0xbdc26813	-0.09492507
77	0x3d535d58	0.05160269
78	0xbdd0a496	-0.10187642
79	0x3a95f6e3	0.0011441376
80	0x3d6f1e4c	0.058378503
81	0x3d82dd97	0.06389921
82	0x3d11f009	0.035629306
83	0x3d3e7c22	0.0465051
84	0x3d96c8bc	0.07362506
85	0xbce6aeff	-0.028159617
86	0xbdba4487	-0.09095102
87	0x3d8d67f3	0.06904592
88	0x3ca93df2	0.02065942
89	0xbd5eefc8	-0.054427892
90	0x3d86896b	0.06569179
91	0x3c6c7c06	0.014433866
92	0xbcffc92f	-0.031223862
93	0xbd81a71f	-0.06330704
94	0xbdf7c051	-0.12097228
95	0xba6da55a	-0.0009065472
96	0xbc9814cd	-0.018564606
97	0x3c129738	0.008947186
98	0x3d2612f6	0.040545426
99	0xbd9efde7	-0.07763272
100	0xbddaf044	-0.10690358
101	0xbcb50755	-0.022098223
102	0xbcb995e1	-0.022654476
103	0xbcca9ae0	-0.024732053
104	0x3d58260d	0.052770663
105	0x3dc162a0	0.09442639
106	0xbb0c8801	-0.002144337
107	0xbc43a71c	-0.011941697
108	0x3db3e30d	0.08783541
109	0xbded5bea	-0.11589797
110	0xbc78d367	-0.015187121
111	0x3cff7aa5	0.031186411
112	0xbca1daf2	-0.019757722
113	0x3d0519ea	0.032495417
114	0xbb393dac	-0.002826552
115	0xbd8a2175	-0.06744663
116	0xbdd17c4d	-0.102287866
117	0x3ca9720b	0.020684263
118	0xbde641ca	-0.11243017
119	0xbe143714	-0.14474136
120	0x3d16bd6a	0.036801733
121	0xbd56b7e9	-0.052421484
122	0x3d24f804	0.04027559
123	0x3b6407ba	0.0034794644
124	0x3d87e13f	0.06634759
125	0xbd191a41	-0.037378553
126	0xbc790cac	-0.015200775
127	0x3d690684	0.05689098
128	0xbd588ee8	-0.05287066
129	0x3d3aa897	0.045570936
130	0xbd471148	-0.048600465
131	0x3d804e79	0.062649675
132	0xbd560d53	-0.0522588
133	0xbdd29e6d	-0.102841236
134	0xbde50bc2	-0.11183883
135	0xbdb30dc4	-0.0874286
136	0xbda96f27	-0.08273154
137	0x3dc651e7	0.096835904
138	0xbd3cc0a1	-0.046082143
139	0x3cf7f5bd	0.030268544
140	0x3cfe0bd6	0.031011503
141	0x3cf2f2ec	0.02965685
142	0xbd9e5721	-0.07731462
143	0xbc60f2cc	-0.013729762
144	0x3d450660	0.048101783
145	0xbd5a772a	-0.0533363
146	0xbd815dbf	-0.06316709
147	0xbc33e991	-0.01098098
148	0x3a55093f	0.0008126683
149	0xbe0dc5be	-0.13844964
150	0xbb976bfa	-0.004621026
151	0xbddc4880	-0.10756016
152	0x3d3e20f6	0.046418153
153	0xbdcb2efe	-0.099210724
154	0xbca6ac2e	-0.020345774
155	0xbdce159e	-0.10062717
156	0x3d29f6d3	0.041495156
157	0xbd1022e6	-0.03518953
158	0x3da532a3	0.08066299
159	0xbd96cf3e	-0.07363747
160	0xbd89fac2	-0.067372814
161	0xbe01cc2c	-0.12675542
162	0xbd137867	-0.036003496
163	0x3d2c7e51	0.042112652
164	0x3aa1f585	0.0012356496
165	0x3d0aad04	0.033856407
166	0x3cc423de	0.023942884
167	0x3d7fe4a0	0.062473893
168	0xbe05bfdf	-0.13061474
169	0x3ca8c2d2	0.02060071
170	0xbdf331f6	-0.11874764
171	0x3c10b04c	0.008831095
172	0x3d9583da	0.07300539
173	0xbd2d1bc5	-0.04226281
174	0xbde1beef	-0.11022746
175	0x3d013cdb	0.031552177
176	0xbdeb031f	-0.11475205
177	0x3d071e55	0.03298791
178	0xbdc9dfd3	-0.09857144
179	0xbdb03155	-0.08603159
180	0xbd482c7b	-0.048870545
181	0xbc23831e	-0.009979991
182	0x3cf62204	0.030045517
183	0xbe12f9e7	-0.14353143
184	0xbdf77533	-0.12082901
185	0x3cfd6da3	0.030936068
186	0xbb1969ee	-0.0023409086
187	0xbdc4648a	-0.09589489
188	0xbdd3849d	-0.10328028
189	0x3d02663d	0.031835783
190	0xbcd110aa	-0.025520641
191	0x3d2fe532	0.042943187
192	0xbd8b87d4	-0.068130165
193	0xbe086b89	-0.13322271
194	0xbdbdfa30	-0.09276235
195	0x3c21207c	0.009834405
196	0x3d0a0936	0.03370019
197	0x3dc157ca	0.094405726
198	0xbd98b2a1	-0.07455946
199	0xbd5f3802	-0.054496773
200	0xbdcb60aa	-0.099305466
201	0x3cce9752	0.02521864
202	0x3b9ef76e	0.0048512733
203	0x3c4865be	0.0122312885
204	0x3ca672cf	0.020318417
205	0x3d5f725d	0.054552425
206	0xbdd2d6db	-0.10294887
207	0x3d421737	0.04738542
208	0xbd438be8	-0.047740847
209	0xbe0c0ce9	-0.136768
210	0xbcffadc5	-0.03121079
211	0xbc23d93b	-0.010000522
212	0x3cbc67ed	0.022998774
213	0xbcaf4a77	-0.021397812
214	0xbdae18a9	-0.08500797
215	0xbbce9b6f	-0.00630515
216	0x3d4e9a22	0.05043996
217	0xbb8f85e5	-0.004379975
218	0x3c81fc49	0.01586737
219	0x3d2c7609	0.042104755
220	0xbd3154af	-0.04329365
221	0x3bbf22ef	0.005833022
222	0xbe1afa24	-0.15134484
223	0xbe0f83cb	-0.14015119
224	0xbd543011	-0.051803652
225	0x3bfd6ece	0.007734156
226	0xbdee8951	-0.11647285
227	0xbd0c7c59	-0.034298275
228	0xbc6bbe79	-0.014388674
229	0xbda9a79f	-0.08283924
230	0xbdd41329	-0.10355217
231	0x3d845847	0.0646215
232	0x3dc610bf	0.09671163
233	0x3d2fa584	0.042882457
234	0xbd7a903a	-0.0611727
235	0x3d46d94e	0.04854708
236	0x3c7e67be	0.015527664
237	0x3d5c72fb	0.05382059
238	0xbdf9bd2f	-0.12194287
239	0xbd1141ab	-0.035463016
240	0xbd6669f8	-0.056253403
241	0xbd9e19ef	-0.0771979
242	0x3d576a27	0.05259147
243	0x3d09ba70	0.033625066
244	0x3d69074c	0.056891724
245	0xbdb5e90a	-0.08882339
246	0x3c0861bf	0.008324086
247	0x3a6a9a2e	0.0008949366
248	0xbd875a10	-0.06608975
249	0x3d83784f	0.064194314
250	0xbda7ec6a	-0.08199389
251	0xbc50d6e4	-0.012746546
252	0xbd9f5657	-0.0778014
253	0xbde00268	-0.10937959
254	0xbc4f4cd2	-0.012652593
255	0x3d8df3c5	0.06931261

fc1.bias f4 [100]
0	0xbcd986b3	-0.026553487
1	0x3dc1b788	0.09458834
2	0x3e26b1c2	0.16278747
3	0x3cebc9fb	0.028782835
4	0x3e076931	0.13223721
5	0xbce79958	-0.028271362
6	0xbc567585	-0.013089542
7	0x3cc887d0	0.024478823
8	0x3e32a4be	0.17445657
9	0xbdaa59ec	-0.083179325
10	0x3cbf4e1c	0.023352675
11	0xbd039797	-0.03212699
12	0xbca2bd73	-0.019865727
13	0x3d6e6606	0.058202766
14	0x3da7b999	0.08189697
15	0xbcc2b574	-0.023768164
16	0xbd9390e8	-0.07205373
17	0xbcdc6653	-0.02690426
18	0xbd27ba3a	-0.040949084
19	0xbe1d4855	-0.15359624
20	0x3c0cf53c	0.00860339
21	0xbc8f2bb7	-0.0174769
22	0xbe22f6f1	-0.15914513
23	0x3e0cef47	0.13763152
24	0xbc4e0ff8	-0.012577049
25	0x3e2e2037	0.17004476
26	0xbd65c997	-0.056100454
27	0x3d47ada3	0.048749577
28	0xbc112678	-0.008859269
29	0xbd3cd387	-0.046100166
30	0x3e078044	0.13232523
31	0xbd907327	-0.070532136
32	0xbd039739	-0.03212664
33	0xbd9832df	-0.07431578
34	0x3d833689	0.06406886
35	0xbce12fb1	-0.027488561
36	0xbdc5644a	-0.09638269
37	0xbdb31b49	-0.087454386
38	0xbc94fb9d	-0.018186385
39	0xbd09f18f	-0.033677634
40	0x3e1cf713	0.15328626
41	0xbd18e252	-0.03732521
42	0xbd6392d6	-0.055559956
43	0xbd2f404f	-0.04278594
44	0x3da0ee77	0.078579836
45	0x3c9c3501	0.019068243
46	0xbd978f04	-0.07400325
47	0xbd0ba191	-0.03408963
48	0x3d809cf1	0.06279934
49	0xbdbde279	-0.09271712
50	0x3da642cb	0.081182085
51	0xbdf753dc	-0.12076542
52	0xbcc2b800	-0.023769379
53	0xbe1de68c	-0.15419978
54	0x3d88b4c1	0.06675101
55	0x3cc2d9e3	0.023785537
56	0xbcc37af8	-0.023862347
57	0x3c97a5ed	0.018511737
58	0xbd412cc5	-0.047161836
59	0xbcac661d	-0.021044785
60	0xbca3924b	-0.019967219
61	0x3d8256ec	0.06364235
62	0x3e155a3d	0.14585204
63	0xbcd37341	-0.025811793
64	0x3e2d80ad	0.16943617
65	0xbddbf952	-0.107409135
66	0x3df6a638	0.120434225
67	0x3cb466ba	0.02202164
68	0x3dd9a541	0.10627223
69	0x3e0ec3b8	0.13941848
70	0x3e082237	0.13294302
71	0xbd3d6190	-0.04623562
72	0x3c82f990	0.015988141
73	0x3d4e54f0	0.05037397
74	0xbcae1886	-0.021251928
75	0xbc9a33ff	-0.018823622
76	0xbcbfb391	-0.023401054
77	0xbd820793	-0.06349101
78	0xbd10eb61	-0.035380725
79	0xbd672776	-0.056434117
80	0xbd13c0c6	-0.036072515
81	0x3db47b3b	0.08812567
82	0xbc9db7e6	-0.019252729
83	0xbd8e0ccc	-0.069360346
84	0xbe0603cf	-0.1308739
85	0x3de228c8	0.11042935
86	0xbcee3641	-0.029078605
87	0xbce29d3f	-0.027662871
88	0xbe0d7c16	-0.13816866
89	0x3d96bde0	0.073604345
90	0x3bd6e48d	0.006558007
91	0x3c17e60a	0.009271154
92	0xbce00788	-0.027347341
93	0xbd4d62b8	-0.050142974
94	0xbd4f0dc3	-0.050550234
95	0x3da20e5d	0.07912896
96	0x3e053770	0.13009429
97	0x3dbe5229	0.092930146
98	0xbc6a5d0a	-0.014304409
99	0xbce84de9	-0.028357463

fc2.weight f4 [10, 100]
0	0x3d7613dd	0.060077537
1	0x3e2240f1	0.15845086
2	0x3defab72	0.117026225
3	0xbe05eb6c	-0.13078088
4	0x3e20178c	0.15633982
5	0xbf147790	-0.5799494
6	0x3c9c456d	0.019076074
7	0x3c499f65	0.012306069
8	0x3e10c407	0.14137278
9	0xbed96cb0	-0.42465734
10	0xbeae9773	-0.34099922
11	0xbe93d081	-0.28870013
12	0x3d59cf8e	0.053176455
13	0xbeb1dbcf	-0.34738013
14	0xbe0c460a	-0.13698593
15	0xbebf69ae	-0.37385315
16	0x3e105ca0	0.14097834
17	0x3e01b6ba	0.12667361
18	0x3e2c0ec1	0.16802503
19	0xbe3f5c17	-0.18687473
20	0x3d63e43d	0.055637587
21	0xbe1dfa33	-0.15427475
22	0xbe2d0ea4	-0.16900116
23	0x3ceba4d5	0.028765121
24	0x3db375ec	0.08762726
25	0x3e340583	0.17580228
26	0xbd8562aa	-0.06512959
27	0x3dbaff2d	0.09130702
28	0xbe081cae	-0.1329219
29	0xbd9872a4	-0.07443741
30	0x3ddb2d04	0.107019454
31	0xbebe25a1	-0.37138084
32	0xbf032c18	-0.51239157
33	0x3e1bb617	0.1520618
34	0xbd75e15b	-0.06002937
35	0x3d807903	0.06273081
36	0xbf012223	-0.50442713
37	0xbeff1974	-0.49824107
38	0x3dd0a676	0.10188
39	0xbd11754a	-0.035512246
40	0x3df9782a	0.121811226
41	0xbd53a288	-0.051668674
42	0xbf28004f	-0.6562547
43	0x3e6d55df	0.23177288
44	0x3be5bab6	0.007010783
45	0xbe33fe27	-0.1757742
46	0xbd38b551	-0.04509479
47	0xbd8dc966	-0.06923179
48	0x3dbe1c3e	0.092827305
49	0x3eaacbf3	0.33358726
50	0xbe60fba7	-0.21970998
51	0xbd599c7d	-0.053127754
52	0xbd41741e	-0.04722988
53	0xbea0f5ab	-0.3143743
54	0xbca0293f	-0.019550918
55	0xbe6ff850	-0.23434567
56	0xbd42a14e	-0.047517113
57	0x3eb511e7	0.3536522
58	0x3e229ff5	0.15881331
59	0x3c125975	0.008932461
60	0x3d1abf51	0.03778011
61	0xbe01fe34	-0.12694627
62	0x3db56e05	0.08858875
63	0xbd32c60c	-0.043645903
64	0x3e0d95b9	0.13826646
65	0xbef9b70e	-0.48772472
66	0xbe5dd505	-0.21663292
67	0xbd3f9903	-0.046776783
68	0x3df1c830	0.11805761
69	0x3e4f3ebf	0.2023878
70	0x3d91664a	0.07099588
71	0xbeadec3b	-0.33969292
72	0x3e913eed	0.2836832
73	0x3d83c1d4	0.06433454
74	0x3d9a1a12	0.07524504
75	0x3d8025f6	0.062572405
76	0xbde2f80b	-0.11082467
77	0xbe2895bb	-0.16463368
78	0xbc887407	-0.016656889
79	0x3d180ed1	0.037123505
80	0xbda80260	-0.08203578
81	0x3e0b3ce0	0.1359744
82	0x3c0cbbd3	0.008589703
83	0x3e8a76c0	0.27043724
84	0xbebdb6d6	-0.37053555
85	0x3e40afa7	0.18817006
86	0x3d40c764	0.047065154
87	0xbefeca41	-0.49763682
88	0xbf2f8f56	-0.6857809
89	0xbc5c926c	-0.013462644
90	0x3dffa17b	0.12481972
91	0xbebb460e	-0.36576885
92	0x3d0de6e8	0.034644037
93	0x3d862b4d	0.06551228
94	0xbe3c3b87	-0.18382083
95	0x3d8292b4	0.06375638
96	0xbca7bb2f	-0.020474998
97	0x3de31920	0.110887766
98	0xbd0cf8ce	-0.034416966
99	0xbdfc9611	-0.123333104
100	0x3dd3800b	0.10327157
101	0xbd399497	-0.045307722
102	0x3df5fadd	0.12010739
103	0x3d5de502	0.054173477
104	0x3deb00da	0.11474772
105	0xbf3e2842	-0.7428018
106	0xbbb49a60	-0.005511567
107	0x3e4e777b	0.20162766
108	0x3e2ab474	0.166704
109	0x3d56b7d7	0.052421417
110	0xbed8c56e	-0.42338127
111	0xbf318548	-0.69343996
112	0x3c6fd59a	0.014638329
113	0xbea5c86d	-0.32379475
114	0xbec181a2	-0.37794214
115	0xbf062612	-0.5240184
116	0xbd06eff8	-0.032943696
117	0x3cb9d68b	0.02268531
118	0x3e1198bf	0.14218424
119	0xbf019b05	-0.50627166
120	0xbd3c67ce	-0.045997433
121	0xbf43ddae	-0.7651013
122	0xbf10c174	-0.56545186
123	0xbecf63fe	-0.40505975
124	0xbabdf06c	-0.0014491207
125	0x3e4e9f6f	0.20178007
126	0xbebd91d7	-0.3702533
127	0x3daeeb3e	0.08540963
128	0x3d46236c	0.048373625
129	0x3d67eedf	0.05662429
130	0x3d4d05c5	0.05005433
131	0xbea83da6	-0.32859534
132	0x3e2fe613	0.1717761
133	0x3e2eeef4	0.17083341
134	0x3de32ae6	0.110921666
135	0xbd9da5d1	-0.076976426
136	0xbd551230	-0.052019298
137	0x3dc10d10	0.094263196
138	0xbdcd4b4c	-0.10024127
139	0xbd291c75	-0.041286904
140	0x3e181e56	0.14855322
141	0x3cd24300	0.025666714
142	0xbe40872f	-0.18801568
143	0xbe601b11	-0.21885325
144	0xbf1ed247	-0.6203961
145	0xbc9419a5	-0.018078635
146	0xbed1d9d1	-0.40986493
147	0x3db4a00b	0.08819588
148	0xbd1aeccf	-0.037823495
149	0x3cfc1a6d	0.03077432
150	0x3cda29e0	0.026631296
151	0xbe978370	-0.29592466
152	0xbe18090f	-0.14847206
153	0xbed48d70	-0.41514158
154	0xbec29da8	-0.38010907
155	0xbe2aa59b	-0.16664736
156	0xbd6ba444	-0.057529703
157	0x3e2c3f4e	0.16821024
158	0x3e669a85	0.22519882
159	0x3d3fa4aa	0.046787895
160	0xbd8c15b1	-0.06840075
161	0x3d67225c	0.056429252
162	0x3dfd3872	0.12364282
163	0xbdace778	-0.08442587
164	0x3e230b63	0.15922312
165	0xbcf72962	-0.0301711
166	0xbe95a7de	-0.29229635
167	0xbf0d5e78	-0.5522227
168	0x3def1418	0.116737545
169	0xbdf3e229	-0.11908371
170	0x3d85721c	0.06515905
171	0xbef1dd30	-0.47239065
172	0x3e9f5940	0.3112278
173	0x3daac8d8	0.08339089
174	0xbb212ad3	-0.0024592176
175	0xbea33bd4	-0.31881583
176	0x3dd2562d	0.10270343
177	0xbf20f6c6	-0.62876546
178	0xbda65a9b	-0.0812275
179	0x3cbd746c	0.023126803
180	0x3d9da593	0.076975964
181	0x3e015620	0.1263051
182	0xbcd88b02	-0.026433472
183	0x3e32c327	0.17457257
184	0xbf09ed3e	-0.5387763
185	0x3e647fd8	0.22314394
186	0xbdb2c7b3	-0.08729496
187	0xbe86e2cd	-0.2634491
188	0xbeebf972	-0.4608875
189	0xbdd67879	-0.10472197
190	0x3e13ab80	0.14420891
191	0xbed75270	-0.42055082
192	0xbc2d6d2a	-0.010585109
193	0xbd8fcd27	-0.070215516
194	0xbf088417	-0.53326553
195	0xbf125ba1	-0.57171065
196	0x3e1b47f4	0.15164167
197	0x3df13140	0.11776972
198	0x3c6c5226	0.014423883
199	0xbd931c28	-0.07183105
200	0xbd46497a	-0.048409916
201	0x3deaf881	0.114731796
202	0xbedde266	-0.4333679
203	0xbea322f9	-0.3186262
204	0xbecbdc16	-0.3981635
205	0x3d540522	0.051762708
206	0xbd475f7b	-0.04867504
207	0xbe7461ea	-0.23865476
208	0xbcf331f4	-0.029686905
209	0x3e3a2913	0.18179731
210	0x3e46d6d0	0.19417882
211	0xbd1380b3	-0.03601141
212	0x3cbed09b	0.02329283
213	0x3dde1582	0.10843946
214	0x3e4c3332	0.19941404
215	0x3ee109ad	0.43952695
216	0x3d2c1e57	0.04202112
217	0xbce56288	-0.028001085
218	0xbea59ff7	-0.32348606
219	0xbedcbddf	-0.4311361
220	0xbe810204	-0.2519685
221	0x3b6302e9	0.0034639186
222	0x3e432c5b	0.19059889
223	0xbdb93bf7	-0.090446405
224	0x3cc6c603	0.024264341
225	0xbe814975	-0.25251356
226	0x3ed96be4	0.42465127
227	0xbf13f4d4	-0.57795453
228	0xbe63c4d6	-0.22243056
229	0xbcf83213	-0.030297315
230	0x3d97cd8b	0.07412251
231	0x3e16419e	0.14673468
232	0xbd854dda	-0.0650899
233	0x3e19cfa0	0.15020609
234	0x3ed106e2	0.40825564
235	0xbdadddf1	-0.084895976
236	0xbe736425	-0.23768671
237	0x3e65d188	0.22443211
238	0x3ea17bf5	0.31539884
239	0xbc425422	-0.011860879
240	0xbe575c85	-0.21031387
241	0x3d6b3472	0.057423063
242	0x3dde16fa	0.10844226
243	0x3d1d0e6d	0.038343836
244	0x3ddd8105	0.10815624
245	0xbd3e6fb8	-0.046493262
246	0x3e44a0f1	0.1920202
247	0x3d0b87a7	0.034064915
248	0xbe13d7e1	-0.1443782
249	0x3d7f34a3	0.062306058
250	0x3dac9ae1	0.08427978
251	0x3c74219a	0.014900589
252	0xbd8e6c75	-0.0695428
253	0xbecd0af3	-0.40047416
254	0x3deb4355	0.11487452
255	0x3eaefe56	0.34178418

fc2.bias f4 [10]
0	0xbd7747c9	-0.060371194
1	0x3e2a7a6c	0.16648263
2	0xbe333989	-0.17502417
3	0x3e9a642c	0.3015455
4	0xbe2e40cb	-0.17016904
5	0xbe1d07a8	-0.15334952
6	0x3e32e5e3	0.17470507
7	0x3e10f6f9	0.14156713
8	0xbe076410	-0.13221765
9	0xbd972d0f	-0.07381641
