integrated_mfdwc_cnn_dcase/results/a-s1/best_FE_a-s1.pth (torch, 415473 bytes, 12 tensors)

conv1.weight f4 [32, 1, 7, 7]
00000000: f9dd 223e 2c13 a73d b30d 283d f885 b53d
00000010: b4a8 903d 5c18 8c3d e5b2 13bd ab64 103e
00000020: c6aa c03d 7abf 0c3c 201e 353d 5bff 86bd
00000030: fecd 583b 7731 d9bb 8bb9 933a 52e0 1d3d
00000040: f858 09bd 1a8b e1bb bfc7 06be abb7 07be
00000050: 6b12 93bd 5b89 8c3d 03ec bc3d 89f5 bf3d
00000060: dd64 c9bc a1f4 a3bd 5546 bcbd c40a ed3b
00000070: 6477 c0bc ad3b 9ebd 0d18 9ebd 7481 fd3c
00000080: 620d cfbd 9c54 70bd c4fe febd 098e 903d
00000090: f6be 983c 5db5 60bc 735b b83c dbfa a0bc
000000a0: 4f89 b2bd e1f6 21bc cf15 313d ff68 813d
000000b0: 33f6 0a3d c35c 71bc 4234 1abd 4b5c 8cbc
000000c0: 63fb 40bd 6ec9 7f3b 4589 893d aff9 853c
000000d0: 9932 063d 69aa ff3c 7fcf 9e3c 76e5 253d
000000e0: 5d45 b83d c290 c03d d9c9 283d a715 733c
000000f0: f28b 0d3c 72ed 3d3c 6afa 993d 3c6c efbc
00000100: a5ca 633d 13c2 4c3d 6012 293d 1b83 6bbd
00000110: 1916 8bbd 0f0e 85bd c1d3 413d c098 993c
00000120: b909 b23c ce1e d63c 7be6 63bc d054 13bd
00000130: 9b4d 723c 7fa8 95bc d61b 91bd 832b 39bd
00000140: 6fc2 07bd 1ef8 e5bd 4841 25be e39b 28be
00000150: 615e 04be 714a 37be 3c88 2ebe e31f 10be
00000160: 1816 05be 8ff4 05be 93b7 03be 7229 4abc
00000170: db63 203c 40b8 26bc 76f0 6f3c 3b59 cbbc
00000180: 56fb c03c 0db7 9bbc 60c8 003c 0890 b13d
00000190: 2ff5 633d ecb6 e13d ae31 863c b028 5b39
000001a0: b428 033e 7438 68bd 5d5d c23b 7109 ad3b
000001b0: f60f 623d 6144 203d f063 bcbc 0aa4 68bc
000001c0: 6c5c c33b aef4 3ebc f5ba 783d 851c 4839
000001d0: 503d 623b 35cf 553d 9221 9e3d 81b8 073d
000001e0: 73b2 a7bc 27f9 613c 295f c9bc 2f0f 823c
000001f0: ec3b ee3c b44d f63d ec29 9bbd 2a8d bdbd
00000200: 3836 a33d a9bd 8ebc 470b 00bd 7984 353b
00000210: 4358 ad3c d735 c9bd 9428 e5bd f23c a5bc
00000220: f275 c1bd d1e3 02be dea0 83bd 7178 7c3d
00000230: de5f d1bd 53f8 d3bd 2553 903d 2566 1dbd
00000240: 242a c1bd 52ba 84bc ddd9 ca3d 63fd 6fbd
00000250: 3bb8 61bd 3cb2 073e 88c8 183e eeea 053e
00000260: 26a0 ab3c 639d 8b3c 0eae 1abe d812 58bd
00000270: c897 963d c717 973d e572 2c3d bbef 64bc
00000280: 63f7 ac3d 0ed4 fcbd 59fa 043d 617d ad3c
00000290: 2369 73bc 4686 99bd bcfd fe3c 57a2 9e3d
000002a0: f67e 03bd 2cd7 793d d736 72bb 3b05 a73d
000002b0: 73dc 353d 2c92 f0bc 2024 da3d a5fd 06be
000002c0: f3c0 683d 7580 6fbc 0a74 e43c 86bb a1bd
000002d0: 1d37 aebd 6ad1 8e3d 7342 1bbe 28ba 33bd
000002e0: 582f 5bbd 28c1 bdbd cf60 58bd 3d20 9dbb
000002f0: 80d3 15bd 7c43 bbbc 957f aebc 8834 603b
00000300: 3642 18bd f94a 2c3d d246 04bd f3d4 5f3d
00000310: b787 463c d4d7 7c3d c3e8 723c 7119 84bb
00000320: 1069 7bbd 607f 07bd 2bc6 0abd 0e9b 023d
00000330: 7c41 433d 9a4b 8c3c f9ca 1f3c 2455 ccbc
00000340: e272 23bd 916b d7bb 9218 e6bd 8ddf c7bd
00000350: 73f4 0dbe 3806 07be bf63 38be 1a8d 29be
00000360: ddca 43be ea9d 09bd a7dc 9fbd b706 353c
00000370: daa4 c5bd c30b f8bd 24dc f2bd 1a65 66bd
00000380: 5b40 453c 42fe 013d eeae 97bc 14df 91bb
00000390: d498 1abd d2a3 3abd 4a06 28bd 96b9 9a3c
000003a0: 0365 92bc 8aab d53c 7856 e7bc fc76 d93a
000003b0: a2b2 05bd 46b3 5dbc bdda 823d efb0 0e3d
000003c0: 4c71 813d cf26 753d dcb7 583d 2196 133d
000003d0: de22 203d 1e5d 153d 6e29 2bbd 2a14 90ba
000003e0: afee eabc d2b3 a33d c9aa a43d a166 ef3b
000003f0: 911c 833c 49cf e73c da62 ee3a 10cf d1bc
0.15904988 0.081579536 0.04102869 0.08863443 0.070634276 0.06840584 -0.03605928 0.14100902
0.094075724 0.008590573 0.044218183 -0.06591674 0.0033081765 -0.006628211 0.0011270506 0.038544007
-0.033532113 -0.0068830373 -0.13162135 -0.13253658 -0.07181247 0.06862136 0.09224703 0.09373004
-0.024584228 -0.08005644 -0.09193102 0.0072339494 -0.02349443 -0.07726226 -0.07719431 0.030945517
-0.101099744 -0.05867444 -0.124509364 0.07058341 0.018645745 -0.013715115 0.022504544 -0.019650867
-0.08717596 -0.009885521 0.04323369 0.063188545 0.0339262 -0.014731589 -0.037647493 -0.017133852
-0.04711474 0.0039029974 0.06715635 0.01635441 0.032763097 0.031209188 0.019386051 0.040502034
0.08997605 0.0940261 0.041208122 0.014836705 0.008639323 0.011592256 0.07518466 -0.029226415
0.05561318 0.04998977 0.04127729 -0.05749808 -0.06791324 -0.06496822 0.047321085 0.018749595
0.021733152 0.026137736 -0.013909931 -0.035969555 0.01478901 -0.018268822 -0.070853874 -0.04520751
-0.03314441 -0.11228965 -0.16138184 -0.16465716 -0.12926628 -0.17899491 -0.17044157 -0.14074664
-0.1299671 -0.13081573 -0.12862997 -0.012338983 0.009789432 -0.010175765 0.014644733 -0.024822822
0.023557346 -0.019008184 0.007860273 0.0867005 0.055653747 0.11021218 0.016381111 0.00020900625
0.12808496 -0.056694463 0.00593154 0.0052806665 0.055191003 0.03912771 -0.022996873 -0.014199266
0.0059619453 -0.011655016 0.06072517 0.0001908411 0.0034521408 0.05219956 0.07721247 0.03313494
-0.020470833 0.013792313 -0.024581509 0.01587638 0.029081307 0.120265394 -0.07576355 -0.092554405
0.07969326 -0.017424421 -0.031260755 0.0027697368 0.02116025 -0.09824722 -0.1118938 -0.020170663
-0.094463244 -0.12782218 -0.06427167 0.0616383 -0.10223363 -0.103500985 0.070471086 -0.03842749
-0.09431866 -0.016202126 0.099048354 -0.058591258 -0.055107336 0.13251585 0.14920247 0.130779
0.020950388 0.017042821 -0.15105459 -0.052752346 0.07353169 0.07377582 0.04210176 -0.013973172
0.08445623 -0.12345134 0.032465313 0.02117795 -0.0148566095 -0.07496314 0.03112685 0.077458076
-0.0321035 0.06099622 -0.0036958957 0.081552945 0.04439969 -0.029366575 0.106514215 -0.13182695
0.056824636 -0.014618029 0.027887363 -0.078970954 -0.08506606 0.06973536 -0.15162067 -0.043878704
-0.053511947 -0.09265357 -0.0528267 -0.004795103 -0.036578655 -0.022859327 -0.02130107 0.0034210999
-0.03717252 0.042063687 -0.032294102 0.054646444 0.012117318 0.061729267 0.0148260025 -0.004031353
-0.061379492 -0.03308046 -0.033880394 0.031886153 0.047669873 0.017125893 0.009752982 -0.024942942
-0.039904483 -0.006574102 -0.11235155 -0.09759436 -0.13862781 -0.13185966 -0.180068 -0.16557732
-0.19120355 -0.033597864 -0.07805758 0.011048964 -0.096505836 -0.12111618 -0.11858395 -0.05624876
0.012039269 0.03173662 -0.01851603 -0.004451642 -0.037743405 -0.045566387 -0.041021623 0.018887322
-0.017870432 0.026082773 -0.028239474 0.0016591246 -0.03264106 -0.013531512 0.06389377 0.034836706
0.06320438 0.059851464 0.052909717 0.036031846 0.039095752 0.036465757 -0.041787557 -0.0010992337
-0.028678266 0.079932824 0.08040387 0.0073059355 0.016004832 0.028297083 0.0018187419 -0.02561143

conv1.bias f4 [32]
00000000: 26ff 043d 3e7f 983a e735 66bc ce1f 35bc
00000010: e93b 813b 6388 4d3b 02db 1cbc 4986 9abb
00000020: a975 41ba 8ce3 ca39 c386 b03b c9f4 0c3b
00000030: b5c7 07bb 881e 713a c1f5 a2b9 094b 18bb
00000040: 3aa6 cbbb 3a19 84bc 4af3 9bb8 9ca1 5bbc
00000050: 7a52 b43b 2332 803c 42e8 53bc 1d28 0a3d
00000060: a723 2c3a f694 0c3a 96de 68bc 1e81 5fba
00000070: a6a5 b13b 242f 4aba 4c29 80ba 0d0c d53a
0.03246989 0.0011634601 -0.014050937 -0.011054946 0.0039439094 0.003136181 -0.0095737 -0.004715715
-0.00073798985 0.00038697978 0.0053871586 0.0021508208 -0.00207184 0.000919797 -0.0003108215 -0.0023238084
-0.006214884 -0.01612531 -7.436292e-05 -0.01340523 0.005502996 0.015648907 -0.012933793 0.03372966
0.0006566592 0.0005362773 -0.014213225 -0.0008526015 0.005421358 -0.0007712713 -0.0009777932 0.0016254202

bn1.weight f4 [32]
00000000: 7936 6a3f 9a9b 433f 3e07 333f f111 8a3f
00000010: 43ba 403f 6c41 393f 03ee 0a3f ccbe 473f
00000020: afc2 573f 9afd 413f c230 823f 6631 523f
00000030: d392 4f3f 5421 613f f8e0 053f 4e6b 4a3f
00000040: 9ab4 753f 3d6e a93f cba3 873f 4277 543f
00000050: 3c96 4d3f 7f80 a73f 6a62 6c3f 57b4 843f
00000060: 711d 493f 22c5 443f 55b7 b53f ef9b 4a3f
00000070: b7a4 463f b4c4 093f aca8 403f 03fe 573f
0.9148937 0.76409304 0.69932926 1.0786725 0.7528421 0.7236545 0.5426943 0.7802551
0.8428144 0.7577759 1.017113 0.82106626 0.8108341 0.8794148 0.522964 0.79069984
0.959787 1.3236767 1.0596861 0.82994473 0.80307364 1.3086089 0.9233767 1.0367535
0.7856055 0.768633 1.4196573 0.79144186 0.77595085 0.5381577 0.7525737 0.84371966

bn1.bias f4 [32]
00000000: 6e44 1abc 9b69 16bf 039a 17be 7b64 0fbd
00000010: 169c 16bf d585 0cbf 2d78 16bf d7c5 cabe
00000020: 7f39 12bf 7f20 19bf f7c5 1abf 3579 d2be
00000030: 0009 28bf 1cf6 ecbe f2c5 21bf eb1e e4be
00000040: bcb8 87be d099 95be bcd1 90be 9ccb e3be
00000050: aa69 a2be 3729 8ebe aea8 5bbe 6523 71bd
00000060: cd61 09bf 0d2e 16bf 64a2 8fbe 1f5f 0cbf
00000070: b9d7 e3be 8e75 2fbf 1646 10bf 41a4 14bf
-0.009415729 -0.5875489 -0.14804845 -0.035007935 -0.5883192 -0.5489171 -0.58777124 -0.39604065
-0.5711898 -0.5981521 -0.6045832 -0.411081 -0.6563873 -0.46281517 -0.63192666 -0.4455484
-0.2650813 -0.29218912 -0.28285015 -0.4449128 -0.3172124 -0.2776582 -0.21451065 -0.058871645
-0.5366486 -0.5866402 -0.28053582 -0.54832643 -0.4450052 -0.6853875 -0.5635694 -0.5806313

bn1.running_mean f4 [32]
00000000: 8eed 103d c82c 8d40 01d1 3abe b055 b4be
00000010: 0e1a b740 8def 5a40 6990 b440 7b0b a3c0
00000020: edce b940 9f93 1b41 145f b2bf 0070 e1bf
00000030: 75b7 9940 d865 c8bf 067c 2041 3bb1 2ec0
00000040: a501 94be 7422 14bf 32a7 c03b 18a8 14c0
00000050: cc14 a6c0 9a8b 47bf 07f6 f4be 3400 0c3f
00000060: 9dee 4041 977f 3a41 96e8 49bf b139 9040
00000070: 9c04 5ac0 f9af de40 598e fd40 4209 b040
0.0353828 4.4117165 -0.18243791 -0.35221624 5.7219305 3.420871 5.642628 -5.0951514
5.8065095 9.72354 -1.3935266 -1.7612305 4.8036447 -1.565608 10.030279 -2.7295673
-0.28907505 -0.5786507 0.0058793062 -2.3227596 -5.1900387 -0.7794739 -0.47843954 0.5468781
12.058255 11.65615 -0.7887052 4.5070424 -3.4065313 6.958981 7.9236264 5.50113

bn1.running_var f4 [32]
00000000: 9160 cd40 1b77 8642 0b62 0e41 de3a b040
00000010: 7b5f a142 b08b 1042 ceb8 8a42 d47c 9942
00000020: 2879 ad42 dfeb 7143 a0e4 0341 e65d 3641
00000030: 4abc 9042 f6a7 4841 059d 5a43 c41b a241
00000040: 7061 2d40 5651 2641 00e8 b740 6aaa 6f41
00000050: 1fd5 9042 6a9a f940 a902 7d40 f02f bb40
00000060: e2c2 a543 cd23 9943 d02e 4341 8a75 6f42
00000070: 7d29 d741 4494 d542 0066 1643 2d6f a142
6.418038 67.23263 8.898936 5.507186 80.686485 36.136414 69.36095 76.743805
86.73663 241.92137 8.243317 11.397924 72.36775 12.541006 218.61336 20.263557
2.709072 10.394857 5.7470703 14.979105 72.41625 7.8000994 3.9532874 5.8496017
331.52252 306.2797 12.198929 59.864784 26.895258 106.78958 150.39844 80.71714

conv2.weight f4 [64, 32, 7, 7]
00000000: 3504 b4bd 89ec 3bbd 4460 e63c 7eb6 06bd
00000010: 9fa2 1bbe 8d49 f6bd 42d2 0bbe 608d 4b3d
00000020: e044 ec3b f5df 953d ea5d 2d3d 7cb0 50bd
00000030: c436 2f3d 765f 583d 7209 ff3c 8b68 95bc
00000040: 35ef 683c 70cc 4abc 355e 353c 8ffc cd3d
00000050: f65c 96bb cdfc 863d 3e52 773d a7f8 d53d
00000060: 2756 233a 891d e13d c1fa 093e 4606 1a3d
00000070: 66f0 e0bd 1b3d 31bd b2ff b2bd 00ae 97be
00000080: fb4f aa3c 7341 d13d b46c 03be 0c49 123c
00000090: 9c6c 9c3b 2cd6 a73c 3d08 2dbd 1622 2fbd
000000a0: 1c98 3abc fa65 823b 093b 09bd 190e dabd
000000b0: ca8e 41bc 5cb9 89bd 6ee4 d13d 0656 32bd
000000c0: d44e c4bd a8d4 41bd 3678 b7bd 93be 91bd
000000d0: 4c64 96bd f489 f0bd 9e0c e1bd 4bec 12be
000000e0: 0bb2 533d c215 033d 76c1 013d 3cb1 5b3b
000000f0: b382 4ebd d49e 64bd cd5d 5ebd 81f8 943d
00000100: a013 b33d 484a 473d 5a0a 223d b755 31bd
00000110: 3b4b f13a 1103 00bd 4a30 eb3c f50f 12bd
00000120: c2fa e63c 98d8 be3c d712 12be 8966 19be
00000130: 51bd bfbd 77b1 10bb c55f 7abc 776c 283b
00000140: 76da 55bc 6e02 c2bd bf91 1cbd 3163 8dbd
00000150: 12d4 563d a8ea 333d 438c af3c 8302 7b3d
00000160: 566d 6bbc 7317 0cbd 5775 a33b f54e 09bd
00000170: f870 89bd b540 94bd 7999 a9bd d521 cfbd
00000180: 4a50 eabd ebe5 d8bd 3bff 8dbb 01dc cfbb
00000190: 7ef7 143d 1b9f 653d 8895 7dbd 448e 65bd
000001a0: b658 193c d6d5 a43d c42d 333d c662 883d
000001b0: 39cf 4b3d 0f1b c93c 02bf 6d3b 3fc9 573d
000001c0: 04e7 393d c4ba 463d 3f8e 983d 7b41 e03d
000001d0: cd7e fd3a 7f1d d4bc b618 443c 037a ae3d
000001e0: 178f 913b a706 a03d 495c ff3d 05ea 2fbd
000001f0: fa02 29be 2bfc 62bd e5b9 13bd 180e d2bd
00000200: 335d 65bd 04e8 b53d d5c6 2ebc 0487 eebd
00000210: 2631 c0bd 4e53 02bd b404 9ebc 4c0d 52bd
00000220: fd22 5b3d 10d3 623d 3478 afbd 0ae5 bdbc
00000230: 096f 933a 1ad7 a73c 9d72 febc 6416 95bc
00000240: f625 e6bc 401d e63c 040b 97bc 83c1 273d
00000250: 6c6e ad3c 5c72 663d 970b 643d a3e4 1ebb
00000260: a22c 09bd a643 5cbb 4fc9 883d 62ea 343d
00000270: 187e dabb 0d6d 323e 9d73 d43d e48c 763c
00000280: 682f 3a3c 2bc4 6abc fc99 ba3c 9644 66bb
00000290: d0bf ee3d 09cc 53bd 8edf 27bd dbcc 8a3c
000002a0: 9822 e03c 8c58 44bd a758 923d 98fa 073e
000002b0: e13c 40bd 23c0 fcbd 6a6c 3bbd d8e6 e5bd
000002c0: f072 84bd 97b7 58be 3383 983d 447c dc3d
000002d0: efd3 7dbe 2473 40be 73fe 043d 5a67 403c
000002e0: 93c7 99bd 117f d43d 58a7 043e 835e d1bd
000002f0: 6bb8 12bd 6ef0 20bc 92dd 073d 2b15 ee3d
00000300: 2063 ec3d d8c0 033b cc85 ea3d 7bb9 e43d
00000310: 4324 1ebd 219e 95bc 1d0c e6bc 12e1 c0bd
00000320: 00a0 b8bd 622d a5bd e695 29bd ec97 8f3c
00000330: c4e6 32bb 7f19 513d bb65 f8bb 5736 30bd
00000340: 4dbe f2bc 196b 1abd 1f94 3b3d 00a0 533d
00000350: 2c04 0b3d c223 3b3d 9cc1 36ba 2c1b 843d
00000360: b350 543d e1e8 333d 651f d13b 65d6 ad3c
00000370: 4790 0f3d ed9f babd a2e5 84bd cad6 89bd
00000380: a6d5 553d baa6 873d 9049 073d f933 323d
00000390: 1bdd b1bd 6a99 cebd dd37 79bd a7f7 423c
000003a0: 677f 083d aa29 463d 0383 293c df6b 90bc
000003b0: cb9c 1fbd a7a2 a4bc 6dd9 c0ba 6313 e6bb
000003c0: e693 ad3c c31f 95bc 267c 55bd 487c 9ebd
000003d0: 16da 85bd daa9 55bd 8feb 55bd 07ae 36bd
000003e0: 8f4d abbd 23b8 e6bd 5b6e 7abd 24fc 02be
000003f0: 142b 4b3d 36f9 823c 53ed d23c b9ea c6bc
-0.08789865 -0.045879874 0.028122075 -0.03288888 -0.15198754 -0.120257474 -0.13654426 0.049695373
0.007210359 0.07318107 0.04232589 -0.05094956 0.042776838 0.052825414 0.031132434 -0.018238327
0.014217188 -0.012377843 0.011069824 0.10057937 -0.0045887185 0.06591187 0.060381167 0.10447817
0.0006230794 0.109919615 0.13474561 0.03760364 -0.10983352 -0.043271165 -0.08740176 -0.2962494
0.02079009 0.102175616 -0.12834436 0.008928549 0.0047736894 0.020487867 -0.042244185 -0.042757116
-0.011388805 0.0039794417 -0.033503566 -0.1064722 -0.011813829 -0.067248076 0.10248648 -0.04353907
-0.09585348 -0.047321945 -0.08958475 -0.07116427 -0.07343349 -0.117450625 -0.10988735 -0.14347951
0.051683467 0.03200317 0.03167864 0.0033522388 -0.050417613 -0.055815533 -0.054288674 0.07273961
0.087439775 0.048654824 0.039560653 -0.043294635 0.0018409261 -0.031252924 0.02870955 -0.03565975
0.028195743 0.02329664 -0.14265 -0.1498052 -0.09362281 -0.0022078434 -0.015281622 0.0025699416
-0.013052573 -0.0947312 -0.03822493 -0.06903685 0.05244834 0.043924958 0.021429187 0.061281692
-0.014369329 -0.03420205 0.0049883532 -0.033522565 -0.06711 -0.072389044 -0.08281226 -0.10113875
-0.11441095 -0.10590728 -0.0043334044 -0.006343365 0.03636884 0.056059938 -0.061910182 -0.05604388
0.009359529 0.080485985 0.043744817 0.066594645 0.04975817 0.024549035 0.003627718 0.052682158
0.04538633 0.048517957 0.07449006 0.109499894 0.0019340158 -0.025892971 0.011968782 0.08519366
0.0044421065 0.07813769 0.12468774 -0.042947788 -0.16505042 -0.055416267 -0.036065955 -0.102565944
-0.055997085 0.08882144 -0.010667522 -0.11646846 -0.09384374 -0.031817727 -0.019289352 -0.051282212
0.053500164 0.055377066 -0.08567849 -0.023180503 0.0011248301 0.02048831 -0.031060511 -0.018199153
-0.028094273 0.02809012 -0.01843787 0.04095603 0.021170817 0.056261405 0.055675115 -0.0024245165
-0.03348983 -0.0033609658 0.066790216 0.044168837 -0.0066678636 0.17424412 0.10373614 0.015048239
0.011363842 -0.014328997 0.022778504 -0.0035136095 0.11657679 -0.051708255 -0.040984683 0.016943386
0.027360246 -0.047936007 0.07145815 0.13279188 -0.04693306 -0.12341335 -0.04575769 -0.112256706
-0.06467235 -0.21163784 0.07446899 0.10765889 -0.24787878 -0.18793923 0.032469224 0.011743391
-0.07508769 0.103757985 0.12954462 -0.10223105 -0.035820406 -0.009822948 0.03317029 0.11625131
0.11542344 0.0020103958 0.11451301 0.1116819 -0.0386088 -0.018263878 -0.028081948 -0.09417929
-0.090148926 -0.08065297 -0.04140272 0.017528497 -0.0027298192 0.051049706 -0.0075804866 -0.043020573
-0.029631758 -0.037699793 0.045795556 0.05166626 0.033939525 0.0456884 -0.0006971599 0.06450495
0.051834773 0.043923263 0.0063819163 0.021220395 0.035049703 -0.09112535 -0.064891115 -0.06730421
0.052205704 0.066235974 0.03302914 0.043506596 -0.08684751 -0.10087855 -0.06084429 0.011899865
0.033324625 0.048379578 0.010346177 -0.017629562 -0.03896789 -0.02009709 -0.0014713235 -0.007021354
0.021188688 -0.018203622 -0.05212035 -0.077385485 -0.06535737 -0.052163936 -0.0522266 -0.04459956
-0.083644025 -0.1126559 -0.0611404 -0.12791497 0.04960163 0.015987974 0.02574793 -0.024281846

conv2.bias f4 [64]
00000000: 6a3f e3ba 8985 f0bb 4523 003a 6dc0 deb8
00000010: e8b9 193b e69f 5139 62bb 21bc 8580 003b
00000020: cadc 3e3a 129b f33a a73e 8439 2bb2 d039
00000030: 6ffa 17bb 2486 deba 0cfe de39 44aa 593a
00000040: a075 1dbb f08f e6ba 7555 c33a a4a6 bb39
00000050: 849d 243b 941d 4a3b 6f37 b1b7 f3c5 c5b9
00000060: aa15 a7bb 09ff 7dbb 28f9 e2b9 94f0 4aba
00000070: f67a 70b9 cbbb afba a0ea c7ba e454 4f37
00000080: 0483 5dba 6e16 ed3a 832d 2339 19f8 8dbb
00000090: 94be 463a df84 123a 76c4 79bb 3364 c9ba
000000a0: e31f 9bba ea68 4cba 64db fdba e7f8 92bb
000000b0: ef9d eaba 311a 003b 3696 6e39 78ea 88bb
000000c0: 5d62 7bba e265 83b9 585d 03bb 8939 d03a
000000d0: eb3c 67bb 5ab6 5e3a b05f 4e3a 472c a2bb
000000e0: 10d9 f4b9 95c3 4d38 e4a6 b338 efbc 1cba
000000f0: 4bc9 a93a aff9 2b3b 54f7 d3ba 1184 c439
-0.0017337624 -0.0073401374 0.0004888068 -0.00010621627 0.0023456756 0.0001999136 -0.009871336 0.0019607854
0.0007280825 0.0018585643 0.00025223682 0.00039805597 -0.0023190042 -0.0016977233 0.0004253242 0.00083032646
-0.0024026409 -0.0017590504 0.0014902788 0.00035791576 0.00251183 0.0030840384 -2.1125858e-05 -0.00037722252
-0.005099018 -0.003875675 -0.00043291715 -0.00077415374 -0.0002293399 -0.0013407407 -0.0015252419 1.2357927e-05
-0.0008450004 0.001808835 0.00015561846 -0.004332554 0.0007581499 0.00055892573 -0.0038111485 -0.0015364945
-0.0011835065 -0.0007797616 -0.0019367752 -0.004485238 -0.0017899851 0.0019546861 0.00022753407 -0.0041783415
-0.00095895474 -0.00025062176 -0.002004465 0.0015886287 -0.0035284113 0.00084958004 0.0007872535 -0.004949126
-0.0004670103 4.905796e-05 8.566471e-05 -0.0005979081 0.0012953667 0.0026241352 -0.0016171732 0.0003748243

bn2.weight f4 [64]
00000000: 1018 983f 8093 b43f 804d 933f 575d 9e3f
00000010: 3864 843f b740 8f3f 2f97 c13f 9f9c 943f
00000020: 8705 913f e474 8f3f 62d7 883f ef3f ac3f
00000030: 5c0c 903f c805 b03f c85a 9a3f 6450 b83f
00000040: 059f 913f c782 aa3f 554a b03f 65d1 c93f
00000050: 4e2c a63f 4fc3 bc3f 7ec3 ac3f 1daa 933f
00000060: 3408 883f 5c1b 983f 6b59 bf3f 88bf 903f
00000070: 9563 953f fa1a 863f ed56 b43f 06d0 853f
00000080: e354 aa3f 2744 a53f a777 9b3f f281 a73f
00000090: d680 ae3f 7979 9e3f 6cc8 933f 50d7 a93f
000000a0: bf64 973f c3df 903f bdc6 903f 49f5 a23f
000000b0: 9eca 813f 2b86 a43f 3234 843f 82a1 c23f
000000c0: 3f9b 713f 9a37 9c3f 7d45 9c3f 73c7 993f
000000d0: e9f3 9d3f a174 bb3f 67dd a43f e474 9f3f
000000e0: 4a02 863f 2256 b43f 942a 8e3f bc10 8b3f
000000f0: d21a 963f 7d93 ad3f efaa 903f 85c8 9d3f
1.1882343 1.4107513 1.1508026 1.2372235 1.0343084 1.1191624 1.5124263 1.1610297
1.1329812 1.1207547 1.069073 1.3457011 1.1253772 1.3751764 1.2058954 1.4399533
1.1376654 1.332116 1.3772684 1.5767027 1.2982271 1.4747103 1.349716 1.153629
1.0627503 1.188335 1.4949163 1.1308451 1.1671015 1.0476983 1.4089028 1.0454109
1.3307155 1.2911423 1.214589 1.3086531 1.3633068 1.238082 1.1545539 1.3268833
1.182762 1.1318287 1.131065 1.2731105 1.0139959 1.2853445 1.0328429 1.5205538
0.9437751 1.2204468 1.2208706 1.2013992 1.234006 1.4644967 1.2880067 1.2457547
1.0469449 1.4088786 1.1106744 1.0864482 1.1726935 1.3560635 1.1302165 1.2326819

bn2.bias f4 [64]
00000000: 7f12 eebe 25a9 adbe 0305 93be 776e 31be
00000010: 5481 90be a621 a2be aabd adbe 64cf 24be
00000020: e30f 91be ff75 28be a0f4 a1be 4f1b b5be
00000030: c07a 4abe 716e 92be 0b91 29be ff15 aabe
00000040: 7054 98be c85e d3be c644 eebe d00d 92be
00000050: 45c2 9ebe b2ba 4fbe 48c5 79be 1c62 27be
00000060: c035 91be 65ce bfbe 3a18 69be 7b8a 9abe
00000070: d0f4 87be a658 61be 3efd 9cbe 0aaf 7abe
00000080: 5551 d7be d036 9fbc 7b06 e6be 973d bbbe
00000090: 98f0 45be 4c7e 7bbe 8e78 65be 80b2 a5bd
000000a0: 1753 63be b9e3 b8be 10a9 3fbe be46 acbe
000000b0: b84b bbbe 5eb1 3ebe d339 53be 3cdb a4be
000000c0: 2741 9cbe 759c 5ebe 42b6 a6be 2fcc bfbe
000000d0: de77 07be efa0 56be c35d c6be 5fed cebe
000000e0: ff74 77be 3556 a4be 6fcd 8bbe 0fe1 adbe
000000f0: 8c94 06be 5369 21be ba28 65be e481 55be
-0.46498486 -0.3391811 -0.2871476 -0.17327295 -0.2822367 -0.31666297 -0.33933765 -0.16094738
-0.28332433 -0.16451262 -0.31631947 -0.35372397 -0.19773388 -0.28599885 -0.16559236 -0.33219907
-0.2975192 -0.4128325 -0.46536845 -0.28526163 -0.3100759 -0.20286062 -0.24391663 -0.1634602
-0.2836132 -0.37462154 -0.22763148 -0.30183777 -0.26553965 -0.22006473 -0.30661958 -0.24480835
-0.4205424 -0.019435316 -0.4492682 -0.36570427 -0.1933006 -0.24559897 -0.22409269 -0.08090687
-0.22199665 -0.3611124 -0.18716836 -0.33647722 -0.36581206 -0.18622348 -0.20627527 -0.32198513
-0.30518457 -0.21739371 -0.32560927 -0.37460467 -0.1322932 -0.20959829 -0.3874341 -0.40415475
-0.24165724 -0.3209702 -0.2730517 -0.3396077 -0.13142604 -0.15762834 -0.22378817 -0.2085033

bn2.running_mean f4 [64]
00000000: df4f 0cc0 9a24 c0be 2c3b 58be ce55 45bf
00000010: 37d2 d4bf 37b3 32c0 f14f 53bf 18b5 8640
00000020: 65c3 bd3f e94d 3f40 d19f efbf 560a 7bc0
00000030: f85e 94bf 2d17 78c0 713e dbc0 92a0 a9bf
00000040: db41 8c3f 33f9 3ec0 a314 66c0 11ae f1c0
00000050: 9e37 91c0 4473 9dc0 5e0e 10c0 a6d5 02c1
00000060: 18c4 e13e 6da6 22be 5e8f c0c0 52b9 3fc0
00000070: b0e5 703e 821e 0940 7e37 8c3f afc2 cabe
00000080: 71b2 90bf 9825 31c1 663f 69c0 3592 18bf
00000090: 69f3 c8c0 c82c 1cc0 3a6c bebf 1c51 d0c0
000000a0: 458c 84c0 7c71 e0bf f3e4 3d40 6c6f ae3e
000000b0: 1edf d9bf e2b7 15c1 2334 e03f 9a77 cabe
000000c0: 73e9 ed40 c06a f0bf f55a c03f c512 4dc0
000000d0: b474 473e ceb4 0dc1 220a 2bc0 7d50 f2be
000000e0: d04a bebf 51ba d6bf fe70 98c0 480f 46bf
000000f0: f256 e0c0 abb3 e3c0 b169 38c0 081a 49be
-2.192375 -0.37527925 -0.21116322 -0.7708405 -1.6626652 -2.7921884 -0.82543856 4.209606
1.4825255 2.9891303 -1.8720647 -3.9225059 -1.1591482 -3.8764145 -6.8513722 -1.3252127
1.0957597 -2.98396 -3.5950096 -7.5524983 -4.538039 -4.9203205 -2.250877 -8.17716
0.4409492 -0.15883799 -6.017501 -2.995686 0.23525119 2.142487 1.0954435 -0.39601657
-1.1304456 -11.071678 -3.6444945 -0.59598094 -6.279713 -2.4402332 -1.4876778 -6.509901
-4.1421227 -1.7534633 2.967099 0.34069383 -1.7021215 -9.357393 1.7515911 -0.39544374
7.434747 -1.8782578 1.5027758 -3.2042706 0.19478112 -8.856642 -2.6724935 -0.47327033
-1.4866581 -1.6775609 -4.763793 -0.7736707 -7.0106134 -7.115682 -2.881451 -0.19638836

bn2.running_var f4 [64]
00000000: 3ec8 4441 ffab 9c41 41e5 b341 5140 9941
00000010: 63e0 4941 58dc d741 8984 6541 2965 8941
00000020: c791 3942 ae16 c341 6720 9841 c488 0942
00000030: fb19 9e41 30bb e441 b956 3642 c99d 6b41
00000040: 20f0 7241 f422 e841 01d9 0342 ff4a eb41
00000050: 85ec d641 de3a db41 c33a d941 26a4 9442
00000060: 27d1 7441 43a0 1441 9a4e 1742 7ce0 9941
00000070: e2a8 1042 b1f0 0942 cfff 2541 fd7a 7d41
00000080: f2a7 6141 891e 2d42 0048 ec41 13d3 d641
00000090: eea0 2b42 9e3e 1e42 e8de 7541 ea9e 2b42
000000a0: 7a89 2d42 75ab 6a41 ae8c 7241 a7ec cb40
000000b0: a67e d641 fab5 4342 3575 fd41 b065 8241
000000c0: 0582 1142 d870 b241 c30d 8841 ec57 ad41
000000d0: 8d17 7d41 0b7f e341 3e7e 8b41 e5dd 2441
000000e0: 7d72 9a41 3cc4 b241 1ad4 f541 5ebb 0742
000000f0: d386 3e42 b777 3342 a314 ec41 aaf0 ac41
12.298887 19.583982 22.48694 19.156404 12.617282 26.98259 14.344857 17.174395
46.39236 24.386074 19.015821 34.38356 19.762686 28.5914 45.58469 14.726022
15.183624 29.017067 32.961918 29.41162 26.865488 27.403744 27.153692 74.3206
15.301063 9.289126 37.82676 19.234612 36.164925 34.48505 10.374953 15.842526
14.103502 43.27982 29.535156 26.853064 42.907158 39.56115 15.36692 42.90519
43.384254 14.66686 15.159346 6.372638 26.81184 48.92771 31.68223 16.299652
36.376972 22.3051 17.00672 21.66793 15.81825 28.437033 17.436642 10.304173
19.305902 22.345818 30.728565 33.932976 47.631664 44.86691 29.510077 21.617512
