integrated_mfdwc_cnn_dcase/results/a-s1/CL_2025-12-20 08_07_48.977082.pth (torch, 109561 bytes, 4 tensors)

fc1.weight f4 [100, 256]
000000 bb 08 80 bd ea 99 dc 3b 67 51 c3 bd 1c 34 e3 bc
       -0.06251665 0.006732215 -0.09537011 -0.027734809
000010 2f c8 ae 3d 17 be a9 bc 11 39 e5 3c 7c ea 64 bd
       0.08534276 -0.020720525 0.027981313 -0.055887684
000020 61 fc 49 bd 57 0d b6 3c a6 7d 5b bd 5e 05 69 3d
       -0.049312953 0.022223158 -0.053586625 0.056889884
000030 be 8b 89 bc f9 62 21 3c ee d8 93 bd 89 12 44 bc
       -0.016790267 0.009850257 -0.072191104 -0.01196731
000040 c9 49 d1 bd dc ea 6a bd 82 eb e4 bd d5 7b 3e bb
       -0.102191515 -0.057352886 -0.11177732 -0.002906551
000050 74 13 c4 bd 3a 08 f4 bd c8 f1 41 3d d7 4c 3a 3d
       -0.09574023 -0.119156316 0.04734972 0.045483436
000060 3b 9e b1 bd b9 fb 7c 3c 66 9d 24 3d c5 2d 11 bd
       -0.08672758 0.015440875 0.04018917 -0.03544404
000070 4e 08 9c bd cd 81 24 bd ec 6c e7 bd 44 c8 2c 3d
       -0.076187715 -0.04016285 -0.11300072 0.042183176
000080 e3 5d 4b bd 9a 00 ed bd 89 e7 9e bd 17 39 fe bc
       -0.049650084 -0.1157238 -0.077590056 -0.031033082
000090 22 a9 c6 bd 8d d7 f5 bd 60 49 10 3c d9 df 26 3c
       -0.09700228 -0.12004004 0.008806556 0.010185205
0000a0 5b 68 ce bd 0d bd 25 3c 2b df d3 bd b4 8a 85 3c
       -0.10078498 0.010115874 -0.103453 0.01630149
0000b0 7c 84 0f be a8 fe 57 3d 1c 89 26 3d 3a 29 85 3c
       -0.14015383 0.052733094 0.0406581 0.01625501
0000c0 37 b2 1b 3c 4d 16 6f bd 10 cf f6 bd 53 ac 97 3d
       0.009502939 -0.058370877 -0.12051213 0.07405915
0000d0 bd 56 0a bd 75 8c 81 3d 65 0f d2 bd 5a e7 d0 bd
       -0.033774126 0.06325618 -0.102568425 -0.10200377
0000e0 7c f0 6d bd 9a f2 c6 3c d7 95 5b 3d 04 c9 47 bd
       -0.058090672 0.024285603 0.053609695 -0.048775688
0000f0 a1 fc 9e bd 4e bf 9c 3c f6 a0 5d bd 17 bb 9d 3c
       -0.07763029 0.01913419 -0.054108582 0.01925425
000100 e0 96 18 bc 7d 1c 17 bd a0 14 d3 bc f0 25 14 bd
       -0.009313315 -0.036892403 -0.02576667 -0.036168993
000110 83 f3 a4 bd 9f 31 f4 3c 36 7b 1a bd e4 7d fc bd
       -0.08054259 0.029808817 -0.03771516 -0.12328699
000120 e5 04 9c 3d c2 f4 d8 bd 01 9e 32 bd e2 93 24 bd
       0.07618121 -0.10593559 -0.043607716 -0.040180095
000130 13 68 c2 bd 58 5d 53 3d 96 a4 d0 bd e3 f6 95 3a
       -0.09492507 0.05160269 -0.10187642 0.0011441376
000140 4c 1e 6f 3d 97 dd 82 3d 09 f0 11 3d 22 7c 3e 3d
       0.058378503 0.06389921 0.035629306 0.0465051
000150 bc c8 96 3d ff ae e6 bc 87 44 ba bd f3 67 8d 3d
       0.07362506 -0.028159617 -0.09095102 0.06904592
000160 f2 3d a9 3c c8 ef 5e bd 6b 89 86 3d 06 7c 6c 3c
       0.02065942 -0.054427892 0.06569179 0.014433866
000170 2f c9 ff bc 1f a7 81 bd 51 c0 f7 bd 5a a5 6d ba
       -0.031223862 -0.06330704 -0.12097228 -0.0009065472
000180 cd 14 98 bc 38 97 12 3c f6 12 26 3d e7 fd 9e bd
       -0.018564606 0.008947186 0.040545426 -0.07763272
000190 44 f0 da bd 55 07 b5 bc e1 95 b9 bc e0 9a ca bc
       -0.10690358 -0.022098223 -0.022654476 -0.024732053
0001a0 0d 26 58 3d a0 62 c1 3d 01 88 0c bb 1c a7 43 bc
       0.052770663 0.09442639 -0.002144337 -0.011941697
0001b0 0d e3 b3 3d ea 5b ed bd 67 d3 78 bc a5 7a ff 3c
       0.08783541 -0.11589797 -0.015187121 0.031186411
0001c0 f2 da a1 bc ea 19 05 3d ac 3d 39 bb 75 21 8a bd
       -0.019757722 0.032495417 -0.002826552 -0.06744663
0001d0 4d 7c d1 bd 0b 72 a9 3c ca 41 e6 bd 14 37 14 be
       -0.102287866 0.020684263 -0.11243017 -0.14474136
0001e0 6a bd 16 3d e9 b7 56 bd 04 f8 24 3d ba 07 64 3b
       0.036801733 -0.052421484 0.04027559 0.0034794644
0001f0 3f e1 87 3d 41 1a 19 bd ac 0c 79 bc 84 06 69 3d
       0.06634759 -0.037378553 -0.015200775 0.05689098
000200 e8 8e 58 bd 97 a8 3a 3d 48 11 47 bd 79 4e 80 3d
       -0.05287066 0.045570936 -0.048600465 0.062649675
000210 53 0d 56 bd 6d 9e d2 bd c2 0b e5 bd c4 0d b3 bd
       -0.0522588 -0.102841236 -0.11183883 -0.0874286
000220 27 6f a9 bd e7 51 c6 3d a1 c0 3c bd bd f5 f7 3c
       -0.08273154 0.096835904 -0.046082143 0.030268544
000230 d6 0b fe 3c ec f2 f2 3c 21 57 9e bd cc f2 60 bc
       0.031011503 0.02965685 -0.07731462 -0.013729762
000240 60 06 45 3d 2a 77 5a bd bf 5d 81 bd 91 e9 33 bc
       0.048101783 -0.0533363 -0.06316709 -0.01098098
000250 3f 09 55 3a be c5 0d be fa 6b 97 bb 80 48 dc bd
       0.0008126683 -0.13844964 -0.004621026 -0.10756016
000260 f6 20 3e 3d fe 2e cb bd 2e ac a6 bc 9e 15 ce bd
       0.046418153 -0.099210724 -0.020345774 -0.10062717
000270 d3 f6 29 3d e6 22 10 bd a3 32 a5 3d 3e cf 96 bd
       0.041495156 -0.03518953 0.08066299 -0.07363747
000280 c2 fa 89 bd 2c cc 01 be 67 78 13 bd 51 7e 2c 3d
       -0.067372814 -0.12675542 -0.036003496 0.042112652
000290 85 f5 a1 3a 04 ad 0a 3d de 23 c4 3c a0 e4 7f 3d
       0.0012356496 0.033856407 0.023942884 0.062473893
0002a0 df bf 05 be d2 c2 a8 3c f6 31 f3 bd 4c b0 10 3c
       -0.13061474 0.02060071 -0.11874764 0.008831095
0002b0 da 83 95 3d c5 1b 2d bd ef be e1 bd db 3c 01 3d
       0.07300539 -0.04226281 -0.11022746 0.031552177
0002c0 1f 03 eb bd 55 1e 07 3d d3 df c9 bd 55 31 b0 bd
       -0.11475205 0.03298791 -0.09857144 -0.08603159
0002d0 7b 2c 48 bd 1e 83 23 bc 04 22 f6 3c e7 f9 12 be
       -0.048870545 -0.009979991 0.030045517 -0.14353143
0002e0 33 75 f7 bd a3 6d fd 3c ee 69 19 bb 8a 64 c4 bd
       -0.12082901 0.030936068 -0.0023409086 -0.09589489
0002f0 9d 84 d3 bd 3d 66 02 3d aa 10 d1 bc 32 e5 2f 3d
       -0.10328028 0.031835783 -0.025520641 0.042943187
000300 d4 87 8b bd 89 6b 08 be 30 fa bd bd 7c 20 21 3c
       -0.068130165 -0.13322271 -0.09276235 0.009834405
000310 36 09 0a 3d ca 57 c1 3d a1 b2 98 bd 02 38 5f bd
       0.03370019 0.094405726 -0.07455946 -0.054496773
000320 aa 60 cb bd 52 97 ce 3c 6e f7 9e 3b be 65 48 3c
       -0.099305466 0.02521864 0.0048512733 0.0122312885
000330 cf 72 a6 3c 5d 72 5f 3d db d6 d2 bd 37 17 42 3d
       0.020318417 0.054552425 -0.10294887 0.04738542
000340 e8 8b 43 bd e9 0c 0c be c5 ad ff bc 3b d9 23 bc
       -0.047740847 -0.136768 -0.03121079 -0.010000522
000350 ed 67 bc 3c 77 4a af bc a9 18 ae bd 6f 9b ce bb
       0.022998774 -0.021397812 -0.08500797 -0.00630515
000360 22 9a 4e 3d e5 85 8f bb 49 fc 81 3c 09 76 2c 3d
       0.05043996 -0.004379975 0.01586737 0.042104755
000370 af 54 31 bd ef 22 bf 3b 24 fa 1a be cb 83 0f be
       -0.04329365 0.005833022 -0.15134484 -0.14015119
000380 11 30 54 bd ce 6e fd 3b 51 89 ee bd 59 7c 0c bd
       -0.051803652 0.007734156 -0.11647285 -0.034298275
000390 79 be 6b bc 9f a7 a9 bd 29 13 d4 bd 47 58 84 3d
       -0.014388674 -0.08283924 -0.10355217 0.0646215
0003a0 bf 10 c6 3d 84 a5 2f 3d 3a 90 7a bd 4e d9 46 3d
       0.09671163 0.042882457 -0.0611727 0.04854708
0003b0 be 67 7e 3c fb 72 5c 3d 2f bd f9 bd ab 41 11 bd
       0.015527664 0.05382059 -0.12194287 -0.035463016
0003c0 f8 69 66 bd ef 19 9e bd 27 6a 57 3d 70 ba 09 3d
       -0.056253403 -0.0771979 0.05259147 0.033625066
0003d0 4c 07 69 3d 0a e9 b5 bd bf 61 08 3c 2e 9a 6a 3a
       0.056891724 -0.08882339 0.008324086 0.0008949366
0003e0 10 5a 87 bd 4f 78 83 3d 6a ec a7 bd e4 d6 50 bc
       -0.06608975 0.064194314 -0.08199389 -0.012746546
0003f0 57 56 9f bd 68 02 e0 bd d2 4c 4f bc c5 f3 8d 3d
       -0.0778014 -0.10937959 -0.012652593 0.06931261

fc1.bias f4 [100]
000000 b3 86 d9 bc 07 f0 b0 3d 8f 5e 1f 3e 51 a9 f7 3c
       -0.026553487 0.086395316 0.15563415 0.030232104
000010 42 8f 0e 3e e3 21 90 bc 1e 6f 58 bc e3 dc cd 3c
       0.13921836 -0.017594283 -0.013210086 0.025129741
000020 d4 27 2d 3e e7 e3 70 bd f2 c6 cf 3c d1 52 22 bd
       0.16909724 -0.058811095 0.02536342 -0.03962976
000030 73 bd a2 bc 2a 58 82 3d ba ad 9f 3d f5 d1 ab bc
       -0.019865727 0.06364472 0.077968076 -0.020974139
000040 2b 62 87 bd 53 66 dc bc ee 03 5f bd e7 0d 1c be
       -0.06610521 -0.02690426 -0.054447107 -0.15239678
000050 2c 92 b9 bb 71 c5 90 bc 16 43 0c be a4 d4 ff 3d
       -0.005663177 -0.017672272 -0.13697466 0.1249173
000060 f8 0f 4e bc 21 d4 29 3e 6f 57 45 bd 59 4a 59 3d
       -0.012577049 0.16584827 -0.048179086 0.05304942
000070 9f b5 bc bc 87 d3 3c bd 0d 01 03 3e 8e 17 88 bd
       -0.023035822 -0.046100166 0.1279337 -0.06645118
000080 1f 5f 03 bd 34 db 8d bd c0 32 5e 3d b1 2f e1 bc
       -0.032073136 -0.06926575 0.054247618 -0.027488561
000090 60 d1 c0 bd 14 3d a0 bd 21 68 17 bb 8f f1 09 bd
       -0.09414935 -0.0782415 -0.0023102837 -0.033677634
0000a0 2e 8b 19 3e 52 e2 18 bd b6 72 8d bd e6 15 f9 bc
       0.14994499 -0.03732521 -0.06906645 -0.03040595
0000b0 ab 69 91 3d 78 52 bf 3c ca 17 6e bd 91 a1 0b bd
       0.07100233 0.023354754 -0.058128156 -0.03408963
0000c0 ec 86 41 3d e6 2d c8 bd c0 22 85 3d c2 1d fc bd
       0.047247812 -0.097743794 0.06500769 -0.12310363
0000d0 00 b8 c2 bc 71 00 1c be d9 ec 49 3d 20 72 ff 3c
       -0.023769379 -0.15234543 0.04929814 0.031182349
0000e0 f8 7a c3 bc 5d b4 45 3c ed e3 44 bd 1d 66 ac bc
       -0.023862347 0.012066928 -0.04806893 -0.021044785
0000f0 4b 92 a3 bc 54 34 66 3d c4 f4 19 3e 41 73 d3 bc
       -0.019967219 0.056202248 0.15034777 -0.025811793
000100 50 bb 1e 3e 51 35 e5 bd a8 8a e5 3d 97 81 95 3c
       0.15501142 -0.1119181 0.11208087 0.01825027
000110 40 2a d2 3d 05 d1 fb 3d 15 97 f8 3d 12 53 53 bd
       0.10261965 0.12295727 0.121381916 -0.051592894
000120 78 0f 6e 3c 38 e6 4a 3d 86 18 ae bc c9 34 fb bc
       0.014530055 0.04953596 -0.021251928 -0.030664818
000130 91 b3 bf bc 68 0b 7c bd 61 eb 10 bd a6 1d 67 bd
       -0.023401054 -0.061534315 -0.035380725 -0.05642476
000140 c6 c0 13 bd 49 e8 b9 3d e6 b7 9d bc c7 e7 90 bd
       -0.036072515 0.09077508 -0.019252729 -0.07075458
000150 ea 98 fb bd 9e 54 eb 3d 41 36 ee bc 9c 72 bd bc
       -0.122850254 0.11490749 -0.029078605 -0.02312594
000160 48 32 07 be 6b 19 87 3d d7 0d b7 3c a1 3a 99 3c
       -0.13202775 0.06596645 0.022345467 0.018704714
000170 88 07 e0 bc dd 68 a1 bc 49 7c 55 bd 32 cb 90 3d
       -0.027347341 -0.019703323 -0.05212048 0.070700064
000180 be c7 ec 3d 09 4c ca 3d 0a 5d 6a bc e9 4d e8 bc
       0.11561535 0.09877784 -0.014304409 -0.028357463

fc2.weight f4 [10, 100]
000000 dd 13 76 3d fd a1 1b 3e 18 d9 ec 3d 59 0c 03 be
       0.060077537 0.15198512 0.11564845 -0.12797679
000010 1f 56 0d 3e 93 c0 0c bf f7 44 9c 3c af fb 99 bb
       0.13802384 -0.54981345 0.019075854 -0.0046991925
000020 65 b6 1c 3e ad 6b c3 be d8 6a 9c be 55 d0 95 be
       0.15303953 -0.38168088 -0.30550265 -0.29260507
000030 8e cf 59 3d df c8 ad be 31 41 01 be e0 31 ac be
       0.053176455 -0.33942315 -0.12622525 -0.33631802
000040 9b 1c fb 3d ba b6 01 3e 8e 45 1c 3e 0e a5 5b be
       0.122613154 0.12667361 0.15260908 -0.21449682
000050 da 43 a0 bb c8 74 1d be ee 7f 2b be dc 65 26 3d
       -0.004890901 -0.1537658 -0.1674802 0.040624484
000060 ec 75 b3 3d 94 c3 2e 3e 43 ff 2a bd 0e f3 8a 3d
       0.08762726 0.17066795 -0.041747343 0.0678464
000070 bd 2d e0 bd a4 72 98 bd d9 96 b4 3d d8 48 ad be
       -0.10946224 -0.07443741 0.088178344 -0.33844638
000080 07 74 fd be a2 ec 14 3e 93 c5 cc bc 03 79 80 3d
       -0.49502584 0.14543393 -0.024996554 0.06273081
000090 4f 83 f0 be 80 a7 eb be 7b 31 f2 3d 4a 75 11 bd
       -0.4697518 -0.4602623 0.11825844 -0.035512246
0000a0 d6 56 e4 3d 88 a2 53 bd 60 2a 29 bf e4 d9 3a 3e
       0.11149375 -0.051668674 -0.66080284 0.18247181
0000b0 41 cd 99 3a 3e 30 1e be 0e f1 d0 bc 66 c9 8d bd
       0.0011734144 -0.1544809 -0.025505569 -0.06923179
0000c0 47 89 e2 3d 02 f8 ab 3e d4 5f 3f be a7 72 6e bd
       0.1106134 0.33587652 -0.186889 -0.05821481
0000d0 1e 74 41 bd d1 38 a5 be 10 7c e8 3c 8a 49 67 be
       -0.04722988 -0.3226991 0.02837947 -0.22586647
0000e0 4e a1 42 bd 0d 89 b6 3e e6 22 23 3e 75 59 12 3c
       -0.047517113 0.35651436 0.15931281 0.008932461
0000f0 51 bf 1a 3d 94 1e 09 be bd 0e cf 3d 0c c6 32 bd
       0.03778011 -0.13390571 0.10110233 -0.043645903
000100 73 1a 02 3e b4 a3 e8 be 06 37 4f be 1f 0b 23 bd
       0.12705402 -0.45437396 -0.20235834 -0.039805528
000110 3a 24 db 3d 82 a0 4f 3e e4 9f 80 3d 99 a8 a4 be
       0.10700269 0.20276073 0.06280497 -0.3215988
000120 55 bd 89 3e ad 13 3e 3d 12 1a 9a 3d 04 9b 97 3d
       0.2690226 0.046405483 0.07524504 0.07402614
000130 0b f8 e2 bd e4 b2 29 be 07 74 88 bc 66 0f 18 3d
       -0.11082467 -0.16572148 -0.016656889 0.03712406
000140 60 02 a8 bd e6 1c 05 3e d3 bb 0c 3c 81 01 5f 3e
       -0.08203578 0.12999305 0.008589703 0.21777917
000150 4e ec b5 be 7a 32 26 3e 64 c7 40 3d 42 43 db be
       -0.3553185 0.16230193 0.047065154 -0.4282475
000160 5e 35 23 bf 18 91 83 ba fa 7d c8 3d 81 05 b7 be
       -0.63753307 -0.0010037748 0.09789653 -0.35746387
000170 e8 e6 0d 3d b3 3e 86 3d fb 55 51 be cb bb 47 3d
       0.034644037 0.06554928 -0.20442955 0.048763078
000180 05 59 1a 3c 11 8b ae 3d ce f8 0c bd 11 96 fc bd
       0.009420638 0.085226186 -0.034416966 -0.123333104
000190 0b 80 d3 3d 89 22 7d bd 5d 80 10 3e 4e 7a 8c 3d
       0.10327157 -0.061800513 0.14111467 0.06859265
0001a0 f9 ec f3 3d 1d 21 32 bf 49 72 ab bb 69 1d 48 3e
       0.11910433 -0.69581777 -0.0052321297 0.19542469
0001b0 cf 03 36 3e af 6d 08 3d c6 74 d2 be 93 c7 26 bf
       0.1777489 0.033307727 -0.41104716 -0.65148276
0001c0 9a d5 6f 3c 30 bd 9a be d7 0c b8 be fe 00 08 bf
       0.014638329 -0.30222464 -0.35947296 -0.53126514
0001d0 6e 96 e7 bc 8b d6 b9 3c 6d b7 23 3e 64 0a e9 be
       -0.028269973 0.02268531 0.1598794 -0.4551574
0001e0 05 75 c0 bc 89 ee 3e bf c4 aa fd be 7f a4 bd be
       -0.0234933 -0.74582726 -0.49544346 -0.37039563
0001f0 6c f0 bd ba 6f 00 69 3e 4c ab c6 be 1a 5f 8f 3d
       -0.0014491207 0.22754072 -0.38802564 0.07000561
000200 b0 6b 15 3d df ee 67 3d a5 3e 7e 3d 45 a2 90 be
       0.036479652 0.05662429 0.06207146 -0.28248802
000210 91 dc 2c 3e c9 7e 30 3e 3e 07 be 3d d1 a5 9d bd
       0.16881014 0.17235865 0.09278725 -0.076976426
000220 0e 00 75 bd a0 da ac 3d 54 61 d5 bd 75 1c 29 bd
       -0.059814505 0.08440137 -0.104189545 -0.041286904
000230 c5 a4 21 3e 00 43 d2 3c 49 ad 37 be 60 90 47 be
       0.15785511 0.025666714 -0.17937197 -0.19488668
000240 ab 0b 18 bf d4 29 cc bc aa 8e d0 be 0b a0 b4 3d
       -0.59392804 -0.024922289 -0.40733844 0.08819588
000250 ac 86 af bc 79 57 a7 3c 54 05 85 3b 2b 00 91 be
       -0.021426521 0.020427452 0.004059473 -0.2832044
000260 0f 09 18 be ae 3f bb be bf 14 ba be fb 09 35 be
       -0.14847206 -0.3657202 -0.36343953 -0.17679588
000270 44 a4 6b bd 8f f4 0c 3e e0 6a 59 3e aa a4 3f 3d
       -0.057529703 0.13765167 0.21232176 0.046787895
000280 b1 15 8c bd b9 b3 56 3d 12 06 e9 3d 78 e7 ac bd
       -0.06840075 0.05241749 0.11378111 -0.08442587
000290 a0 4c 24 3e 74 3a 26 bd fb 75 97 be cd b7 06 bf
       0.16044855 -0.04058309 -0.295822 -0.5262421
0002a0 e3 fe 09 3e de bd c2 bd 92 8e 4d 3d fc f4 e4 be
       0.13476138 -0.095088705 0.050184794 -0.44718158
0002b0 d8 00 9a 3e 19 6e cf 3d d3 2a 21 bb 6e 7c a1 be
       0.3007877 0.10128421 -0.0024592176 -0.31540245
0002c0 2d 56 d2 3d 37 68 19 bf 9b 5a a6 bd 12 7b bd 3c
       0.10270343 -0.59924644 -0.0812275 0.023129974
0002d0 93 a5 9d 3d 1d 37 08 3e 02 8b d8 bc bb 25 44 3e
       0.076975964 0.13302274 -0.026433472 0.19155018
0002e0 24 26 03 bf bd 17 6e 3e b3 c7 b2 bd ba 93 81 be
       -0.5123007 0.23251243 -0.08729496 -0.2530802
0002f0 dc e8 e1 be d9 f9 fa bd 64 82 19 3e ac 10 cb be
       -0.4412297 -0.12254686 0.14991146 -0.39661157
000300 2a 6d 2d bc 27 cd 8f bd ba 47 01 bf 46 49 04 bf
       -0.010585109 -0.070215516 -0.5050007 -0.51674306
000310 5a eb db 3d e6 99 0b 3e 26 52 6c 3c 28 1c 93 bd
       0.10738249 0.13632926 0.014423883 -0.07183105
000320 7a 49 46 bd 29 b4 d8 3d 5f 59 e0 be 09 50 96 be
       -0.048409916 0.10581238 -0.43818185 -0.29357937
000330 06 c6 c7 be 1a 13 37 3d 27 5f 47 bd 39 b2 58 be
       -0.39018267 0.04469595 -0.04867473 -0.21161737
000340 3f bf d2 bc 9f ab 24 3e c6 76 44 3e 7f 36 50 bd
       -0.025725959 0.16081093 0.19185933 -0.05083322
000350 9b d0 be 3c 19 32 e8 3d 0a 36 3f 3e 34 74 d7 3e
       0.02329283 0.1133768 0.18672958 0.42080843
000360 42 89 3c 3d 88 62 e5 bc a6 1e 8b be 52 34 cb be
       0.046029337 -0.028001085 -0.2717182 -0.39688355
000370 30 d5 6b be ad 54 6a 3b 56 6f 3f 3e da fe 9b bd
       -0.23030543 0.0035756037 0.18694815 -0.076169685
000380 03 c6 c6 3c 65 d4 7d be c8 b5 ce 3e 74 20 0b bf
       0.024264341 -0.24788053 0.40373063 -0.54346395
000390 9f fb 59 be 13 32 f8 bc e7 8f 9f 3d ae 9d 34 3e
       -0.21287392 -0.030297315 0.07791119 0.17638275
0003a0 75 79 a1 bd 91 1b 06 3e d2 9a b6 3e f1 dd ad bd
       -0.07884494 0.13096453 0.35664994 -0.084895976
0003b0 bf 2e 6b be 2f c6 59 3e fc 25 98 3e 22 54 42 bc
       -0.22967051 0.21267007 0.2971648 -0.011860879
0003c0 9f 12 52 be 72 34 6b 3d 70 ac a2 3d c1 54 96 3d
       -0.20514916 0.057423063 0.07943046 0.07340384
0003d0 a6 bd dc 3d fe 68 c5 bc 1f a6 3d 3e a7 87 0b 3d
       0.1077836 -0.024097916 0.18520401 0.034064915
0003e0 2c f6 15 be ab 4c 8c 3d d7 c0 cf 3d 8a ab 0e 3d
       -0.14644688 0.06850561 0.10144203 0.03483156
0003f0 75 6c 8e bd 4d b8 b8 be 8e dd 02 3e d0 31 af 3e
       -0.0695428 -0.3607811 0.12779829 0.3421769

fc2.bias f4 [10]
000000 5f 5a 67 bd e1 3f 21 3e fd 87 26 be 44 06 99 3e
       -0.05648267 0.15747024 -0.16262813 0.29887593
000010 7a 8f 20 be 8b 01 fa bd e2 c4 21 3e e2 5f 09 3e
       -0.15679732 -0.122073255 0.15797761 0.13415483
000020 83 76 08 be 84 67 b0 bd
       -0.13326459 -0.08613494
