integrated_mfdwc_cnn_dcase/results/a-s1/FE_2025-12-20 08_07_48.977082.pth (torch, 415473 bytes, 12 tensors)

conv1.weight f4 [32, 1, 7, 7]
0.22034407 0.1300877 0.06856178 0.13101566 0.07617983 0.0698029 -0.05996357 0.18159416
0.11822728 0.009125762 0.05641183 -0.09631705 -0.020160697 -0.018296206 0.0027467776 0.06135679
-0.022259345 0.012979928 -0.15453988 -0.14915036 -0.08145289 0.08598235 0.13136435 0.15030383
0.024900507 -0.091081545 -0.11047611 0.020751568 -0.02957565 -0.1071811 -0.10517563 0.02965673
-0.159599 -0.11263439 -0.185047 0.06717696 0.027030742 0.0019965267 0.030775817 -0.0136232115
-0.09736308 -0.016670931 0.05340038 0.07091576 0.03467247 0.014187458 -0.04757723 -0.013174964
-0.07098519 0.006828189 0.06554473 0.018623343 0.03947579 0.027303493 0.020669777 0.038087197
0.10795007 0.11138055 0.051278617 0.023168145 0.016409244 0.02081645 0.07912993 -0.0060463967
0.08999416 0.08797953 0.06781286 -0.046328362 -0.05237507 -0.06602965 0.07170478 0.027487358
0.03859027 0.031397577 -0.03972921 -0.030053234 0.010669251 -0.017061861 -0.0687065 -0.04236815
-0.03553787 -0.14302926 -0.20991875 -0.21348727 -0.18807806 -0.2543757 -0.243638 -0.21180102
-0.19982368 -0.21298927 -0.20636226 -0.011140256 0.013609112 -0.015033627 0.014201644 -0.03112853
0.0117813125 -0.032840714 0.011652476 0.12011924 0.09183989 0.14352475 0.030941805 0.013860194
0.19319634 -0.06924513 0.01551858 0.022490522 0.050201092 0.048124533 -0.012781384 -0.009999434
-0.035103194 -0.03281182 0.05589174 -0.029798819 -0.0050137877 0.037222806 0.08348998 0.021155173
-0.030833328 0.011455204 -0.050361104 0.0022992142 0.027374815 0.14599429 -0.094338566 -0.10720748
0.13085298 0.0040077716 -0.02679916 0.019005597 0.059820484 -0.15805013 -0.15771727 0.00603715
-0.10320763 -0.18239738 -0.072889745 0.09203727 -0.15680905 -0.14819601 0.08556002 -0.049264215
-0.13387853 -0.018266885 0.119317085 -0.113641374 -0.08614277 0.16289917 0.18396927 0.16142774
0.020321196 0.0086801015 -0.2230817 -0.06396983 0.105697185 0.09380362 0.04733621 0.0016945984
0.09808452 -0.17593141 0.043027807 0.0532313 -0.011355306 -0.09577075 0.04658662 0.114416786
-0.048249796 0.06630065 -0.0159285 0.08088806 0.06395997 -0.025933892 0.12339959 -0.14560471
0.07327806 0.0036608153 0.03266338 -0.06487743 -0.08818514 0.11736229 -0.20961674 -0.06438165
-0.06648799 -0.10381261 -0.05412905 -0.024493573 -0.050739076 -0.029949697 -0.0023308455 0.0020297947
-0.035748374 0.04999911 -0.038078826 0.07326052 0.0041034287 0.10589216 0.017554717 -0.011899255
-0.09677987 -0.027630387 -0.047589075 0.08131644 0.08280916 0.030228136 0.014102045 -0.021219574
-0.043844122 -0.0064901863 -0.1445778 -0.15088302 -0.20265466 -0.19325648 -0.24654636 -0.24597056
-0.2740296 -0.025583368 -0.06953286 0.013785912 -0.11273617 -0.14203714 -0.13224119 -0.06815725
0.010757104 0.036074094 -0.012584663 -0.018907905 -0.05066087 -0.056716926 -0.056644104 0.007848258
-0.012139309 0.020429296 -0.040020432 -0.00935156 -0.049251158 -0.031741783 0.06092095 0.045299895
0.06882335 0.06386173 0.055831607 0.035243448 0.029597716 0.026106423 -0.048999667 -0.0096786
-0.031965304 0.07774599 0.08296469 0.010263416 0.01163377 0.027750306 -0.003897707 -0.023263998
00000000: e0a1 613e b635 053e 1e6a 8c3d f828 063e
00000010: 2c04 9c3d d3f4 8e3d 5c9c 75bd d2f3 393e
00000020: 2521 f23d 3884 153c 1710 673d e041 c5bd
00000030: 0c28 a5bc ede1 95bc 4803 343b 4251 7b3d
00000040: 3b59 b6bc c4a9 543c b43f 1ebe dfba 18be
00000050: c6d0 a6bd 8417 b03d 6084 063e 3fe9 193e
00000060: 26fc cb3c f688 babd 4c41 e2bd 31ff a93c
00000070: a248 f2bc c481 dbbd 5266 d7bd acf2 f23c
00000080: ec6d 23be dcac e6bd f67c 3dbe 1394 893d
00000090: 936f dd3c 29d8 023b 911d fc3c e433 5fbc
000000a0: 4b66 c7bd 7a91 88bc 5bba 5a3d 483c 913d
000000b0: b804 0e3d 8372 683c 57e0 42bd cedb 57bc
000000c0: af60 91bd 00bf df3b 513c 863d fb8f 983c
000000d0: 5eb1 213d 93ab df3c aa53 a93c 5201 1c3d
000000e0: ed14 dd3d 7c1b e43d 8709 523d 1fcb bd3c
000000f0: ae6c 863c 4287 aa3c df0e a23d da20 c6bb
00000100: dc4e b83d 9d2e b43d 78e1 8a3d cfc2 3dbd
00000110: 3e87 56bd 8e3a 87bd f5d9 923d 2b2d e13c
00000120: d510 1e3d bf9a 003d 19bb 22bd 3332 f6bc
00000130: 15ce 2e3c 51c5 8bbc feb5 8cbd 3a8a 2dbd
00000140: 2890 11bd 4376 12be f1f4 56be 689c 5abe
00000150: 8997 40be 883d 82be 3d7c 79be 5ee2 58be
00000160: 949e 4cbe dc19 5abe a150 53be 9f85 36bc
00000170: c1f8 5e3c 9a4f 76bc 03ae 683c 4201 ffbc
00000180: 6806 413c fc83 06bd 07ea 3e3c 1301 f63d
00000190: 8d16 bc3d 27f8 123e ab79 fd3c de15 633c
000001a0: 43d5 453e 64d0 8dbd a441 7e3c 0b3e b83c
000001b0: a99f 4d3d 3b1e 453d 0369 51bc abd4 23bc
000001c0: 5ec8 0fbd b065 06bd bdee 643d a71c f4bc
000001d0: b34a a4bb f176 183d cbfc aa3d 9d4d ad3c
000001e0: 2d96 fcbc 9cae 3b3c 7247 4ebd 6aae 163b
000001f0: 2641 e03c 877f 153e 9434 c1bd 988f dbbd
00000200: 53fe 053e a053 833b e989 dbbc a0b1 9b3c
00000210: 5306 753d e5d7 21be a380 21be 49d3 c53b
00000220: 865e d3bd 61c6 3abe 3847 95bd 097e bc3d
00000230: 8d92 20be b2c0 17be 173a af3d 46c9 49bd
00000240: 7417 09be 6fa4 95bc 845c f43d cfbc e8bd
00000250: 9f6b b0bd 0acf 263e 7162 3c3e 504d 253e
00000260: a378 a63c fc36 0e3c 876f 64be 9d02 83bd
00000270: c477 d83d 1d1c c03d 9de3 413d 491d de3a
00000280: 89e0 c83d 5d27 34be ed3d 303d 1009 5a3d
00000290: 9b0b 3abc 7423 c4bd 9dd1 3e3d 5953 ea3d
000002a0: 94a1 45bd a3c8 873d 7c7c 82bc a4a8 a53d
000002b0: 72fd 823d 5073 d4bc edb8 fc3d 6719 15be
000002c0: cf12 963d 4aea 6f3b 09ca 053d 75de 84bd
000002d0: 699a b4bd a45b f03d c5a5 56be 87da 83bd
000002e0: db2a 88bd b59b d4bd 6cb6 5dbd bfa6 c8bc
000002f0: c7d3 4fbd 1159 f5bc 19c1 18bb 4e06 053b
00000300: e36c 12bd decb 4c3d 8bf8 1bbd 9d09 963d
00000310: 0e76 863b fddd d83d e9ce 8f3c 18f5 42bc
00000320: 8634 c6bd 1f59 e2bc c3ec 42bd 3c89 a63d
00000330: d997 a93d ffa0 f73c 440c 673c acd4 adbc
00000340: e595 33bd a1ab d4bb 340c 14be 1481 1abe
00000350: b484 4fbe 07e5 45be a676 7cbe b5df 7bbe
00000360: 9c4d 8cbe 3694 d1bc 3e67 8ebd 4ede 613c
00000370: 39e2 e6bd 2f72 11be 3c6a 07be 0796 8bbd
00000380: 903e 303c 6ec2 133d e72f 4ebc c0e4 9abc
00000390: c681 4fbd 0250 68bd a603 68bd fb95 003c
000003a0: f4e3 46bc 575b a73c 77ec 23bd 4937 19bc
000003b0: 95bb 49bd ac03 02bd 3f88 793d 628c 393d
000003c0: 42f3 8c3d f0c9 823d afaf 643d 6f5b 103d
000003d0: e976 f23c 23dd d53c e0b3 48bd fe92 1ebc
000003e0: 0dee 02bd 4a39 9f3d 64e9 a93d e327 283c
000003f0: 919b 3e3c 9c54 e33c ac70 7fbb 2494 bebc

conv1.bias f4 [32]
0.017472915 -0.0038521693 -0.008851892 -0.07383234 0.001340902 -0.0011998384 -0.009381563 -0.012338813
-0.0033878763 0.00335228 0.0063151643 -0.016122371 0.0010916912 -0.019223662 0.0010558483 -0.0022388794
-0.0023384453 0.017156385 0.011099208 -0.030827494 -0.010890574 -0.029376008 -0.03534779 0.051062904
0.00074575195 0.0003294828 -0.0032590525 -0.0029619068 -0.010200513 -0.00014717142 -0.002867235 0.0029793663
00000000: 5c23 8f3c ad74 7cbb 8707 11bc 6935 97bd
00000010: 34c1 af3a e543 9dba 21b5 19bc bc28 4abc
00000020: 2207 5ebb edb1 5b3b 70ef ce3b 1013 84bc
00000030: 1417 8f3a f17a 9dbc 6464 8a3a 2aba 12bb
00000040: 9a40 19bb 8c8b 8c3c 74d9 353c f189 fcbc
00000050: 616e 32bc f4a5 f0bc d8c8 10bd 5627 513d
00000060: 917e 433a 6fbe ac39 d495 55bb 8d1c 42bb
00000070: 0d20 27bc 0752 1ab9 39e8 3bbb 7941 433b

bn1.weight f4 [32]
0.83659685 0.67784446 0.6400561 0.95307076 0.68197167 0.6612878 0.4860961 0.76970714
0.7891887 0.7303884 1.050957 0.8796401 0.7420714 0.9679664 0.50732857 0.85015655
0.92287207 1.241995 1.0847763 0.8688053 0.73042643 1.2764921 0.75541586 0.9089404
0.69355035 0.6924039 1.306411 0.7493438 0.798592 0.5181431 0.6729933 0.7880252
00000000: 362b 563f 3787 2d3f b7da 233f 72fc 733f
00000010: b295 2e3f 284a 293f 97e1 f83e 870b 453f
00000020: 4508 4a3f bcfa 3a3f c285 863f 1830 613f
00000030: 64f8 3d3f a5cc 773f 49e0 013f dca3 593f
00000040: 5841 6c3f b1f9 9e3f f3d9 8a3f 066a 5e3f
00000050: 3afd 3a3f 1864 a33f ef62 413f 51b0 683f
00000060: 848c 313f 6241 313f 7a38 a73f ffd4 3f3f
00000070: 8670 4c3f 07a5 043f 4a49 2c3f 05bc 493f

bn1.bias f4 [32]
0.01104749 -0.64342785 -0.09363472 -0.08712862 -0.6291612 -0.6749169 -0.73440295 -0.4891715
-0.5672993 -0.55414975 -0.70114315 -0.57365906 -0.7658706 -0.5502118 -0.74618465 -0.55467397
-0.26392582 -0.32981 -0.3180715 -0.55949515 -0.41299704 -0.33824697 -0.1589994 -0.0588722
-0.6008369 -0.69242615 -0.29199156 -0.6252751 -0.58616734 -0.8070125 -0.61065125 -0.6039923
00000000: 8800 353c b0b7 24bf 8fc3 bfbd 7d70 b2bd
00000010: b510 21bf 5bc7 2cbf d501 3cbf b074 fabe
00000020: 873a 11bf c2dc 0dbf 1e7e 33bf 52db 12bf
00000030: 1810 44bf aeda 0cbf f505 3fbf 1dff 0dbf
00000040: 4921 87be dbdc a8be 45da a2be 133b 0fbf
00000050: 5974 d3be b52e adbe bdd0 22be fa23 71bd
00000060: 72d0 19bf d742 31bf eb7f 95be 0712 20bf
00000070: 100f 16bf 5f98 4ebf a453 1cbf 3d9f 1abf

bn1.running_mean f4 [32]
-0.5335962 6.0033555 -0.3800759 0.07923038 7.779621 4.6597633 6.8376527 -6.9117055
6.8420057 13.35615 -2.0757158 -2.4251444 6.521623 -2.4815857 14.075501 -1.7642355
0.21172187 -1.0736253 -0.06957086 -2.2718568 -7.5798035 -0.571502 -0.01635535 0.20417547
16.811111 15.739078 -0.6327737 5.0898676 -2.7767088 13.910282 12.137635 5.6124682
00000000: c399 08bf 7d1b c040 4f99 c2be 8a43 a23d
00000010: a8f2 f840 c81c 9540 0dce da40 b12c ddc0
00000020: b6f1 da40 cab2 5541 87d8 04c0 9135 1bc0
00000030: 23b1 d040 4dd2 1ec0 4135 6141 78d2 e1bf
00000040: 9ecd 583e 8e6c 89bf 2b7b 8ebd 1a66 11c0
00000050: c08d f2c0 f44d 12bf a8fb 85bc 6013 513e
00000060: 287d 8641 43d3 7b41 75fd 21bf 32e0 a240
00000070: 99b5 31c0 8490 5e41 c133 4241 5799 b340

bn1.running_var f4 [32]
10.7782545 125.872696 15.3365965 6.5276527 146.92964 62.929844 107.80505 141.81702
122.93684 451.93555 15.839143 18.614765 128.18367 24.74216 453.8366 14.155865
4.4857802 19.938772 10.600273 17.495417 162.29433 11.578263 6.3702006 7.439064
639.28436 556.3556 19.34783 79.135925 19.556915 443.9048 344.51297 92.37341
00000000: bb73 2c41 d2be fb42 b362 7541 88e2 d040
00000010: fded 1243 29b8 7b42 309c d742 28d1 0d43
00000020: a9df f542 c0f7 e143 216d 7d41 0aeb 9441
00000030: 052f 0043 f2ef c541 16eb e243 6c7e 6241
00000040: 838b 8f40 9b82 9f41 b89a 2941 9df6 8b41
00000050: 594b 2243 9140 3941 afd8 cb40 d00c ee40
00000060: 33d2 1f44 c216 0b44 5bc8 9a41 9845 9e42
00000070: 9074 9c41 d0f3 dd43 a941 ac43 30bf b842

conv2.weight f4 [64, 32, 7, 7]
-0.10138072 -0.022640651 0.17311199 0.018205749 -0.2142696 -0.11975996 -0.111237735 0.016045067
-0.009995949 0.084043294 0.023814969 -0.13014245 0.030271078 0.063024975 -0.0037726902 0.0072566993
0.015009767 -0.013058061 -0.007502125 0.14685959 0.022599876 0.056693114 0.18360794 0.11787774
-0.06979526 0.0918241 0.1757381 -0.053271063 -0.17007656 0.018134208 -0.069209546 -0.41179305
0.046811093 0.19467738 -0.13890857 0.061714426 0.15013844 0.04904244 -0.0116810715 -0.08043918
0.03776784 0.015699485 -0.096895464 -0.1368248 0.017851042 -0.02940552 0.065649405 -0.110583924
-0.14254421 -0.0060117436 -0.02520943 -0.037400298 -0.060055375 -0.10996562 -0.092285715 -0.11770436
0.100596 0.07715735 0.06591816 0.022495113 -0.03960603 -0.038229633 -0.06658847 0.1742676
0.17042567 0.13360867 0.13907765 0.066636786 0.10246501 0.032002013 0.07953156 0.021334996
0.095956184 0.09080689 -0.16717607 -0.1988064 -0.11408594 0.00085825316 -0.0024666938 0.006999246
-0.010392307 -0.14814001 -0.063893095 -0.09073854 0.085132524 0.09240931 0.07051893 0.09098146
-0.014085694 -0.017646017 -0.0044641076 -0.05710194 -0.08729128 -0.08816905 -0.1091952 -0.16684638
-0.17645942 -0.1709931 0.04962658 0.06273413 0.13539769 0.20580262 -0.0017932283 0.012790908
0.07131153 0.03110947 -0.00781923 -0.0042773015 0.011342888 -0.033052936 -0.045418076 -0.011933127
-0.02226881 -0.0056495806 0.0144054955 0.08417748 -0.04256222 -0.06405806 -0.018282343 0.07305321
0.009188344 0.15389419 0.13699888 -0.0048100217 -0.20018986 -0.010912767 -0.1465396 -0.1885875
-0.13250534 0.066451915 -0.01906049 -0.21148543 -0.09384174 -0.13730326 -0.098107845 -0.098451674
0.033616453 0.016609168 -0.18017973 -0.08421811 -0.05157553 0.014165646 -0.05646216 -0.01681278
-0.041036174 0.011657273 -0.053799834 0.02831595 -0.014316315 0.05031789 0.13922419 -0.05799394
-0.0695398 0.012031531 0.11595688 0.021020789 -0.048657183 0.29286093 0.12410814 -0.021590155
0.0035466207 -0.04441581 0.064453416 -0.04706908 0.1425832 -0.026964577 -0.061424598 0.02808215
-0.048957262 -0.034761194 0.08989576 0.11578528 -0.0730955 -0.1903523 -0.064093165 -0.18928395
-0.04411247 -0.20034489 0.1701693 0.14361548 -0.30193624 -0.15826638 0.06721635 -0.03477482
-0.0660364 0.10419035 0.1005407 -0.1587309 -0.09693983 -0.07690199 0.025052456 0.15679696
0.10271408 -0.059676427 0.04301147 0.08652767 -0.08519471 -0.08587902 -0.1067315 -0.17987663
-0.12895526 -0.15204586 -0.11011045 0.017205885 -0.01504033 0.0026743184 -0.06646943 -0.09441438
-0.10472669 -0.1164433 0.091735475 0.08357093 0.06401189 0.07369727 0.015755022 0.08692806
0.050988 0.10581565 0.06307612 0.077604786 0.10063987 -0.069587916 -0.049469728 -0.052840967
0.083423145 0.09069329 0.053333063 0.036983415 -0.18054299 -0.16415355 -0.10468778 0.010594325
0.052603327 0.063637525 0.0057472535 -0.04393407 -0.0575149 -0.04415563 -0.032199897 -0.02458676
0.008681388 -0.048907094 -0.12544619 -0.15122831 -0.15453543 -0.054537542 -0.052780002 -0.045178175
-0.0944662 -0.13135593 -0.049450055 -0.13820326 0.09142027 0.062742084 0.073024966 -0.0051613227
00000000: b2a0 cfbd e378 b9bc 4544 313e 3924 953c
00000010: 7d69 5bbe b644 f5bd 9cd0 e3bd f270 833c
00000020: 0dc6 23bc e41e ac3d 9c17 c33c 1044 05be
00000030: 0dfb f73c 3d13 813d 3d3f 77bb 9bc9 ed3b
00000040: 87eb 753c 7af1 55bc 63d4 f5bb 5c62 163e
00000050: 6023 b93c 0a37 683d b803 3c3e e269 f13d
00000060: d1f0 8ebd 460e bc3d b0f4 333e c232 5abd
00000070: 8d28 2ebe 318e 943c bcbd 8dbd 8ad6 d2be
00000080: fdbc 3f3d 8259 473e 0c3e 0ebe 44c8 7c3d
00000090: e4bd 193e bae0 483d f761 3fbc 4cbd a4bd
000000a0: 73b2 1a3d 359c 803c 2171 c6bd cd1b 0cbe
000000b0: 593c 923c d8e3 f0bc 3273 863d d379 e2bd
000000c0: 1cf7 11be 29fe c4bb 0284 cebc 0e31 19bd
000000d0: a0fc 75bd a835 e1bd 4b00 bdbd fc0e f1bd
000000e0: 4705 ce3d ac04 9e3d 1a00 873d ac47 b83c
000000f0: ef39 22bd ad96 1cbd 895f 88bd 3573 323e
00000100: 1184 2e3e b6d0 083e 5f6a 0e3e de78 883d
00000110: 2dd9 d13d 8b14 033d 71e1 a23d bbc6 ae3c
00000120: ad84 c43d f6f8 b93d 3430 2bbe e893 4bbe
00000130: e4a5 e9bd 65fc 603a 41a8 21bb ee59 e53b
00000140: 7f44 2abc 04b2 17be 62da 82bd 21d5 b9bd
00000150: f659 ae3d 1841 bd3d 3b6c 903d 7d54 ba3d
00000160: afc7 66bc 618e 90bc a647 92bb b9e3 69bd
00000170: c5c5 b2bd fa91 b4bd bca1 dfbd c7d9 2abe
00000180: c7b1 34be d118 2fbe 3e45 4b3d c07a 803d
00000190: b1a5 0a3e ecbd 523e c20a ebba f590 513c
000001a0: c80b 923d 4ad9 fe3c 3a1c 00bc 9b28 8cbb
000001b0: 85d7 393c 8462 07bd 4e08 3abd 2a83 43bc
000001c0: 146d b6bc 1e20 b9bb 0705 6c3c 3e65 ac3d
000001d0: b955 2ebd df30 83bd dac4 95bc ec9c 953d
000001e0: b58a 163c 7096 1d3e 6f49 0c3e 639d 9dbb
000001f0: 92fe 4cbe 76cb 32bc 7a0e 16be 151d 41be
00000200: 7baf 07be f117 883d bf24 9cbc a38f 58be
00000210: 1930 c0bd 3a99 0cbe c4ec c8bd 08a1 c9bd
00000220: 68b1 093d f30f 883c 0981 38be 8b7a acbd
00000230: dd40 53bd 0717 683c de44 67bd f5ba 89bc
00000240: 8c15 28bd 26fe 3e3c 375d 5cbd daf6 e73c
00000250: fa8e 6abc 221a 4e3d c990 0e3e 0e8b 6dbd
00000260: e26a 8ebd e61f 453c cd7a ed3d ca33 ac3c
00000270: c14c 47bd def1 953e 692c fe3d d6dd b0bc
00000280: 6c6e 683b 5aed 35bd 2700 843d 82cb 40bd
00000290: 5501 123e d1e4 dcbc 5c98 7bbd 890c e63c
000002a0: 6987 48bd c161 0ebd 451b b83d d520 ed3d
000002b0: 18b3 95bd b7eb 42be 4743 83bd a7d3 41be
000002c0: 47af 34bd 3627 4dbe dc40 2e3e f00f 133e
000002d0: 6397 9abe 9510 22be baa8 893d 0b70 0ebd
000002e0: 183e 87bd c061 d53d 48e8 cd3d 5a8a 22be
000002f0: 6488 c6bd ca7e 9dbd cf3a cd3c 628f 203e
00000300: c25b d23d 456f 74bd cc2c 303d 6b35 b13d
00000310: 907a aebd 57e1 afbd 0b96 dabd 9431 38be
00000320: d90c 04be e9b1 1bbe 9681 e1bd 5bf3 8c3c
00000330: b76b 76bc 9e43 2f3b 2021 88bd 545c c1bd
00000340: f27a d6bd d379 eebd cfdf bb3d 3c27 ab3d
00000350: aa18 833d 98ee 963d ad10 813c 5707 b23d
00000360: cbd8 503d e0b5 d83d 0e2e 813d 42ef 9e3d
00000370: 471c ce3d 1c84 8ebd c5a0 4abd c56f 58bd
00000380: c1d9 aa3d 67bd b93d c573 5a3d ec7b 173d
00000390: 43e0 38be de17 28be 8c66 d6bd d293 2d3c
000003a0: 9676 573d 6454 823d 7553 bc3b 36f4 33bd
000003b0: be94 6bbd 89dc 34bd 0ae4 03bd 2c6a c9bc
000003c0: 613c 0e3c ce52 48bd f774 00be 98db 1abe
000003d0: 893e 1ebe c262 5fbd d82f 58bd c00c 39bd
000003e0: 7f77 c1bd 2b82 06be 248c 4abd 2885 0dbe
000003f0: 8d3a bb3d ec7e 803d 1d8e 953d 5020 a9bb

conv2.bias f4 [64]
-0.0001230067 -0.0030589968 0.0029888197 -0.000687322 -0.00047786554 -0.0014210327 -0.008429309 0.0017656445
-0.0018610887 -0.0008019881 -0.00052496686 0.0015099649 0.0006418879 3.1436444e-05 0.0015632826 -0.0028013126
-0.0059195333 0.00065997004 0.0032782909 0.0010524117 0.0036777037 0.0019411527 -0.0027258745 -0.0017303773
-0.0066744783 -0.006545568 -0.005489936 -0.0014265667 0.0026829827 -5.190249e-05 -0.00086997525 -0.00065309624
-0.0011510254 0.0018871097 0.0025342694 -0.0061719255 0.0011424558 0.0019153095 -0.0055788974 -0.0009456685
-0.0028110705 -0.0033881916 -0.00252258 -0.011157874 -0.0015773039 0.000322752 -0.0014058459 -0.006436048
-0.001987867 -0.0048118024 -0.006506041 0.0013362336 -0.005127721 -0.0029645625 0.001292531 -0.007815702
0.00012276223 0.0021484678 0.0016697872 -0.0010829575 0.0027655577 0.00047408938 -0.003197334 -0.0025834737
00000000: 5cfb 00b9 7379 48bb 13e0 433b 662d 34ba
00000010: 078a fab9 f241 baba 161b 0abc 336d e73a
00000020: c6ef f3ba 833c 52ba ee9d 09ba 04ea c53a
00000030: 5e44 283a a0da 0338 0fe7 cc3a 3a96 37bb
00000040: a5f8 c1bb d701 2d3a 98d8 563b 14f1 893a
00000050: a105 713b 476e fe3a 96a4 32bb d4cd e2ba
00000060: 95b5 dabb 347c d6bb ece4 b3bb a3fb baba
00000070: fbd4 2f3b e0b1 59b8 0d0f 64ba 8c34 2bba
00000080: 01de 96ba e558 f73a fc15 263b dd3d cabb
00000090: 75be 953a 1f0b fb3a 2fcf b6bb bde6 77ba
000000a0: f039 38bb 6c0c 5ebb df51 25bb 84cf 36bc
000000b0: 89bd ceba 0a37 a939 5c44 b8ba 7ce5 d2bb
000000c0: e046 02bb 53ac 9dbb a130 d5bb 8f24 af3a
000000d0: 7106 a8bb 1b49 42bb 256a a93a 6e0d 00bc
000000e0: bcb9 0039 4fcd 0c3b c3dc da3a 06f2 8dba
000000f0: 5c3e 353b 338f f839 5d8a 51bb 7f4f 29bb

bn2.weight f4 [64]
1.278541 1.4444087 1.2776294 1.1991475 1.0605048 1.2428877 1.680569 1.1702313
1.1912817 1.1546527 1.0912354 1.5511391 1.0791515 1.5328251 1.260075 1.6613907
1.173607 1.5776123 1.4459 1.734005 1.3530322 1.6244391 1.2916691 1.3652712
1.012613 1.223625 1.7079564 1.1266792 1.3182082 1.0369973 1.3892965 0.9882512
1.4046867 1.2853559 1.3575628 1.3803178 1.4032806 1.4228989 1.1874139 1.3539393
1.2275727 1.229758 1.0513958 1.2711558 1.08877 1.3746598 1.0490094 1.5390109
0.8728218 1.2295351 1.2674594 1.2786592 1.261627 1.5569116 1.4820168 1.2797079
1.0593486 1.5499911 1.1708337 1.1399649 1.1834803 1.4906143 1.2318197 1.2198094
00000000: 3ba7 a33f 62e2 b83f 5c89 a33f aa7d 993f
00000010: 9fbe 873f f216 9f3f e31c d73f 24ca 953f
00000020: eb7b 983f a9cb 933f 9aad 8b3f ba8b c63f
00000030: a321 8a3f 9d33 c43f 234a a13f 73a8 d43f
00000040: c138 963f 33ef c93f 4013 b93f e0f3 dd3f
00000050: 2930 ad3f 9fed cf3f 6a55 a53f 35c1 ae3f
00000060: 4e9d 813f be9f 9c3f 519e da3f 0637 903f
00000070: 0cbb a83f 54bc 843f 78d4 b13f 08fe 7c3f
00000080: c6cc b33f 8b86 a43f 9ec4 ad3f 41ae b03f
00000090: b39e b33f 8d21 b63f 2efd 973f e24d ad3f
000000a0: 1a21 9d3f b668 9d3f 2394 863f 3cb5 a23f
000000b0: d15c 8b3f daf4 af3f f145 863f 4ffe c43f
000000c0: 4071 5f3f 6861 9d3f 1c3c a23f 1bab a33f
000000d0: fe7c a13f e148 c73f bab2 bd3f 78cd a33f
000000e0: bc98 873f 1c66 c63f e1dd 953f 5fea 913f
000000f0: 487c 973f 73cc be3f 45ac 9d3f b722 9c3f

bn2.bias f4 [64]
-0.786308 -0.55392027 -0.4688833 -0.3331508 -0.48449057 -0.5558032 -0.631071 -0.26374885
-0.49987713 -0.30597138 -0.49214035 -0.650246 -0.33084717 -0.45770913 -0.35730222 -0.6124688
-0.5347192 -0.7829182 -0.81403285 -0.56533074 -0.53002816 -0.4623736 -0.49618387 -0.3591881
-0.49896684 -0.70101833 -0.43089068 -0.49304914 -0.53371364 -0.3508864 -0.6073188 -0.3899749
-0.7017998 -0.119687624 -0.7013359 -0.493673 -0.3883178 -0.49541333 -0.32280466 -0.24740463
-0.47387183 -0.6453658 -0.35384235 -0.51141804 -0.55295545 -0.47098088 -0.41453943 -0.61280483
-0.52120465 -0.45007995 -0.66363156 -0.6203979 -0.21289663 -0.3934694 -0.6126521 -0.65011185
-0.3901732 -0.6921773 -0.47502795 -0.5459592 -0.27279618 -0.3215873 -0.3674941 -0.2806161
00000000: 7b4b 49bf b8cd 0dbf 7911 f0be be92 aabe
00000010: 260f f8be 1e49 0ebf de8d 21bf 170a 87be
00000020: e5ef ffbe 48a8 9cbe d2f9 fbbe 8676 26bf
00000030: cd64 a9be da58 eabe 51f0 b6be c1ca 1cbf
00000040: 5ce3 08bf 546d 48bf 7564 50bf 84b9 10bf
00000050: edaf 07bf 3cbc ecbe d00b febe 81e7 b7be
00000060: 9578 ffbe f075 33bf b49d dcbe f070 fcbe
00000070: 75a1 08bf 62a7 b3be 3f79 1bbf caaa c7be
00000080: 27a9 33bf c91e f5bd c08a 33bf b5c2 fcbe
00000090: 97d1 c6be d1a6 fdbe a746 a5be a457 7dbe
000000a0: 549f f2be b136 25bf d32a b5be 4bec 02bf
000000b0: 7d8e 0dbf 6824 f1be 833e d4be c7e0 1cbf
000000c0: ab6d 05bf e170 e6be c2e3 29bf 66d2 1ebf
000000d0: 9301 5abe d274 c9be c5d6 1cbf bb6d 26bf
000000e0: c8c4 c7be 8832 31bf dd36 f3be fbc3 0bbf
000000f0: f1ab 8bbe 17a7 a4be 3028 bcbe eaac 8fbe

bn2.running_mean f4 [64]
-2.2286615 -2.6417704 -1.0322839 -1.6233834 -2.1460698 -4.9877853 -1.0808024 3.8105986
0.1362454 0.22720459 -2.2470157 -6.3977046 -1.8910393 -5.0444026 -5.4732804 -1.2657121
0.9391601 -3.1092808 -4.6958985 -9.420444 -4.918809 -6.475515 -3.811193 -9.148999
0.6765524 -2.2775354 -7.793216 -3.8529863 -2.713753 1.77408 -1.2248791 -0.44046974
-3.665596 -12.089654 -4.765625 -0.17806292 -4.8214855 -2.7836726 -1.9260457 -8.1468525
-5.114198 -2.4479544 2.2269561 -0.34375292 -3.1355016 -9.176392 -1.255159 -0.8648594
6.002048 -2.9239829 -3.1338885 -4.5489154 0.25747162 -9.906774 -1.796462 -1.7548695
-4.364597 -2.5754683 -2.8420177 -3.7497027 -7.940143 -7.8343115 -2.902129 0.3120106
00000000: 64a2 0ec0 c412 29c0 e121 84bf 07cb cfbf
00000010: 3559 09c0 f09b 9fc0 bc57 8abf d9e0 7340
00000020: ea83 0b3e 52a8 683e 1bcf 0fc0 ffb9 ccc0
00000030: 930d f2bf bf6b a1c0 1d25 afc0 db02 a2bf
00000040: cc6c 703f 75fe 46c0 cd44 96c0 23ba 16c1
00000050: e266 9dc0 6b37 cfc0 96ea 73c0 4d62 12c1
00000060: 8a32 2d3f 24c3 11c0 0762 f9c0 5497 76c0
00000070: 21ae 2dc0 0e15 e33f d7c8 9cbf 4085 e1be
00000080: 2099 6ac0 396f 41c1 0080 98c0 2056 36be
00000090: 9c49 9ac0 b127 32c0 aa88 f6bf 8259 02c1
000000a0: 83a7 a3c0 49ab 1cc0 7386 0e40 6200 b0be
000000b0: 0fac 48c0 80d2 12c1 0da9 a0bf 6d67 5dbf
000000c0: c710 c040 8922 3bc0 a191 48c0 b790 91c0
000000d0: 52d3 833e 2582 1ec1 78f2 e5bf 909f e0bf
000000e0: c7aa 8bc0 79d4 24c0 9ee3 35c0 21fb 6fc0
000000f0: a715 fec0 aeb2 fac0 7bbc 39c0 dabf 9f3e

bn2.running_var f4 [64]
16.551943 28.821426 31.954893 17.22847 13.380827 43.79182 17.654774 24.676798
59.14602 33.81351 27.684177 41.740417 33.74642 31.500967 35.36356 14.640601
18.66004 25.187973 32.500217 37.20657 31.882881 61.303574 33.553806 94.06498
18.92563 19.071558 76.975235 19.61105 39.953453 44.55092 15.050056 23.202877
17.748016 78.13054 35.761086 37.494987 54.15668 49.204937 20.34022 55.318413
52.023415 18.329916 22.722872 8.920085 33.59951 42.438667 41.80467 22.910078
47.730865 20.695984 19.33685 26.699907 25.781464 52.565514 25.308325 13.064339
30.944967 25.243208 33.481915 77.00765 64.855 60.92632 35.066185 32.04978
00000000: 616a 8441 4892 e641 9fa3 ff41 e8d3 8941
00000010: de17 5641 d32a 2f42 fa3c 8d41 156a c541
00000020: 8695 6c42 0941 0742 3279 dd41 30f6 2642
00000030: 56fc 0642 fb01 fc41 4974 0d42 e73f 6a41
00000040: c347 9541 f880 c941 3900 0242 87d3 1442
00000050: 2410 ff41 dc36 7542 1937 0642 4521 bc42
00000060: b167 9741 8d92 9841 52f3 9942 6ee3 9c41
00000070: 56d0 1f42 2434 3242 08cd 7041 7e9f b941
00000080: f0fb 8d41 d642 9c42 5a0b 0f42 defa 1542
00000090: 71a0 5842 dbd1 4442 c5b8 a241 0e46 5d42
000000a0: fa17 5042 aba3 9241 71c8 b541 abb8 0e41
000000b0: e665 0642 32c1 2942 fb37 2742 d747 b741
000000c0: 68ec 3e42 6091 a541 deb1 9a41 6999 d541
000000d0: 7040 ce41 1643 5242 7377 ca41 8807 5141
000000e0: 4b8f f741 17f2 c941 7bed 0542 eb03 9a42
000000f0: c3b5 8142 8db4 7342 c643 0c42 fa32 0042
