integrated_mfdwc_cnn_dcase/results/a-s1/FE_2025-12-20 11_26_08.832325.pth (torch, 415473 bytes, 12 tensors)

conv1.weight f4 [32, 1, 7, 7]
0.22727656 0.13250524 0.05987776 0.1316377 0.075244434 0.06589506 -0.069738224 0.19112659
0.12402378 0.004859902 0.050010975 -0.10225913 -0.024796048 -0.025144525 0.003909194 0.068528034
-0.013578185 0.017311871 -0.15542383 -0.1400668 -0.0819296 0.088627614 0.1455878 0.16228352
0.031260476 -0.099112734 -0.11944864 0.01627638 -0.020627437 -0.11007503 -0.10849597 0.037334237
-0.16724293 -0.13013087 -0.20283101 0.06706011 0.037948057 0.0028341254 0.034435786 -0.015472285
-0.113058805 -0.026207395 0.05641251 0.07629925 0.03185156 0.022732545 -0.045402996 -0.011345437
-0.083337896 0.0046025445 0.062864736 0.014878511 0.03853881 0.023542719 0.019121919 0.035271607
0.10619709 0.10922296 0.04743054 0.019327248 0.01229433 0.01795136 0.07621713 -0.002036003
0.0961444 0.090396374 0.07130584 -0.045732357 -0.05144953 -0.06667615 0.07405278 0.024963977
0.032996863 0.030463593 -0.050370116 -0.036041137 0.004470074 -0.018035816 -0.07773421 -0.051427346
-0.041305684 -0.15404056 -0.22728601 -0.22945027 -0.19274339 -0.26794514 -0.26440072 -0.22655348
-0.21168508 -0.22535218 -0.22053272 -0.012180023 0.011114624 -0.018893605 0.0112560615 -0.033855386
0.011344316 -0.03669793 0.02012669 0.13686092 0.10550598 0.15432954 0.030658754 0.020210385
0.20614624 -0.06918334 0.027351547 0.02636793 0.051264223 0.046945114 -0.012823867 -0.0075657293
-0.03462376 -0.031060873 0.05387084 -0.038799625 -0.009479762 0.030691512 0.08178861 0.02178206
-0.020915529 0.011918171 -0.052871436 0.007890801 0.033326633 0.15327975 -0.09524853 -0.10985268
0.13616064 0.0016013014 -0.03261154 0.020599157 0.061166476 -0.16383204 -0.16993672 0.008442075
-0.107595205 -0.19419047 -0.0799643 0.091740556 -0.16790715 -0.1542253 0.08874518 -0.051151678
-0.14538366 -0.01649476 0.123705566 -0.11269447 -0.08314513 0.17755608 0.19938277 0.17423464
0.027171997 0.0079379715 -0.23327944 -0.059692517 0.11657997 0.09487888 0.043780264 0.003001553
0.10874144 -0.17897181 0.042678807 0.055740524 -0.017903918 -0.10685479 0.049932964 0.11438553
-0.039770354 0.06431329 -0.012656292 0.07962525 0.06402855 -0.03161788 0.12489548 -0.14913163
0.07096868 0.0038182081 0.021340458 -0.06687594 -0.092553265 0.12032004 -0.21801934 -0.07012722
-0.06329827 -0.11327067 -0.05330048 -0.024715278 -0.0555089 -0.045867387 -0.009577523 -0.0033715537
-0.041517258 0.040922746 -0.048570212 0.07368444 -0.0057624383 0.10525727 0.0142135415 -0.011464196
-0.10935539 -0.036865346 -0.0602289 0.085012205 0.08327737 0.024273762 0.0054692086 -0.029744014
-0.05184365 -0.012448746 -0.1488795 -0.15772761 -0.21509384 -0.20745228 -0.26466924 -0.25982627
-0.2889469 -0.019550769 -0.062424257 0.019090539 -0.10984546 -0.13902989 -0.12913963 -0.064893834
0.0186622 0.044301532 -0.004987952 -0.01411866 -0.045506947 -0.051822923 -0.05168857 0.014953376
-0.0044374466 0.024463039 -0.036023524 -0.0025906155 -0.043804985 -0.025154565 0.068246625 0.053585697
0.07772871 0.074241914 0.06583629 0.04425732 0.0376427 0.023976637 -0.050308697 -0.010517238
-0.031565752 0.07872574 0.083412506 0.011408819 0.008308956 0.023841908 -0.0075321877 -0.026044764
00000000: 30bb 683e 74af 073e 6242 753d 09cc 063e
00000010: c119 9a3d fdf3 863d ead2 8ebd b0b6 433e
00000020: 2e00 fe3d d03f 9f3b 4fd8 4c3d 3c6d d1bd
00000030: 1521 cbbc e4fb cdbc b218 803b 6d58 8c3d
00000040: 0977 5ebc a0d1 8d3c 6d27 1fbe ac6d 0fbe
00000050: b5ca a7bd 6582 b53d f814 153e a72d 263e
00000060: fc0a 003d 9efb cabd 7da1 f4bd 0b56 853c
00000070: dffa a8bc 046f e1bd 2333 debd c9eb 183d
00000080: bb41 2bbe 0741 05be efb2 4fbe d056 893d
00000090: 6c6f 1b3d bcbc 393b 8a0c 0d3d 787f 7dbc
000000a0: 608b e7bd e4b0 d6bc ce10 673d c842 9c3d
000000b0: c876 023d 9a39 ba3c 7ef8 39bd 36e2 39bc
000000c0: 0fad aabd f1d0 963b 3abf 803d 00c5 733c
000000d0: dfda 1d3d a9dc c03c 92a5 9c3c f678 103d
000000e0: dc7d d93d 4ab0 df3d 8746 423d 2d54 9e3c
000000f0: 286e 493c bb0e 933c ba17 9c3d 766e 05bb
00000100: 5be7 c43d bc21 b93d cc08 923d da51 3bbd
00000110: bebc 52bd 818d 88bd fca8 973d 4181 cc3c
00000120: b827 073d c98e f93c e550 4ebd df9f 13bd
00000130: b379 923b d9bf 93bc 1d33 9fbd 7ba5 52bd
00000140: 2630 29bd cfbc 1dbe aabd 68be 03f5 6abe
00000150: 865e 45be 1b30 89be 885f 87be a3fd 67be
00000160: f9c3 58be b9c2 66be 54d3 61be b88e 47bc
00000170: 1d1a 363c c3c6 9abc 586b 383c f2ab 0abd
00000180: 83dd 393c 9250 16bd bae0 a43c 4525 0c3e
00000190: 8513 d83d 9008 1e3e 1128 fb3c 4090 a53c
000001a0: 0018 533e ffaf 8dbd 5a10 e03c 8f01 d83c
000001b0: 6ffa 513d 8549 403d 321b 52bc f0e9 f7bb
000001c0: a5d1 0dbd 5f73 febc aca7 5c3d 5bec 1ebd
000001d0: 0151 1bbc c46c fb3c c980 a73d 4a70 b23c
000001e0: 0b57 abbc 6f44 433c b88f 58bd 6b48 013c
000001f0: 8281 083d 5ef5 1c3e a911 c3bd 71fa e0bd
00000200: b26d 0b3e c2e2 d13a ae93 05bd 90bf a83c
00000210: b389 7a3d 96c3 27be e403 2ebe a150 0a3c
00000220: e05a dcbd ded9 46be 53c4 a3bd 79e2 bb3d
00000230: daef 2bbe 3ded 1dbe 08c0 b53d 6c84 51bd
00000240: 74df 14be 0520 87bc 5859 fd3d 5ccc e6bd
00000250: fe47 aabd 43d1 353e ff2a 4c3e 916a 323e
00000260: cf97 de3c 440e 023c cee0 6ebe 2480 74bd
00000270: 7bc1 ee3d dc4f c23d ef52 333d b4b5 443b
00000280: d5b3 de3d 6344 37be f9cf 2e3d 2d50 643d
00000290: 3dab 92bc afd6 dabd 8286 4c3d f642 ea3d
000002a0: 3de6 22bd b0b6 833d 565c 4fbc 9012 a33d
000002b0: 6721 833d c081 01bd 34c9 ff3d f6b5 18be
000002c0: 0758 913d e73a 7a3b 2fd2 ae3c 41f6 88bd
000002d0: 918c bdbd 5a6a f63d 7640 5fbe dc9e 8fbd
000002e0: 86a2 81bd 74fa e7bd 9b51 5abd b277 cabc
000002f0: 4d5d 63bd 71df 3bbd 0beb 1cbc 49f5 5cbb
00000300: 000e 2abd 9c9e 273d 8ff1 46bd dee7 963d
00000310: d6d2 bcbb 2091 d73d eadf 683c 53d4 3bbc
00000320: b8f5 dfbd 1e00 17bd 94b2 76bd e11a ae3d
00000330: 538d aa3d c5d9 c63c 0c37 b33b b8a9 f3bc
00000340: 025a 54bd d3f5 4bbc de73 18be 5983 21be
00000350: 8f41 5cbe 5f6e 54be ba82 87be f307 85be
00000360: d9f0 93be ef28 a0bc 94b0 7fbd c363 9c3c
00000370: a8f6 e0bd da5d 0ebe 2e3d 04be 0fe7 84bd
00000380: 78e1 983c 8675 353d f971 a3bb f451 67bc
00000390: 7e65 3abd 4644 54bd 65b7 53bd 01ff 743c
000003a0: 0068 91bb b666 c83c 678d 13bd 51c7 29bb
000003b0: db6c 33bd f210 cebc e3c4 8b3d ad7c 5b3d
000003c0: 3b30 9f3d 250c 983d 2dd5 863d 2a47 353d
000003d0: 3b2f 1a3d a76a c43c 7e10 4ebd 7e50 2cbc
000003e0: 174b 01bd f63a a13d 2dd4 aa3d 0eec 3a3c
000003f0: 4a22 083c 1b50 c33c 92d0 f6bb d45b d5bc

conv1.bias f4 [32]
0.041200303 -0.001975916 0.004342878 -0.08386975 0.00060146634 -0.0026697626 -0.008848564 -0.0070920223
-0.0030146937 0.0033509762 0.01841235 -0.009382993 0.0010856538 -0.017416054 0.001245771 -0.004892251
0.004754293 0.035394777 0.005390166 -0.039218184 -0.0114696445 -0.031858522 -0.035243727 0.05171844
0.00040573426 -4.5491226e-05 0.014055121 -0.0020039973 0.00040963595 -6.69028e-05 -0.0037579467 0.0016918287
00000000: a6c1 283d 5f7e 01bb b34e 8e3b e7c3 abbd
00000010: b9ab 1d3a 2ff7 2ebb 91f9 10bc 3264 e8bb
00000020: 2b92 45bb 0d9c 5b3b 7fd5 963c 20bb 19bc
00000030: 7f4c 8e3a 1dac 8ebc 2349 a33a 2d4f a0bb
00000040: e6c9 9b3b 1dfa 103d fd9f b03b 3fa3 20bd
00000050: 2deb 3bbc 157e 02bd ba5b 10bd b7d6 533d
00000060: bbb8 d439 d5cd 3eb8 7347 663c 7f55 03bb
00000070: 68c4 d639 2b4e 8cb8 e247 76bb 5ac0 dd3a

bn1.weight f4 [32]
0.8282311 0.672234 0.6427553 0.92281353 0.6694468 0.6588193 0.47582346 0.7833868
0.7897974 0.71515834 1.0455122 0.88882303 0.73664594 0.9896141 0.5058656 0.8669205
0.89332277 1.2646408 1.0603982 0.8739731 0.7530655 1.2685428 0.73847765 0.895128
0.6839551 0.66890436 1.3131475 0.75563204 0.81536055 0.52028817 0.6757579 0.7845073
00000000: f406 543f 8717 2c3f 9d8b 243f 823d 6c3f
00000010: de60 2b3f 62a8 283f 229f f33e 0a8c 483f
00000020: 2a30 4a3f 9e14 373f 58d3 853f e889 633f
00000030: d494 3c3f 5a57 7d3f 6880 013f 80ee 5d3f
00000040: cdb0 643f c0df a13f 21bb 873f b3bc 5f3f
00000050: e7c8 403f 9c5f a23f df0c 3d3f 1c27 653f
00000060: ae17 2f3f 513d 2b3f 3815 a83f 1a71 413f
00000070: 78bb 503f 9b31 053f 78fe 2c3f 78d5 483f

bn1.bias f4 [32]
0.022821514 -0.6320722 -0.06195973 -0.08505736 -0.62968963 -0.68010384 -0.7543083 -0.48338342
-0.5397039 -0.5466905 -0.71666825 -0.59479046 -0.7829682 -0.5633093 -0.75661045 -0.57022595
-0.26970822 -0.30186892 -0.32866123 -0.57908857 -0.3971157 -0.3255163 -0.17138635 -0.06117208
-0.592187 -0.7112118 -0.28345534 -0.620947 -0.5927605 -0.81948054 -0.6028102 -0.60230863
00000000: 2ff4 ba3c 7ccf 21bf 7cc9 7dbd 8e32 aebd
00000010: 5733 21bf 491b 2ebf 591a 41bf 087e f7be
00000020: 092a 0abf e9f3 0bbf 9277 37bf 3044 18bf
00000030: 9b70 48bf 0a35 10bf 39b1 41bf 54fa 11bf
00000040: 3217 8abe 908e 9abe 4946 a8be 263f 14bf
00000050: c052 cbbe 13aa a6be e77f 2fbe 938f 7abd
00000060: 9199 17bf fa11 36bf 0f21 91be 62f6 1ebf
00000070: 27bf 17bf 7ac9 51bf c551 1abf e630 1abf

bn1.running_mean f4 [32]
-0.19976132 6.909465 -0.12852104 -0.024371538 7.809744 4.840803 5.567043 -7.6895013
7.8794427 13.383197 -2.1729577 -3.2780137 6.3893156 -2.5958788 15.957078 -3.0202413
0.09580667 -0.3543396 -0.22476308 -2.7248847 -7.8388057 -0.62087035 -0.27705678 -0.5329374
16.770996 16.806932 -0.46781242 5.212239 -3.194021 15.785454 11.730699 5.44916
00000000: 3b8e 4cbe 561a dd40 059b 03be d2a6 c7bc
00000010: 6ce9 f940 dce7 9a40 3725 b240 6510 f6c0
00000020: 6524 fc40 9321 5641 bd11 0bc0 faca 51c0
00000030: 4675 cc40 e122 26c0 3150 7f41 a24b 41c0
00000040: 4a36 c43d 006c b5be 4b28 66be 8364 2ec0
00000050: 7fd7 fac0 5cf1 1ebf 63da 8dbe 966e 08bf
00000060: 002b 8641 9974 8641 1c85 efbe a9ca a640
00000070: d76a 4cc0 3891 7c41 f1b0 3b41 855f ae40

bn1.running_var f4 [32]
11.149245 156.2251 18.161701 8.291419 149.67305 67.19218 78.654755 169.79199
156.83714 460.68805 17.399534 29.887028 125.56402 25.49687 578.0023 27.564003
4.933186 17.21926 11.293568 22.975866 178.31937 13.399705 6.643425 9.317994
642.6845 628.0027 21.196661 82.8586 25.09634 566.87506 326.45407 90.05558
00000000: 4f63 3241 a039 1c43 2a4b 9141 a7a9 0441
00000010: 4dac 1543 6562 8642 3c4f 9d42 c0ca 2943
00000020: 4fd6 1c43 1258 e643 3f32 8b41 a218 ef41
00000030: c720 fb42 97f9 cb41 2680 1044 1483 dc41
00000040: a9dc 9d40 0bc1 8941 74b2 3441 93ce b741
00000050: c251 3243 3165 5641 f096 d440 8116 1541
00000060: cfab 2044 2c00 1d44 c392 a941 9ab7 a542
00000070: 4ec5 c841 01b8 0d44 1f3a a343 751c b442

conv2.weight f4 [64, 32, 7, 7]
-0.09911821 -0.029128602 0.20153897 0.042533435 -0.2237483 -0.10386008 -0.10289502 -0.008487686
-0.026204083 0.08224674 0.013649334 -0.16004439 0.018794652 0.043460794 -0.009952397 0.0033207433
0.024064092 -0.0034426965 -0.0063562044 0.16519451 0.027961668 0.05804415 0.17995252 0.10269995
-0.07804796 0.060172502 0.16503322 -0.062175028 -0.1859497 0.007889302 -0.08446977 -0.43927544
0.016326122 0.19352975 -0.13880375 0.07403215 0.17146532 0.056552265 -0.01300566 -0.10258729
0.03338956 0.026401155 -0.115557 -0.15237893 0.010117436 -0.0072419015 0.059933424 -0.118543334
-0.14523733 -0.020218285 -0.039953902 -0.05239202 -0.07925736 -0.13037156 -0.11123421 -0.13681597
0.08492395 0.060994215 0.047816638 -0.0042081033 -0.05589255 -0.049578823 -0.08318654 0.16551098
0.15171245 0.11916633 0.12669376 0.06499116 0.09541893 0.013820296 0.07107213 0.011714588
0.091076784 0.08467327 -0.19005454 -0.22487399 -0.1428426 -0.017131478 -0.024632089 -0.01176126
-0.022252148 -0.17966667 -0.10086308 -0.12373166 0.08770064 0.09846014 0.08096038 0.09710831
-0.0151855 -0.015442869 -0.0024243335 -0.04466834 -0.08101897 -0.0820764 -0.10051996 -0.15803328
-0.16735949 -0.16650471 0.037454486 0.048629068 0.1204019 0.1981894 -0.015429439 -0.002376445
0.06585753 0.01718053 -0.010241063 -0.009566783 0.001232116 -0.035552707 -0.053906012 -0.023744635
0.006411206 0.01158115 0.030877462 0.0949271 -0.03351322 -0.056715097 0.00062842254 0.07165777
0.018925793 0.1805736 0.13725713 -0.008692533 -0.19538356 0.00036341176 -0.13245606 -0.16915189
-0.11857554 0.070855275 -0.012409799 -0.22065215 -0.06664076 -0.12323983 -0.089590885 -0.069452606
0.03945442 0.008820918 -0.1657708 -0.069910415 -0.040868305 0.044470455 -0.046209045 -0.017072052
-0.04595108 0.01671277 -0.04201971 0.0228728 -0.02422928 0.02770551 0.14736411 -0.07844442
-0.06363819 0.019072274 0.12533368 0.030574374 -0.055158786 0.31268424 0.1196517 -0.037264295
0.0020427979 -0.007181136 0.09955068 -0.044526525 0.17533012 -0.0076596867 -0.037639607 0.02995232
-0.05286812 -0.034835882 0.099085726 0.102733195 -0.09646327 -0.20904425 -0.064477 -0.18524806
-0.04671896 -0.19955705 0.15436123 0.14043072 -0.2954141 -0.15476498 0.050122056 -0.05496822
-0.08617719 0.09866691 0.09971252 -0.1673634 -0.11107024 -0.116233364 0.018413179 0.14017504
0.06430227 -0.0849946 0.011239107 0.081922784 -0.08793737 -0.09802983 -0.11083815 -0.19151613
-0.12402674 -0.14709173 -0.11642978 0.014038606 -0.025626313 -0.013138004 -0.09833187 -0.11038509
-0.12350132 -0.13661999 0.08672714 0.07286733 0.057343833 0.06374946 0.003755304 0.080471836
0.042269807 0.11753549 0.0715999 0.08426206 0.100812025 -0.071812324 -0.056157626 -0.06570596
0.10398188 0.10796924 0.07077513 0.05451821 -0.17509356 -0.15960471 -0.100226924 0.023315715
0.068315476 0.085571036 0.025207339 -0.032466248 -0.04337224 -0.032430887 -0.025556123 -0.022370016
0.01624249 -0.042082597 -0.11672668 -0.14453803 -0.15611029 -0.054303374 -0.045537665 -0.037748225
-0.09319665 -0.132925 -0.03794364 -0.12681745 0.0879668 0.05982241 0.07718812 -0.014690919
00000000: 7dfe cabd 1b9f eebc 3b60 4e3e 8a37 2e3d
00000010: 461e 65be 98b4 d4bd a0ba d2bd ef0f 0bbc
00000020: f2a9 d6bc fb70 a83d 75a1 5f3c ade2 23be
00000030: 3ef7 993c f203 323d 610f 23bc d4a0 593b
00000040: 0f22 c53c dd9e 61bb b547 d0bb c028 293e
00000050: de0f e53c b4bf 6d3d 7945 383e 5a54 d23d
00000060: 9cd7 9fbd 7177 763d 78fe 283e 3eab 7ebd
00000070: 9969 3ebe 2242 013c 7dfe acbd b6e8 e0be
00000080: 5cbe 853c aa2c 463e 9222 0ebe 2b9e 973d
00000090: 9b94 2f3e 59a3 673d b115 55bc 4919 d2bd
000000a0: 7ec3 083d 3c47 d83c 26a9 ecbd 3909 1cbe
000000b0: 9ac3 253c 794d edbb c07c 753d d9c6 f2bd
000000c0: 18b9 14be d1a0 a5bc b4a6 23bd 0499 56bd
000000d0: af51 a2bd 1f80 05be c3ce e3bd 7c19 0cbe
000000e0: 9cec ad3d 12d5 793d 61db 433d 21e4 89bb
000000f0: 96ef 64bd 2a13 4bbd b45d aabd b67b 293e
00000100: 825a 1b3e 7a0d f43d 02bc 013e 161a 853d
00000110: 006b c33d 866e 623c 448e 913d 8bee 3f3c
00000120: 7786 ba3d 2e69 ad3d a89d 42be 5e45 66be
00000130: 5545 12be 5057 8cbc 3cc9 c9bc 4db2 40bc
00000140: 234a b6bc 8afa 37be 4d91 cebd 0667 fdbd
00000150: 659c b33d 78a5 c93d 8ece a53d b9e0 c63d
00000160: 9acc 78bc 1604 7dbc 91e1 1ebb 26f6 36bd
00000170: 46ed a5bd ac17 a8bd 69dd cdbd 7ad3 21be
00000180: 4960 2bbe 3680 2abe e069 193d 462f 473d
00000190: 4595 f63d 29f2 4a3e c2cb 7cbc 22be 1bbb
000001a0: 50e0 863d 2fbe 8c3c 22ca 27bc ffbd 1cbc
000001b0: f47e a13a b79f 11bd 8dcc 5cbd 1c84 c2bc
000001c0: 1815 d23b ddbe 3d3c bbf2 fc3c 2469 c23d
000001d0: 2845 09bd 174e 68bd b9bc 243a 4fc1 923d
000001e0: 440a 9b3c 49e8 383e 228d 0c3e 206b 0ebc
000001f0: a112 48be 4d88 be39 90a2 07be 2736 2dbe
00000200: bcd7 f2bd 921c 913d 7852 4bbc a3f2 61be
00000210: f37a 88bd 2a65 fcbd 6d7b b7bd 2b3d 8ebd
00000220: f59a 213d 9d85 103c d2bf 29be 312d 8fbd
00000230: 8665 27bd a726 363d b245 3dbd b0da 8bbc
00000240: 3337 3cbd 38e9 883c dc1c 2cbd bd5f bb3c
00000250: 7c7c c6bc aaf6 e23c 9ee6 163e 78a7 a0bd
00000260: bd54 82bd 753d 9c3c 7957 003e 1c77 fa3c
00000270: 2eee 61bd 2618 a03e f30b f53d 72a2 18bd
00000280: 76e0 053b bc4f ebbb 3ae1 cb3d 7261 36bd
00000290: bd89 333e 1cfe fabb fd2b 1abd 915e f53c
000002a0: 3e8c 58bd 12b0 0ebd 75ed ca3d c865 d23d
000002b0: 898e c5bd b20f 56be 840c 84bd abb1 3dbe
000002c0: 615c 3fbd af58 4cbe df10 1e3e 12cd 0f3e
000002d0: 8440 97be b67a 1ebe c94c 4d3d 5b26 61bd
000002e0: ab7d b0bd e011 ca3d 1436 cc3d 5061 2bbe
000002f0: cb78 e3bd c20b eebd 3cd7 963c 0c8a 0f3e
00000300: e9b0 833d a611 aebd 3b24 383c 22c7 a73d
00000310: 8218 b4bd ddc3 c8bd 1dff e2bd ce1c 44be
00000320: bb01 febd 379f 16be bd72 eebd 2e02 663c
00000330: 46ee d1bc c840 57bc 3862 c9bd 9411 e2bd
00000340: 43ee fcbd 1ce6 0bbe 009e b13d 773b 953d
00000350: 5ee1 6a3d 148f 823d 8c1b 763b 6bce a43d
00000360: 1b23 2d3d 72b6 f03d f8a2 923d 9691 ac3d
00000370: 8976 ce3d 5712 93bd 8a05 66bd d990 86bd
00000380: 74f4 d43d fa1e dd3d 8df2 903d 7d4e 5f3d
00000390: ba4b 33be 6b6f 23be c643 cdbd 9900 bf3c
000003a0: fce8 8b3d de3f af3d 9f7f ce3c 54fb 04bd
000003b0: 17a7 31bd 40d6 04bd 135b d1bc 5341 b7bc
000003c0: f80e 853c cd5e 2cbd 660e efbd c701 14be
000003d0: 60db 1fbe 376d 5ebd b485 3abd e29d 1abd
000003e0: e3dd bebd 7e1d 08be ca6a 1bbd 6fdc 01be
000003f0: f027 b43d 5808 753d ce14 9e3d 2eb2 70bc

conv2.bias f4 [64]
0.0036706477 -0.003433397 0.0026788479 -0.0020190445 -0.000232226 -0.0010940318 -0.01174846 0.00070937147
-0.0020223632 -0.00086235156 -0.0010888925 0.001412779 -0.0019989342 0.00059219304 0.00030383095 -0.0072316797
-0.007954961 0.0019713033 0.004711036 0.0020164584 0.003975013 0.0029338063 -0.0038935824 -0.0026832733
-0.007109071 -0.0046373215 -0.003953241 -0.001301722 0.0029556598 -0.0001212293 -0.0014986186 -0.0018312031
0.001343871 0.0022982918 0.0021003985 -0.007205466 0.00022527101 0.0010380982 -0.007736107 -0.0014023888
-0.0026184877 -0.0032917855 -0.0010048366 -0.012241837 -0.0017570206 -0.000923958 -0.0012225743 -0.0073844306
-0.0020593177 -0.005210996 -0.0065089474 6.9310096e-05 -0.004108355 -0.00087437965 0.0002294063 -0.00885659
0.00037710628 0.0027343668 0.0026852933 -0.0009796468 0.0030841236 -0.0007745488 -0.004808841 -0.0030928506
00000000: 408f 703b d802 61bb 9c8f 2f3b f251 04bb
00000010: b181 73b9 9e65 8fba 9d7c 40bc 1df5 393a
00000020: a089 04bb 6f0f 62ba 2bb9 8eba ff2c b93a
00000030: 8d00 03bb 673d 1b3a 804b 9f39 baf7 ecbb
00000040: 8655 02bc fb30 013b 095f 9a3b 8f26 043b
00000050: d340 823b 1a45 403b 792b 7fbb dbd9 2fbb
00000060: 36f3 e8bb acf4 97bb 308a 81bb 8b9e aaba
00000070: beb3 413b 7c3c feb8 4c6d c4ba fb04 f0ba
00000080: d424 b03a f09e 163b d7a6 093b d41b ecbb
00000090: ba36 6c39 cc10 883a 2b7f fdbb 5cd0 b7ba
000000a0: ef9a 2bbb ffba 57bb b9b4 83ba fc91 48bc
000000b0: d44b e6ba c635 72ba c93e a0ba 18f9 f1bb
000000c0: 9ef5 06bb 01c1 aabb 0249 d5bb 935a 9138
000000d0: 619f 86bb a036 65ba c98c 7039 3b1b 11bc
000000e0: 59b6 c539 1033 333b bffb 2f3b 7e67 80ba
000000f0: 021f 4a3b 170b 4bba 7b93 9dbb 6cb1 4abb

bn2.weight f4 [64]
1.2992121 1.4627985 1.2817373 1.1984211 1.0732441 1.2757412 1.6705636 1.1558697
1.1814709 1.1570083 1.1083909 1.607871 1.0626563 1.5401257 1.2694685 1.7052279
1.1756614 1.6049489 1.4517784 1.770239 1.3316453 1.599662 1.2778893 1.3906732
0.98607767 1.2472355 1.7736808 1.1294886 1.3430285 1.0503879 1.3949581 1.0118649
1.4222481 1.3232212 1.3606426 1.3790257 1.4029326 1.4363165 1.1638196 1.3699341
1.2420224 1.2507977 1.0398169 1.2647791 1.0969821 1.4001409 1.0522555 1.5398289
0.8640809 1.2083957 1.2734227 1.2626855 1.2665447 1.5654573 1.486053 1.2920653
1.0617466 1.5701746 1.1757925 1.1332083 1.1741759 1.5175214 1.2250416 1.2168579
00000000: 954c a63f fb3c bb3f f80f a43f dd65 993f
00000010: 1060 893f 7d4b a33f 07d5 d53f 8af3 933f
00000020: 703a 973f d918 943f c1df 8d3f b8ce cd3f
00000030: 1f05 883f d722 c53f f27d a23f e844 da3f
00000040: 137c 963f f76e cd3f e0d3 b93f 3197 e23f
00000050: 5a73 aa3f b9c1 cc3f e091 a33f 9401 b23f
00000060: 966f 7c3f 6aa5 9f3f f907 e33f 1593 903f
00000070: 5ce8 ab3f 1c73 863f fd8d b23f ca84 813f
00000080: 3a0c b63f 505f a93f 8929 ae3f ea83 b03f
00000090: 4c93 b33f 38d9 b73f 0af8 943f 005a af3f
000000a0: 97fa 9e3f 241a a03f b818 853f 48e4 a13f
000000b0: e969 8c3f d137 b33f 4fb0 863f 1d19 c53f
000000c0: 6834 5d3f b6ac 9a3f 84ff a23f ae9f a13f
000000d0: 231e a23f e860 c83f fc36 be3f 6562 a53f
000000e0: 50e7 873f 7bfb c83f 5e80 963f f80c 913f
000000f0: 654b 963f 243e c23f 2ace 9c3f 00c2 9b3f

bn2.bias f4 [64]
-0.83532745 -0.58191556 -0.5289428 -0.3650962 -0.5140421 -0.5663612 -0.7040652 -0.28942376
-0.5378283 -0.32179564 -0.51013136 -0.69906265 -0.35745737 -0.5021206 -0.41178405 -0.65626353
-0.57121265 -0.87299246 -0.88113695 -0.6011935 -0.58628994 -0.526778 -0.5312619 -0.41809765
-0.53733814 -0.7380271 -0.45287013 -0.51860106 -0.6112666 -0.36721838 -0.67309844 -0.3951709
-0.75389093 -0.13553596 -0.7558648 -0.5310865 -0.4232361 -0.5327618 -0.3479937 -0.2572535
-0.52593917 -0.7077792 -0.3553015 -0.55257547 -0.57470995 -0.533527 -0.4980278 -0.64466405
-0.5537365 -0.4862755 -0.70965904 -0.67102206 -0.22522941 -0.4219147 -0.64035493 -0.7114008
-0.410952 -0.751774 -0.5152877 -0.59139013 -0.29143196 -0.35402635 -0.38003555 -0.30154476
00000000: 05d8 55bf 6bf8 14bf cc68 07bf e4ed babe
00000010: 4398 03bf 0cfd 10bf 9e3d 34bf 5a2f 94be
00000020: 1eaf 09bf 66c2 a4be f897 02bf c5f5 32bf
00000030: a704 b7be fa8a 00bf 5cd5 d2be e300 28bf
00000040: fe3a 12bf 6f7c 5fbf 3192 61bf d1e7 19bf
00000050: 1917 16bf ecda 06bf c800 08bf e510 d6be
00000060: fe8e 09bf 58ef 3cbf 98de e7be 0ac3 04bf
00000070: f87b 1cbf 0c04 bcbe 2e50 2cbf d753 cabe
00000080: fffe 40bf f0c9 0abe 5b80 41bf 49f5 07bf
00000090: 67b2 d8be 1463 08bf 3b2c b2be bbb6 83be
000000a0: f3a3 06bf 0531 35bf 14ea b5be 9675 0dbf
000000b0: 3120 13bf 3a95 08bf 80fd febe b408 25bf
000000c0: adc1 0dbf 1af9 f8be 37ac 35bf 1ac8 2bbf
000000d0: 8aa2 66be 3405 d8be 4dee 23bf 5d1e 36bf
000000e0: 4d68 d2be 4374 40bf e5e9 03bf 5865 17bf
000000f0: 9236 95be f142 b5be 0594 c2be 1364 9abe

bn2.running_mean f4 [64]
-3.0511663 -2.9032056 -0.2415475 -2.5763254 -1.2680384 -5.6429853 -2.3508692 3.5301058
-0.64506716 -0.4619322 -1.873697 -6.1342845 -1.1290492 -5.62015 -5.7441835 -1.9725138
-0.64938694 -2.4027617 -5.0279512 -10.09658 -4.5249257 -6.774191 -3.8041563 -9.910176
-0.10758802 -2.2889178 -7.935972 -3.5045135 -2.0534005 1.8691553 -0.5181104 0.0061214715
-2.5819046 -11.525859 -5.4588194 -0.5734603 -5.2290063 -3.1925097 -1.6515254 -7.2435436
-5.8901567 -2.9219828 -0.03625534 -0.3520355 -2.69123 -8.5296755 -1.0610788 -1.7344867
5.862759 -2.3426113 -2.3565037 -4.8817897 -1.7440195 -8.838997 -3.5892017 -1.6610183
-1.651829 -3.3114147 -3.5429366 -2.4819303 -8.331277 -7.1882834 -4.6762023 -0.24653092
00000000: 4f46 43c0 1fce 39c0 3a58 77be 84e2 24c0
00000010: 154f a2bf 5693 b4c0 a474 16c0 41ed 6140
00000020: 1f23 25bf 6182 ecbe 4ed5 efbf 0f4c c4c0
00000030: af84 90bf 45d8 b3c0 5ad0 b7c0 557b fcbf
00000040: 393e 26bf d9c6 19c0 fae4 a0c0 978b 21c1
00000050: 31cc 90c0 2cc6 d8c0 4c77 73c0 1590 1ec1
00000060: 1c57 dcbd a17d 12c0 7cf3 fdc0 f349 60c0
00000070: ea6a 03c0 7b40 ef3f e2a2 04bf a096 c83b
00000080: ed3d 25c0 eb69 38c1 a6ae aec0 4bce 12bf
00000090: 0554 a7c0 1452 4cc0 2f65 d3bf 1ccb e7c0
000000a0: 2a7c bcc0 c401 3bc0 7b80 14bd ff3d b4be
000000b0: 1d3d 2cc0 8d79 08c1 6ed1 87bf a903 debf
000000c0: b99b bb40 58ed 15c0 f5d0 16c0 9f37 9cc0
000000d0: 083c dfbf 886c 0dc1 7bb5 65c0 3f9c d4bf
000000e0: 226f d3bf 38ee 53c0 79bf 62c0 f2d7 1ec0
000000f0: e94c 05c1 6b06 e6c0 73a3 95c0 9a72 7cbe

bn2.running_var f4 [64]
18.266598 24.838936 38.08247 19.884216 12.333479 50.968727 24.206877 25.089138
61.025005 36.959896 29.145239 41.772114 37.295937 35.003654 48.71776 14.331373
26.872524 23.718037 31.786892 44.14479 31.379932 64.83841 38.823483 97.08088
20.720774 18.353832 70.97967 18.112717 42.978577 47.767696 11.571175 19.568533
13.357882 74.75971 39.233173 28.613335 51.099075 61.81768 22.894531 40.689526
56.518475 19.312878 24.320318 8.482635 33.945602 35.87245 40.976845 20.44305
33.581104 24.323208 22.97024 35.195004 27.95703 41.456505 29.10342 14.4360695
23.637836 25.403482 48.77331 56.746212 71.21839 59.007042 39.49359 25.074697
00000000: fe21 9241 24b6 c641 7354 1842 e012 9f41
00000010: ee55 4541 fadf 4b42 afa7 c141 8eb6 c841
00000020: 9b19 7442 efd6 1342 7329 e941 a516 2742
00000030: 0a2f 1542 be03 0c42 fcde 4242 4e4d 6541
00000040: eefa d641 8abe bd41 8e4b fe41 4494 3042
00000050: 1a0a fb41 44ad 8142 3f4b 1b42 6929 c242
00000060: 25c4 a541 a6d4 9241 97f5 8d42 d8e6 9041
00000070: 10ea 2b42 1f12 3f42 8823 3941 5b8c 9c41
00000080: e2b9 5541 f984 9542 c5ee 1c42 1ce8 e441
00000090: 7465 4c42 4e45 7742 0028 b741 13c2 2242
000000a0: eb12 6242 c680 9a41 0390 c241 dfb8 0741
000000b0: 4cc8 0742 647d 0f42 4ae8 2342 5e8b a341
000000c0: 0d53 0642 ee95 c241 0dc3 b741 afc7 0c42
000000d0: ffa7 df41 76d3 2542 ced3 e841 24fa 6641
000000e0: 4a1a bd41 553a cb41 df17 4342 1ffc 6242
000000f0: d16f 8e42 3607 6c42 70f9 1d42 fb98 c841
