integrated_mfdwc_cnn_dcase/results/a-s2/latest_CL_a-s2.pth (torch, 109475 bytes, 4 tensors)

fc1.weight f4 [100, 256]
0	0x3d8583d1	0.065192826
1	0x3da1112d	0.07864604
2	0xbed55699	-0.4166763
3	0x3e5ab6e7	0.21358834
4	0xbe39aa1a	-0.18131295
5	0x3ddf0e15	0.10891358
6	0x3e058b28	0.13041365
7	0xbe396207	-0.181038
8	0xbdf23309	-0.118261404
9	0xbbc80e41	-0.006105215
10	0x3e118df2	0.14214304
11	0x3dbdc72f	0.09266507
12	0x3dd3a564	0.1033428
13	0xbe494617	-0.19655643
14	0x3d3d9a58	0.04628977
15	0x3d1f21a4	0.03885044
16	0x3d46d3ce	0.048541836
17	0xbccc34a5	-0.024927447
18	0xbdbb68f7	-0.0915088
19	0xbe1efb80	-0.15525627
20	0xbdd73540	-0.105082035
21	0x3c2c21d8	0.010506116
22	0x3cd29c48	0.025709286
23	0x3e085216	0.13312563
24	0xbeb26085	-0.34839264
25	0x3e4bf450	0.19917417
26	0x3e1258b5	0.14291652
27	0xbd00821c	-0.031374082
28	0xbedcd347	-0.43129942
29	0x3d923abb	0.07140108
30	0xbd8c7171	-0.06857575
31	0x3c6a6898	0.014307164
32	0x3e2598fd	0.16171642
33	0x3f29c821	0.66321
34	0xbe534f53	-0.20635729
35	0xbddbcc62	-0.10732342
36	0x3d862597	0.065501384
37	0xbe441ec3	-0.1915236
38	0x3ef5f268	0.48036504
39	0xbdf13853	-0.11778321
40	0xbe1388af	-0.1440761
41	0x3e615186	0.22003755
42	0xbe1a37fb	-0.15060417
43	0x3e27b0a4	0.16375977
44	0xbda6e5c9	-0.08149297
45	0x3d05e859	0.032692287
46	0x3dfed087	0.12442117
47	0xbe64947e	-0.2232227
48	0x3eb92125	0.361581
49	0xbe709246	-0.23493299
50	0x3da60efe	0.08108328
51	0x3d2de3c9	0.04245356
52	0x3e4ad539	0.198079
53	0xbd32d24b	-0.043657582
54	0xbe551d0e	-0.20811865
55	0xbbee194f	-0.0072662006
56	0xbe185ce3	-0.14879183
57	0x3c799e78	0.015235536
58	0x3d5c9832	0.053856082
59	0xbb4f91d1	-0.0031672607
60	0xbc11437d	-0.008866188
61	0x3da04828	0.07826263
62	0xbecec5b8	-0.40385222
63	0x3d198b95	0.03748663
64	0x3d9cea0f	0.07661831
65	0x3e6637e3	0.22482257
66	0xbe17a965	-0.14810713
67	0xbdc9f1b6	-0.09860556
68	0xbdcbc273	-0.099491976
69	0x3e1a5fdd	0.15075631
70	0xbdf0866d	-0.1174439
71	0xbe66f1ae	-0.22553131
72	0x3dc17650	0.094463944
73	0xbd9f1bfe	-0.07769011
74	0x3d623f17	0.05523595
75	0x3e85c549	0.2612708
76	0xbbeee1a3	-0.0072900816
77	0x3cf13d7a	0.02944826
78	0x3d34f7c3	0.044181596
79	0xbdd4184d	-0.103561975
80	0x3e52554b	0.20540349
81	0x3ce7c6e1	0.028293075
82	0xbe243faa	-0.16039911
83	0xbea0b14b	-0.31385264
84	0x3dbd7805	0.092514075
85	0xbe8f8821	-0.28033546
86	0x3aca456e	0.0015432069
87	0x3e645668	0.22298586
88	0x3e48c67e	0.19606969
89	0xbea80961	-0.32819656
90	0x3bf7da80	0.007563889
91	0xbcbe3904	-0.023220547
92	0x3b75325c	0.003741405
93	0x3e94e596	0.2908141
94	0xbdb4a09a	-0.08819695
95	0xbe3c7f4d	-0.18407936
96	0x3ddeb17d	0.10873697
97	0xbea33b8b	-0.31881365
98	0x3d93a338	0.07208866
99	0xbc1096d2	-0.008825021
100	0x3b5c97cb	0.0033659812
101	0x3de94329	0.11389763
102	0xbe399b99	-0.18125762
103	0x3c50b2c1	0.012737931
104	0x3e48e680	0.19619179
105	0x3dbb12fb	0.091344796
106	0xbd9ff36a	-0.078100994
107	0xbcac3167	-0.02101965
108	0xbd04b5c9	-0.032399926
109	0xbe0a1de6	-0.13487968
110	0xb5f26825	-1.8060715e-06
111	0x3e90bab9	0.28267458
112	0x3e8898e7	0.26679155
113	0x3d04ef6a	0.032454886
114	0xbd09beec	-0.033629343
115	0xbe1412d9	-0.14460315
116	0x3cdd2945	0.026997218
117	0xbcc9391b	-0.024563363
118	0x3e39eee1	0.18157531
119	0x3de49fa8	0.111632645
120	0x3ebe0f17	0.37120888
121	0xbe258be8	-0.16166651
122	0xbe6ab8b2	-0.22922018
123	0xbd4c3c32	-0.049862094
124	0x3df5214f	0.11969244
125	0xbc3129be	-0.010813175
126	0x3ddf2a38	0.108967245
127	0xbed40d90	-0.41416597
128	0xbe643c67	-0.22288667
129	0x3cc44570	0.023958892
130	0x3dfaeef0	0.12252605
131	0x3be0e28c	0.006862944
132	0x3e727c56	0.23680243
133	0xbec622b5	-0.38698354
134	0x3d38480a	0.044990577
135	0xbf274528	-0.653399
136	0x3be2aca3	0.0069175526
137	0x3e661e14	0.22472411
138	0xbdef7c71	-0.11693657
139	0xbd3d387f	-0.046196457
140	0x3d949988	0.07255846
141	0xbd30f713	-0.04320438
142	0x3e2dc5a0	0.16969919
143	0xbe9f8a50	-0.31160212
144	0x3dd23aa2	0.102650896
145	0xbe8bf3bd	-0.27334395
146	0x3d1156a8	0.035483032
147	0x3e567493	0.20942907
148	0x3e315317	0.17316853
149	0x3da73ac4	0.081655055
150	0xbe75cdc4	-0.24004275
151	0xbe7401c2	-0.23828796
152	0xbe685e99	-0.22692336
153	0x3c155fce	0.00911708
154	0x3cad9146	0.021187436
155	0x3e363925	0.17795236
156	0x3d7916f2	0.060812898
157	0xbdcf1f70	-0.10113418
158	0x3dc2eb14	0.09517494
159	0xbbb513cf	-0.005526043
160	0xbe229653	-0.15877657
161	0x3e06541c	0.13118023
162	0x3e55266e	0.20815441
163	0xbe47f81d	-0.19528241
164	0xbea917c9	-0.3302596
165	0xbb96f4ff	-0.0046068425
166	0x3db97d1c	0.09057066
167	0x3e63819d	0.22217412
168	0x3ebd449e	0.36966413
169	0xbda53ec1	-0.0806861
170	0xbed56e8a	-0.41685897
171	0xbece22a3	-0.402608
172	0x3e022f62	0.12713388
173	0x3c82781a	0.01592641
174	0xbda85d5f	-0.08220934
175	0xbc674bde	-0.014117209
176	0x3d8160a5	0.063172616
177	0xbe8b8518	-0.2724998
178	0x3d9c374f	0.07627737
179	0xbdf0c586	-0.117564246
180	0x3e4814e7	0.19539224
181	0x3d7fba02	0.06243325
182	0xbe25d1cf	-0.16193317
183	0x3c74fa10	0.014952198
184	0x3d8fd9a6	0.07023935
185	0x3ed3d068	0.4136994
186	0xbe44b7e1	-0.19210769
187	0xbddb23ba	-0.10700174
188	0x3e9cf3f9	0.30654886
189	0xbefa535c	-0.48891723
190	0x3dcbf47a	0.099587396
191	0x3d1e9279	0.038713906
192	0x3e53afc4	0.20672518
193	0x3cd32279	0.025773274
194	0xbd97eb1c	-0.074178904
195	0x3dd00d50	0.10158789
196	0x3edb6ded	0.42857304
197	0xbc96d081	-0.01840997
198	0xbe8167b2	-0.25274426
199	0xbddb85a0	-0.10718846
200	0xbbef95fa	-0.00731158
201	0x3e3e5454	0.18586856
202	0xbb2613c8	-0.002534138
203	0xbd569f35	-0.052397925
204	0x3d93b918	0.07213038
205	0xbe67c3de	-0.22633311
206	0xbe964cb9	-0.2935541
207	0xbc6d936a	-0.014500478
208	0xbdb6afe9	-0.08920271
209	0x3c17c98a	0.009264359
210	0xbd7e191d	-0.06203567
211	0x3e226d49	0.15862001
212	0x3dd53e5d	0.104122855
213	0x3cce9c9a	0.025221158
214	0xbe559e3f	-0.20861147
215	0x3d9024c0	0.070382595
216	0xbd18184a	-0.03713254
217	0x3e00c823	0.12576346
218	0xbe38f9a3	-0.18063979
219	0x3e3a59a0	0.18198252
220	0xbcba944d	-0.022775793
221	0xbcedcb29	-0.029027538
222	0x3dfe9bde	0.12432073
223	0xbc825e08	-0.015913978
224	0x3e6fa910	0.23404336
225	0x3e3e9fb4	0.1861561
226	0x3dac77bf	0.08421277
227	0xbd26611c	-0.040619954
228	0x3e19d1ba	0.1502141
229	0xbedf52a0	-0.43617725
230	0x3b0637d6	0.0020480058
231	0x3e812e30	0.2523055
232	0xbd72df01	-0.059294704
233	0x3e41f6b0	0.1894176
234	0x3d465bb8	0.048427314
235	0xbe286677	-0.16445337
236	0x3e495ba3	0.19663863
237	0xbe3688e8	-0.17825663
238	0x3e6727fe	0.2257385
239	0x3d785cae	0.06063526
240	0x3c187ed2	0.00930758
241	0x3d9965a2	0.07490088
242	0x3dd6965b	0.10477897
243	0xbe1e84cb	-0.15480344
244	0xbe3ebac7	-0.18625937
245	0x3e170788	0.14748967
246	0x3b0701db	0.0020600471
247	0xbc72f26f	-0.0148283085
248	0xbe385025	-0.17999323
249	0x3dd98084	0.106202155
250	0x3e69f9e4	0.22849232
251	0xbea062dd	-0.31325427
252	0x3d91e564	0.07123831
253	0x3e50e93c	0.20401472
254	0xbe10f2d4	-0.14155132
255	0x3e9d1674	0.30681193

fc1.bias f4 [100]
0	0xbdf55300	-0.119787216
1	0xbe15ab13	-0.14616041
2	0xbd5a8df1	-0.053358022
3	0xbdd7234e	-0.10504781
4	0xbd211cc1	-0.039334062
5	0x3d4ec971	0.05048508
6	0xbe22515b	-0.15851347
7	0x3dd01d71	0.101618655
8	0x3d8442a4	0.06458023
9	0xbc6c292c	-0.014414113
10	0x3df24608	0.11829764
11	0xbe28853e	-0.16457078
12	0x3e6e69f9	0.23282613
13	0xbdcb2a96	-0.09920232
14	0xbcaa6162	-0.020798389
15	0xbb1f3103	-0.0024290688
16	0x3c17e37b	0.009270544
17	0x3e29332a	0.16523424
18	0x3da0439c	0.078253955
19	0xbcef61fa	-0.029221524
20	0x3d9f65f6	0.077831194
21	0xbd236192	-0.039887972
22	0xbdc40d4b	-0.09572848
23	0xbd67c9a5	-0.056588788
24	0xbdf930ef	-0.121675365
25	0xbe5964e1	-0.21229888
26	0xbcae84f0	-0.021303624
27	0x3da17290	0.07883179
28	0xbd708c37	-0.05872747
29	0x3e0b3d9f	0.13597725
30	0x3c190dc8	0.009341665
31	0x3d93083c	0.07179305
32	0x3cb0043c	0.021486394
33	0xbcbe85a0	-0.023257077
34	0xbc8c377f	-0.017116306
35	0xbd2545b6	-0.040349685
36	0x3e256351	0.16151167
37	0xbcef1ed8	-0.029189512
38	0xbce8b3d9	-0.02840607
39	0x3dc02d97	0.093836956
40	0xbdb6b9af	-0.08922135
41	0xbe756f71	-0.23968293
42	0x3e6e0cc5	0.23247059
43	0xbe353901	-0.17697527
44	0x3d249729	0.04018322
45	0xbd3d3359	-0.046191547
46	0xbcccaf98	-0.024986073
47	0xbdcb8f10	-0.099393964
48	0xbc99b77f	-0.018764256
49	0x3de01b89	0.10942752
50	0xbca19bb7	-0.019727571
51	0xbd1b9a2c	-0.037988827
52	0x3d93b0fe	0.07211493
53	0x3e980b95	0.29696336
54	0x3e16f909	0.14743437
55	0xbda0e3ab	-0.07855924
56	0xbcd0a553	-0.025469458
57	0xbd0e5303	-0.034747135
58	0x3db2379e	0.087020144
59	0x3d9f5ebf	0.07781743
60	0x3b01051b	0.001968688
61	0xbd324c54	-0.043529823
62	0x3cddc232	0.027070139
63	0xbdfbaa92	-0.12288393
64	0xbd9b0dae	-0.075709686
65	0xbcf2ec36	-0.02965365
66	0x3e054772	0.13015535
67	0xbcdc3b82	-0.026883844
68	0x3e36a385	0.17835815
69	0x3e27959d	0.16365667
70	0xbc9181fb	-0.017762175
71	0xbd2c0b9c	-0.04200326
72	0xbd849c2c	-0.064751
73	0xbccbc889	-0.024875896
74	0x3d5b604a	0.053558625
75	0xbe59132f	-0.21198724
76	0x3de59e87	0.11211877
77	0x3d96cadc	0.07362911
78	0xbdc5c48a	-0.096566275
79	0xbd524f75	-0.051345307
80	0x3d3412dd	0.043963302
81	0x3be6822d	0.007034561
82	0x3dfdc6f6	0.123914644
83	0x3df77c9b	0.120843135
84	0xbca0ecdf	-0.019644199
85	0x3e43eb69	0.1913277
86	0x3d29486b	0.04132883
87	0x3df513ba	0.11966653
88	0xbc8fa118	-0.01753287
89	0xbdaf8636	-0.085705206
90	0xbcfbf5b9	-0.030756818
91	0x3e344911	0.17605998
92	0x3d7149f8	0.058908433
93	0x3e29b315	0.1657222
94	0x3e3a50e1	0.18194915
95	0xbd63fd78	-0.05566165
96	0xbc98cd6e	-0.018652644
97	0x3db898a5	0.0901349
98	0xbd4ebf5c	-0.050475463
99	0x3c589883	0.013219955

fc2.weight f4 [10, 100]
0	0xbe7edaa1	-0.24888088
1	0xbedf0656	-0.4355952
2	0xbc948f88	-0.018134847
3	0xbdbf12e4	-0.09329775
4	0xbdab62a4	-0.083684236
5	0xbf08be90	-0.53415775
6	0xbdfa31d8	-0.12216538
7	0x3e9bf92d	0.30463544
8	0x3c8b7cdd	0.017027313
9	0xbc389b35	-0.011267473
10	0x3ddc4317	0.10754984
11	0xbe37c8e2	-0.17947724
12	0x3dca1eac	0.098691314
13	0xbe0edb64	-0.13950878
14	0xbe4dff9e	-0.20117041
15	0xbe11efa0	-0.14251566
16	0xbf001536	-0.50032365
17	0x3e8076e4	0.25090706
18	0xbdf2f117	-0.118623905
19	0xbd42aa9b	-0.047525983
20	0xbef5188a	-0.47870284
21	0xbb0b80ac	-0.0021286411
22	0xbea85d4f	-0.3288369
23	0xbf0f0ec4	-0.55881906
24	0xbe3d851a	-0.18507805
25	0xbe8f9211	-0.28041127
26	0xbdc47bab	-0.095939
27	0xbe3a027d	-0.18165012
28	0xbf3ac501	-0.72956854
29	0x3ddce0d0	0.10785067
30	0x3dde0b0a	0.10841949
31	0xbe3ecd36	-0.1863297
32	0xbd54cea7	-0.05195489
33	0x3ca875f9	0.020564066
34	0x3cf15cd0	0.029463202
35	0xbf5f2f93	-0.8718197
36	0x3d08737f	0.03331327
37	0xbda46676	-0.080273554
38	0xbd0e31d0	-0.034715474
39	0x3e20da1d	0.15708204
40	0xbf2aef91	-0.667718
41	0xbedadae4	-0.42745125
42	0x3d91172a	0.07084496
43	0xbf0f9680	-0.5608902
44	0x3e2469db	0.16056006
45	0xbc3e1d6a	-0.011603693
46	0xbdca51ca	-0.09878881
47	0xbe2f4198	-0.17114866
48	0xbda78f91	-0.0818168
49	0x3e1f4c84	0.15556532
50	0x3cc9128b	0.024544975
51	0xbaa03316	-0.0012222256
52	0x3de87493	0.1135036
53	0x3e0aeb84	0.13566405
54	0x3ea76349	0.32692936
55	0x3e4cbb97	0.19993435
56	0xbce12111	-0.027481588
57	0x3dcaa3e7	0.09894543
58	0x3d9b843c	0.07593581
59	0x3c4fa1a5	0.012672816
60	0xbceaa834	-0.028644659
61	0xbd6d6ff7	-0.057968106
62	0xbca93ac8	-0.020657912
63	0xbf3f7c9d	-0.7479952
64	0xbe887398	-0.2665069
65	0x3dd2d1df	0.10293936
66	0x3e2ea2ff	0.17054366
67	0xbe6e9b7b	-0.23301499
68	0x3e995dc7	0.2995436
69	0x3e03e52e	0.12880394
70	0x3d5cdaa5	0.053919453
71	0xbe38aa13	-0.18033628
72	0x3da696e1	0.081342466
73	0x3c83abc7	0.01607312
74	0xbe2dd18b	-0.16974466
75	0xbed6a3a2	-0.41921717
76	0x3e9a962b	0.30192694
77	0xbe4b3c33	-0.19847183
78	0xbda8dc33	-0.08245125
79	0xbd3cfd2e	-0.04613989
80	0x3e8d9d69	0.27659157
81	0xbe83c9a0	-0.25739765
82	0xbe2517a8	-0.16122305
83	0xbe793580	-0.24336815
84	0xbeb648a7	-0.35602304
85	0x3e1bd84d	0.15219231
86	0x3e2eacd5	0.17058118
87	0x3c962198	0.018326566
88	0xbd020728	-0.031745106
89	0x3e04ec2f	0.12980722
90	0xbe810e9f	-0.25206468
91	0x3d2f7b84	0.042842403
92	0x3db73e60	0.08947444
93	0x3e03dccf	0.128772
94	0x3d9c3584	0.07627395
95	0x3d18455f	0.037175532
96	0xbe335197	-0.17511593
97	0x3e0db0a8	0.1383692
98	0xbe8035e5	-0.25041118
99	0x3dff703e	0.124725804
100	0xbf416209	-0.75540215
101	0xbe9d86d7	-0.30766937
102	0xbc8a33f0	-0.016870469
103	0xbe89c4c6	-0.2690794
104	0x3d207004	0.039169326
105	0xbea28601	-0.31742862
106	0xbf08a85a	-0.53381884
107	0x3e93271f	0.28740785
108	0x3ef8e482	0.48611838
109	0x3dc3be4f	0.09557783
110	0x3e158a8f	0.14603637
111	0xbf63334c	-0.8875015
112	0x3e1fa8de	0.15591761
113	0xbed65917	-0.41864845
114	0xbf027618	-0.50961447
115	0xbf0a2261	-0.5395871
116	0xbba56f3c	-0.0050486606
117	0x3e7deab5	0.24796565
118	0xbf052241	-0.5200539
119	0x3dbfd3c5	0.09366564
120	0x3e83b7ca	0.25726157
121	0x3d76d057	0.060257282
122	0x3db24ac7	0.08705669
123	0xbe2a5ec0	-0.16637707
124	0xbf5ec4bc	-0.8701894
125	0x3e042d1b	0.12907831
126	0x3d26cb2b	0.0407211
127	0xbf286f2e	-0.65794647
128	0xbeeb8c82	-0.46005636
129	0xbdd979ef	-0.1061896
130	0x3e10bb40	0.1413393
131	0x3dbcb539	0.09214253
132	0xbee87c73	-0.45407447
133	0xbc52fbbd	-0.012877402
134	0x3db9929c	0.09061167
135	0x3dfbdda4	0.12298134
136	0x3d96cb2f	0.07362973
137	0x3da74955	0.08168284
138	0xbcbebd74	-0.023283698
139	0xbefaefaa	-0.49010974
140	0xbc9e5d19	-0.019331502
141	0xbf13bc72	-0.5770942
142	0x3daa5579	0.08317084
143	0xbf23c655	-0.63974506
144	0x3e3ccdb5	0.18437846
145	0xbc4713b2	-0.012150692
146	0xbd8ba0e8	-0.068178
147	0xbece6a3d	-0.40315428
148	0xbde344c9	-0.11097104
149	0x3dc3c926	0.095598504
150	0x3d9551ee	0.072910175
151	0xbd1e164f	-0.038595494
152	0x3dfdcce6	0.12392597
153	0x3e1ba8d7	0.15201126
154	0x3e9af6aa	0.30266315
155	0x3ccf6038	0.025314435
156	0xbce7963a	-0.028269876
157	0xbcec5e84	-0.028853662
158	0x3dd493b5	0.103797354
159	0xbf390ad7	-0.72282165
160	0x3e8336e1	0.25627807
161	0xbdd08f39	-0.101835676
162	0xbef60f33	-0.4805847
163	0xbf0627ca	-0.52404463
164	0xbeeb1a59	-0.4591854
165	0xbf48638a	-0.78276885
166	0xbd06c256	-0.032900177
167	0xbe9fc10b	-0.31201968
168	0x3e84a5b5	0.25907674
169	0x3e074ded	0.1321332
170	0xbd933fbe	-0.07189892
171	0xbeb5a015	-0.35473695
172	0x3e66bc38	0.22532737
173	0x3cede1d3	0.029038345
174	0xbea99793	-0.33123454
175	0xbec72af9	-0.38899973
176	0x3e84a130	0.25904226
177	0x3e205d6f	0.15660642
178	0x3ea2af39	0.3177431
179	0xbdae75b7	-0.08518546
180	0x3e819ead	0.25316373
181	0xbf2d4685	-0.6768573
182	0xbefb92f3	-0.4913555
183	0xbd75ebb0	-0.060039222
184	0xbdb27d59	-0.087153144
185	0x3e06f37b	0.13178818
186	0xbd79816f	-0.060914453
187	0xbec95bec	-0.39327943
188	0x3d374d4e	0.044751458
189	0xbeb31923	-0.34980115
190	0x3d4f2ffa	0.050582863
191	0x3c97734c	0.018487595
192	0x3c921bfe	0.017835613
193	0x3bd9a364	0.006641792
194	0x3d96f6ff	0.073713295
195	0x3c9f8abd	0.019475335
196	0xbe543ef2	-0.20727137
197	0x3e1132d8	0.14179552
198	0xbea2663b	-0.3171862
199	0xbe842d51	-0.25815824
200	0x3eb4b07d	0.352909
201	0x3e4b2090	0.1983664
202	0xbd0f7f25	-0.035033364
203	0xbeddd1fe	-0.43324274
204	0xbca378d7	-0.019955082
205	0x3edad635	0.42741552
206	0xbf1ad7dd	-0.6048563
207	0xbee08468	-0.43851018
208	0xbe71ba8e	-0.23606321
209	0xbeb33f34	-0.35009158
210	0x3dcbce38	0.099514425
211	0xbc37ad88	-0.011210807
212	0x3d0c555b	0.03426109
213	0x3e2b04e6	0.16701087
214	0x3e0ffd41	0.14061452
215	0x3e25c507	0.16188441
216	0xbe0ebf8f	-0.13940261
217	0xbea445ae	-0.3208441
218	0x3e3fc581	0.18727686
219	0x3d3c5155	0.045976
220	0xbe27e939	-0.16397561
221	0x3e010dd8	0.12602937
222	0xbd8d7461	-0.06906963
223	0x3db6694e	0.08906804
224	0x3e3c2ae2	0.18375733
225	0x3e2e5485	0.17024429
226	0xbd260dbd	-0.040540446
227	0x3e5a7659	0.21334209
228	0x3dbcb838	0.092148244
229	0xbec45ac6	-0.38350505
230	0x3e4cb17a	0.19989577
231	0x3eb44fb9	0.35217074
232	0xbed3dff1	-0.4138179
233	0xbd958a1e	-0.073017344
234	0x3db79ec2	0.089658275
235	0xbdca98fe	-0.09892462
236	0x3e42c5db	0.19020788
237	0xbd75b8b7	-0.05999061
238	0xbd795654	-0.060873345
239	0xbd28f5b9	-0.041249964
240	0xbe3d6aea	-0.18497816
241	0xbc075ec9	-0.008262345
242	0x3e0c1cc6	0.13682851
243	0xbebfb4b1	-0.37442544
244	0xbf0ed044	-0.5578654
245	0x3d30b975	0.043145616
246	0xbb4f326d	-0.003161575
247	0x3ecf54cd	0.40494385
248	0x3d036473	0.032078218
249	0xbe8502a6	-0.25978583
250	0x3d8fb7ed	0.07017503
251	0xbd17404e	-0.03692656
252	0xbf24d4b3	-0.64387053
253	0xbe9121ac	-0.28346002
254	0xbee30bda	-0.4434498
255	0xbeef4d7d	-0.46738806

fc2.bias f4 [10]
0	0xbccc8dec	-0.024970017
1	0xbc2f75aa	-0.010709206
2	0xbedd6011	-0.43237355
3	0x3eb9cd37	0.3628938
4	0xbe3bb84d	-0.18332024
5	0xbe9ce89c	-0.30646217
6	0x3ebb4283	0.36574182
7	0x3e3a3184	0.18182951
8	0xbda63f01	-0.08117486
9	0xbd241880	-0.040062428
