results/mfdwc-baseline/a-c/best_CL_a-c.pth (torch, 109561 bytes, 4 tensors)

fc1.weight f4 [100, 256]
-0.02117621 0.039021548 -0.06059548 0.08972995 0.30646512 -0.18090582 -0.16727647 -0.04565582
-0.013208549 0.054046843 -0.08192411 0.19431514 -0.0015465657 -0.27889246 0.23247796 0.07409682
-0.119763754 0.22402792 -0.057196207 0.03732794 -0.22389317 0.34419656 -0.030101521 -0.27129233
0.025754455 -0.034050208 -0.010254819 -0.046915352 -0.123496175 0.07407482 0.002388466 0.07627004
-0.15301847 0.13314198 -0.00873158 0.0048869294 0.08501294 -0.07765687 -0.08746413 0.035481773
-0.091655195 -0.06280715 0.074458614 -0.18231809 -0.0020196147 0.12564185 -0.045821037 -0.19146107
0.288689 -0.061493218 -0.23976055 -0.1613532 0.091333695 -0.2767991 0.08648655 -0.1873754
0.26468313 -0.13855945 -0.015351812 0.05375226 -0.0061468827 0.020980218 0.08521851 -0.11720101
-0.0701526 0.05817447 -0.13609143 -0.02558117 0.00838611 -0.043146797 -0.09613079 0.15778923
-0.00091194396 0.024171319 -0.25659132 0.07490442 0.015764311 0.020202583 -0.2665045 0.11398807
-0.080057986 0.14232372 -0.20734882 -0.009038475 0.74511904 0.044677805 -0.20988674 -0.1650467
-0.028758522 0.20433888 -0.27931038 0.28043294 0.047453105 -0.09321987 -0.15832955 0.1610894
0.3000103 -0.036810916 -0.017679878 -0.17948803 0.09026916 0.17527053 -0.07455993 -0.08308644
0.04497945 0.012050852 -0.14404044 0.15136334 0.1724159 -0.23873636 0.12772448 -0.14424197
-0.08213784 0.0816026 -0.020835781 0.13041274 0.5246646 0.026920486 -0.084951125 -0.18556085
-0.0048888037 -0.18083215 0.30275106 0.081932135 -0.06598027 0.013604074 0.06341416 -0.028827656
-0.0015640646 0.035404406 0.1024244 0.003875822 0.26844764 -0.091668904 -0.05783799 0.02973659
-0.11799404 0.13341828 0.3367088 -0.23730676 0.0503217 0.04838106 -0.121352874 -0.04183099
0.11918602 0.7018614 -0.20409459 -0.12770154 -0.04598998 0.09098734 -0.20340754 -0.012124501
-0.042642187 0.19631355 -0.15897177 0.18045023 -0.1374192 0.16550854 0.09472037 -0.09325084
-0.18405889 0.114808224 -0.024761062 0.043396614 0.0057848627 -0.18407774 0.04713001 -0.075454086
0.039105993 0.05590639 -0.08874003 -0.0611825 -0.07363872 0.21599446 -0.14085111 0.045881823
0.4422555 0.30512246 -0.029818736 -0.17043515 -0.11976089 0.15358834 -0.0613339 -0.35898897
0.09719389 -0.116630375 0.043228585 -0.03564587 0.14006208 0.07182159 -0.23193502 -0.06738093
0.3053683 0.11998908 -0.16047001 -0.16235487 0.03997403 -0.015297798 0.0308787 -0.06449019
-0.049396977 -0.023447538 0.059859537 0.0266675 -0.046242867 0.09635339 -0.14293852 0.24037172
-0.035760976 0.015819315 -0.14780048 0.19876291 0.21983388 -0.0730811 0.13634016 0.10409065
0.16420522 -0.052807644 0.048020057 -0.0166978 0.17904317 0.02286019 -0.15826339 -0.2971021
-0.008086273 0.08972059 -0.030816665 -0.10029722 0.120720096 0.06604995 -0.012099417 -0.019617243
0.06058374 0.11554473 -0.06282892 -0.27537757 0.12704709 -0.0012100455 0.1630172 -0.15141363
0.43823877 0.058142856 -0.10774915 -0.17761385 -0.03270333 0.1438704 -0.16654645 -0.1271112
0.01582268 0.030623259 -0.040319957 0.17894238 0.6598685 -0.057972275 -0.13232756 -0.2232796
00000000: bb79 adbc 0fd5 1f3d f732 78bd 56c4 b73d
00000010: ffe8 9c3e 603f 39be 864a 2bbe 9901 3bbd
00000020: ab68 58bc 3960 5d3d d4c7 a7bd 8cfa 463e
00000030: 22b6 caba feca 8ebe b40e 6e3e 13c0 973d
00000040: b346 f5bd 9367 653e 9246 6abd 2fe5 183d
00000050: 4044 65be 883a b03e 7797 f6bc d4e6 8abe
00000060: 02fb d23c 3b78 0bbd d403 28bc 502a 40bd
00000070: 90eb fcbd 8ab4 973d cf87 1c3b 7733 9c3d
00000080: e0b0 1cbe 5f56 083e e70e 0fbc 8922 a03b
00000090: 441b ae3d 910a 9fbd 6520 b3bd 5655 113d
000000a0: b8b5 bbbd 09a1 80bd c27d 983d 98b1 3abe
000000b0: 835b 04bb 42a8 003e d7ae 3bbd 5f0e 44be
000000c0: 0bcf 933e 50e0 7bbd ca83 75be c639 25be
000000d0: 290d bb3d 9db8 8dbe dc1f b13d 56df 3fbe
000000e0: 8c84 873e 87e2 0dbe 2b86 7bbc 542b 5c3d
000000f0: ca6b c9bb b5de ab3c 0b87 ae3d 1507 f0bd
00000100: 2bac 8fbd 5a48 6e3d 8d5b 0bbe 9a8f d1bc
00000110: e565 093c b2ba 30bd 38e0 c4bd 8093 213e
00000120: 860f 6fba ee02 c63c f05f 83be 7d67 993d
00000130: 2824 813c e37f a53c 4773 88be 9472 e93d
00000140: 71f5 a3bd 4fbd 113e 4053 54be 1d16 14bc
00000150: 1fc0 3e3f 1300 373d 8dec 56be 0102 29be
00000160: fe96 ebbc 363e 513e c501 8fbe e894 8f3e
00000170: 305e 423d 0fea bebd 2421 22be 9ff4 243e
00000180: f39a 993e 0bc7 16bd 64d5 90bc b6cb 37be
00000190: 0adf b83d 1e7a 333e e0b2 98bd 3929 aabd
000001a0: 5f3c 383d f070 453c 567f 13be fefe 1a3e
000001b0: cb8d 303e 4e77 74be 35ca 023e 2bb4 13be
000001c0: e237 a8bd 441f a73d cdaf aabc eb8a 053e
000001d0: 6b50 063f 5a88 dc3c dbfa adbd aa03 3ebe
000001e0: 4232 a0bb 102c 39be 3002 9b3e 09cc a73d
000001f0: aa20 87bd 9fe3 5e3c 48df 813d fa27 ecbc
00000200: 4d01 cdba 3604 113d e2c3 d13d 8101 7e3b
00000210: f871 893e e8bc bbbd 87e7 6cbd 269a f33c
00000220: dca6 f1bd cd9e 083e 1965 ac3e 8b00 73be
00000230: 201e 4e3d 382b 463d db87 f8bd f956 2bbd
00000240: cd17 f43d 30ad 333f 2cfe 50be 31c4 02be
00000250: fd5f 3cbd 9257 ba3d 114a 50be d8a5 46bc
00000260: 93a9 2ebd 6b06 493e 7fc9 22be f2c7 383e
00000270: 9eb7 0cbe 127b 293e c1fc c13d 4cfa bebd
00000280: ef79 3cbe 9320 eb3d b6d7 cabc a6c0 313d
00000290: f28e bd3b e07e 3cbe 660b 413d ac87 9abd
000002a0: 9b2d 203d 19fe 643d 55bd b5bd 809a 7abd
000002b0: e6cf 96bd a72d 5d3e 463b 10be 94ee 3b3d
000002c0: 506f e23e 0339 9c3e 6c46 f4bc 8d86 2ebe
000002d0: 3345 f5bd 4346 1d3e 4139 7bbd 67cd b7be
000002e0: 970d c73d e8db eebd 7510 313d 6701 12bd
000002f0: 6f6c 0f3e 3317 933d 6080 6dbe 03ff 89bd
00000300: 3c59 9c3e d6bc f53d 4052 24be 5b40 26be
00000310: cfbb 233d 9ea3 7abc 54f5 fc3c 6f13 84bd
00000320: 7c54 4abd 0d15 c0bc 462f 753d cd75 da3c
00000330: 2969 3dbd ed54 c53d 7a5e 12be 0124 763e
00000340: 1a7a 12bd 8297 813c 0259 17be 8188 4b3e
00000350: 221c 613e 8bab 95bd c19c 0b3e 7b2d d53d
00000360: 6a25 283e d44c 58bd aeb0 443d d3c9 88bc
00000370: 1857 373e 4b45 bb3c cc0f 22be c41d 98be
00000380: 4a7c 04bc 6ebf b73d 3b73 fcbc a168 cdbd
00000390: 193c f73d 3245 873d a23c 46bc 57b4 a0bc
000003a0: a826 783d b7a2 ec3d 73ac 80bd 4afe 8cbe
000003b0: a218 023e 649a 9eba fbed 263e 2d0c 1bbe
000003c0: d560 e03e 3427 6e3d 96ab dcbd 68e0 35be
000003d0: edf3 05bd c352 133e 278b 2abe 7029 02be
000003e0: 919e 813c a1dd fa3c 8a26 25bd ac3c 373e
000003f0: 24ed 283f 5674 6dbd e080 07be 68a3 64be

fc1.bias f4 [100]
0.04732673 -0.014321103 -0.17588063 0.03805963 -0.0312335 -0.05195988 -0.09447489 0.15852982
-0.025455585 0.11941406 -0.034993824 -0.06836397 0.19132993 -0.06598341 -0.042538006 0.0461878
-0.08896854 -0.03617158 -0.028531885 0.14806788 0.074041516 0.07729695 -0.010951024 -0.03915337
0.06141347 -0.027515143 -0.031543028 0.24581777 -0.095241204 -0.020703005 -0.02453829 0.017927116
0.07038605 0.038657065 -0.024502913 -0.08042425 -0.1368567 -0.021326462 0.23038828 0.16109645
0.08392554 0.046763204 -0.034257255 -0.004284151 -0.029939018 -0.0791843 0.05974647 -0.12859342
-0.14560886 0.01359114 0.17322393 -0.008438787 0.15021138 -0.03647436 -0.046956606 -0.09755526
-0.07245325 -0.16877471 -0.042972494 0.31483036 -0.061903935 -0.021030447 -0.05272898 -0.10293473
-0.12434161 -0.06848092 0.09332783 0.033760473 0.29058096 0.008652772 -0.02369263 0.061381172
-0.23426995 0.26299533 -0.0142270075 0.057616066 -0.025515733 0.22984597 -0.045220256 0.09606798
-0.15900148 -0.12426856 0.05427114 -0.032515023 -0.07948841 -0.044124946 -0.031329654 -0.048782937
-0.03701369 -0.05236564 -0.024729807 -0.08643358 -0.21772571 0.047548402 0.0037347316 0.20670581
0.09925005 0.14548795 -0.19991393 0.17464316
00000000: acd9 413d 0fa3 6abc 0d1a 34be 6ae4 1b3d
00000010: 66dd ffbc e2d3 54bd 0d7c c1bd a455 223e
00000020: 3b88 d0bc 5c8f f43d af55 0fbd 6902 8cbd
00000030: feeb 433e 4f22 87bd 553c 2ebd 6b2f 3d3d
00000040: 2335 b6bd a728 14bd b3bb e9bc 1b9f 173e
00000050: 14a3 973d dd4d 9e3d ec6b 33bc 495f 20bd
00000060: b18c 7b3d 7067 e1bc 4333 01bd a7b7 7b3e
00000070: d20d c3bd 5999 a9bc 8604 c9bc e3db 923c
00000080: 9026 903d df56 1e3d 55ba c8bc 78b5 a4bd
00000090: 2a24 0cbe d5b4 aebc e8ea 6b3e 78f6 243e
000000a0: 27e1 ab3d c68a 3f3d 5651 0cbd 1062 8cbb
000000b0: ac42 f5bc 612b a2bd b7b8 743d fead 03be
000000c0: 7d1a 15be 5fad 5e3c 9d61 313e d742 0abc
000000d0: 03d1 193e 2366 15bd 9255 40bd 0dcb c7bd
000000e0: 5f62 94bd 47d3 2cbe ed03 30bd 7231 a13e
000000f0: fb8e 7dbd 0b48 acbc 58fa 57bd 72cf d2bd
00000100: d0a6 febd b93f 8cbd a922 bf3d 6c48 0a3d
00000110: 07c7 943e 5bc4 0d3c 0c17 c2bc d36a 7b3d
00000120: 76e4 6fbe 53a7 863e 6518 69bc d3fe 6b3d
00000130: 5f06 d1bc be5c 6b3e e038 39bd 4abf c43d
00000140: 49d1 22be 8480 febd 6a4b 5e3d 792e 05bd
00000150: d2ca a2bd 5cbc 34bd 8653 00bd 9ed0 47bd
00000160: ab9b 17bd 5a7d 56bd 2a96 cabc 1704 b1bd
00000170: 7df3 5ebe 1dc2 423d 66c2 743b b0aa 533e
00000180: 9c43 cb3d cbfa 143e 3db6 4cbe a8d5 323e

fc2.weight f4 [10, 100]
0.14425626 -0.11038284 -0.15053424 -0.46748343 0.04154311 0.045191724 -0.7502436 0.1924471
-0.028020656 0.02434238 -0.14967999 -0.4438976 0.21918145 -0.61005545 0.13377902 0.051128704
0.2733415 -0.004097894 -0.05352553 0.21759465 0.073727444 0.11032161 -0.0869854 0.11457351
-0.38705772 -0.1929902 -0.0068574534 0.122164845 -0.22271764 0.084990345 -0.08795436 0.041329168
-0.18589887 0.3691334 0.056473784 0.13673978 -0.79498756 0.0045328373 0.11708072 0.09996669
0.23541424 -0.3370976 0.02036262 0.19688271 -0.051671986 -0.28883335 0.13658595 -0.6320243
0.2547766 -0.40075588 0.098008275 -0.03572041 0.06790029 -0.019435009 0.014123551 -0.23086359
-0.44521224 -0.3910583 0.08782859 0.16608818 0.09091937 0.18339467 -0.34273607 -0.4442971
-0.6156828 0.02585204 0.19490555 0.09872913 0.1212483 -0.5327831 0.12101549 -0.28228992
-0.6568958 0.16097619 -0.037426308 0.16228944 -0.15280008 0.08943947 0.08926022 0.059625313
-0.0007873597 -0.43972453 -0.042921506 0.04109031 -0.14878814 -0.055580862 0.10386031 -0.21281736
-0.0004594939 -0.019530717 0.0419175 -0.84683144 -0.5615065 0.18588646 -0.34122494 0.12383741
0.10980751 0.088321835 -0.15046184 0.028605638 0.14001329 0.060335018 -0.569723 -0.6736624
0.0008334564 0.041918013 -0.8650619 0.23156552 -0.06336861 0.06143542 -0.38206038 0.16037086
0.25323793 0.30713087 -0.5384683 0.14785297 -0.79742855 -0.044178225 -0.03851474 -0.06904453
-0.37473822 0.06138925 -0.0344924 -0.6105713 0.0011475348 0.026685914 -0.08983183 0.13392834
-0.737286 -0.07994048 -0.059667937 -0.8253626 -0.29069266 -0.091752745 0.018601336 -0.4795816
-0.6797779 0.020121649 0.11942418 -0.25316575 0.26008263 -0.45692477 -0.2859395 0.17847703
-0.07653977 -0.10263758 0.1600182 -0.25827512 -0.43530017 -0.09452949 0.14374854 -0.7598037
0.11560895 -0.064888135 -0.051451337 -0.62013084 0.15754655 0.24400994 -0.01588686 0.21141058
-0.04118511 0.18674906 -1.0333991 0.038891044 -0.04186798 0.0040524495 0.2014969 0.06040073
0.13382378 -0.6975973 -0.76259387 -0.12637451 -0.7325584 0.1502716 0.030692913 0.1589534
-0.07530964 0.08018407 0.058457702 0.14541194 0.28888914 -0.15848735 -0.20826948 0.04191185
-0.47228837 -0.044781636 0.06340189 -0.56791073 -0.02150962 0.017667437 -0.0019664064 -0.85112786
-0.5872552 -0.51553893 -0.28951463 0.12777688 0.073720545 0.063245535 -0.18917435 0.083338805
-0.34473106 0.031565215 0.1336461 0.74489737 -0.017686944 -0.028797304 0.06642496 -0.16384739
0.03493009 -0.10924353 0.1601619 -0.3424133 -0.41258693 0.05179249 -0.09999378 -0.12076894
0.040977046 -0.071355455 -0.07011344 0.091277 0.15172137 -0.7184929 0.013502895 0.47618684
0.17484052 0.21294686 -0.089472376 -0.00037636605 0.121495694 -0.027058356 0.06646698 -0.087857395
0.09774699 0.14535908 -0.07789013 0.00035577637 0.09463055 0.023360223 -0.30754453 0.2450877
-0.23066193 0.16298792 0.19182603 -0.7291562 0.02580899 0.44087374 -0.37335634 -0.32936308
-0.13091992 0.11028662 0.09927835 -0.003658134 0.09766085 0.053719174 -0.07994809 -0.37279078
00000000: eab7 133e 6610 e2bd a625 1abe fd59 efbe
00000010: 1c29 2a3d f51a 393d f70f 40bf da10 453e
00000020: 938b e5bc ac69 c73c b645 19be 8c46 e3be
00000030: 1a71 603e 982c 1cbf 5efd 083e 556c 513d
00000040: 6bf3 8b3e a047 86bb 963d 5bbd 22d1 5e3e
00000050: 6afe 963d 4cf0 e13d 6725 b2bd 84a5 ea3d
00000060: 6e2c c6be 399f 45be 7db4 e0bb 9031 fa3d
00000070: 1810 64be 6b0f ae3d 6a21 b4bd c648 293d
00000080: 465c 3ebe 0eff bc3e 0e51 673d 8305 0c3e
00000090: 4e84 4bbf 3288 943b 04c8 ef3d 56bb cc3d
000000a0: 6e10 713e 0e98 acbe 82cf a63c 9f9b 493e
000000b0: 01a6 53bd f7e1 93be 30dd 0b3e 58cc 21bf
000000c0: 1472 823e e02f cdbe 90b8 c83d 914f 12bd
000000d0: 4f0f 8b3d 2b36 9fbc 7766 673c 8167 6cbe
000000e0: dcf2 e3be cb38 c8be 7adf b33d 0513 2a3e
000000f0: ef33 ba3d d0cb 3b3e 1a7b afbe e97a e3be
00000100: 639d 1dbf a8c7 d33c 5295 473e 8032 ca3d
00000110: 0751 f83d 7964 08bf f8d6 f73d 4e88 90be
00000120: 532a 28bf f1d6 243e 544c 19bd 342f 263e
00000130: a077 1cbe 0a2c b73d 10ce b63d ac39 743d
00000140: d166 4eba 9323 e1be 76ce 2fbd 504e 283d
00000150: eb5b 18be c2a8 63bd b7b4 d43d cbec 59be
00000160: 3ae8 f0b9 e2fe 9fbc afb1 2b3d f2c9 58bf
00000170: e4be 0fbf 0559 3e3e 09b5 aebe 789e fd3d
00000180: c3e2 e03d 14e2 b43d ab12 1abe 5f56 ea3c
00000190: a55f 0f3e da21 773d 5ed9 11bf 2475 2cbf
000001a0: 507c 5a3a 39b2 2b3d b274 5dbf 831f 6d3e
000001b0: 67c7 81bd b5a3 7b3d 6b9d c3be 4238 243e
000001c0: 67a8 813e 4240 9d3e 0fd9 09bf c566 173e
000001d0: 4724 4cbf 3af4 34bd a2c1 1dbd 3867 8dbd
000001e0: b0dd bfbe 4b73 7b3d e747 0dbd 674e 1cbf
000001f0: e168 963a 6b9c da3c c0f9 b7bd 8324 093e
00000200: c6be 3cbf d6b7 a3bd 5e66 74bd f74a 53bf
00000210: abd5 94be dde8 bbbd d461 983c b88b f5be
00000220: ed05 2ebf 28d6 a43c aa94 f43d f19e 81be
00000230: 8d29 853e 0bf2 e9be aa66 92be afc2 363e
00000240: e2c0 9cbd a733 d2bd d0db 233e a33c 84be
00000250: aadf debe ad98 c1bd d132 133e 7f82 42bf
00000260: 63c4 ec3d 12e4 84bd a3be 52bd e5c0 1ebf
00000270: e253 213e bedd 793e 2925 82bc 047c 583e
00000280: b8b1 28bd 253b 3f3e 6c46 84bf 374c 1f3d
00000290: c27d 2bbd 69ca 843b 3455 4e3e c266 773d
000002a0: 1a09 093e bd95 32bf 5a39 43bf 5268 01be
000002b0: f388 3bbf cce0 193e b46f fb3c aec4 223e
000002c0: f13b 9abd 8c37 a43d 5871 6f3d dee6 143e
000002d0: 47e9 933e 824a 22be 9844 55be c3ab 2b3d
000002e0: c8cf f1be f36c 37bd dad8 813d 9962 11bf
000002f0: f134 b0bc 4dbb 903c d3de 00bb 84e3 59bf
00000300: 5b56 16bf 5cfa 03bf 433b 94be f1d7 023e
00000310: ccfa 963d e086 813d ecb6 41be 89ad aa3d
00000320: 9780 b0be 874a 013d 86da 083e 98b1 3e3f
00000330: 36e4 90bc 53e8 ebbc cf09 883d 9cc7 27be
00000340: db12 0f3d 12bb dfbd 7b01 243e cc50 afbe
00000350: 983e d3be 5d24 543d 8ac9 ccbd b555 f7bd
00000360: 8cd7 273d cf22 92bd a397 8fbd 70ef ba3d
00000370: d95c 1b3e 27ef 37bf 3f3b 5d3c c3ce f33e
00000380: 6509 333e be0e 5a3e 4b3d b7bd ff52 c5b9
00000390: bcd2 f83d 7ca9 ddbc d71f 883d 94ee b3bd
000003a0: 932f c83d 03d9 143e dc84 9fbd 7f87 ba39
000003b0: a9cd c13d f05d bf3c 7a76 9dbe 45f8 7a3e
000003c0: a432 6cbe 4ee6 263e 0b6e 443e fba9 3abf
000003d0: 606d d33c 34ba e13e 9028 bfbe 47a2 a8be
000003e0: df0f 06be f4dd e13d 7352 cb3d 4ebd 6fbb
000003f0: 6902 c83d a308 5c3d d3bb a3bd 6fde bebe

fc2.bias f4 [10]
0.03415334 0.3108783 -0.33071107 0.30439964 -0.19768557 -0.40246063 0.22659284 0.12680614
-0.1523432 -0.005699294
00000000: 5fe4 0b3d 712b 9f3e f652 a9be 45da 9b3e
00000010: 166e 4abe 520f cebe f407 683e 78d9 013e
00000020: dbff 1bbe 25c1 babb
