results/mfdwc-baseline/a-s3/best_CL_a-s3.pth (torch, 109455 bytes, 4 tensors)

fc1.weight f4 [100, 256]
000000 58 26 8b 3e a7 ae 01 be a8 5b c1 3d 98 eb 58 3d
       0.2717769 -0.12664281 0.0944131 0.052959055
000010 bf 0f 89 3e 3f 9a 63 bd 20 4c 81 bd 02 6f 06 be
       0.26769826 -0.055567022 -0.06313348 -0.13128284
000020 96 f9 98 bc 64 16 a9 3d e7 66 0b 3d 2a 21 75 bd
       -0.0186737 0.08256224 0.034033682 -0.05984608
000030 b2 2f 8f bd fb ca ed bc 28 5c 42 bd 07 cc db 3e
       -0.06991519 -0.029027453 -0.04745117 0.42929098
000040 39 3b 97 3d 53 93 b6 3c 2a 72 36 be 85 5c ca 3d
       0.07384343 0.022287047 -0.17816988 0.09880928
000050 c6 e0 94 bc 20 13 e3 3d 0b a7 64 be b1 8f 4d 3e
       -0.018173587 0.11087632 -0.22329347 0.20074345
000060 73 18 17 3e eb d6 aa 3d c2 a7 c1 be 99 11 7a bd
       0.1475542 0.083417736 -0.37823302 -0.06105194
000070 4d 2e 4d 3d 56 e4 36 39 ee 5d 8f be 29 7d a5 3d
       0.050092984 0.00017441934 -0.2800135 0.08080513
000080 70 5e a6 3d 1a fa 45 be f1 bf 3e 3d 09 83 ad 3d
       0.08123481 -0.19333687 0.04656977 0.084722586
000090 6a 25 dd 3d 6a d1 13 3d b1 7a 2f 3d c5 be 49 be
       0.10798152 0.036088385 0.042841617 -0.19701679
0000a0 33 16 82 3d 56 1c bc bd 34 15 c2 3d 02 96 7a 3d
       0.063518904 -0.09185092 0.094767004 0.061178215
0000b0 98 41 d3 bd da 57 9f bc 93 e8 21 3e 4b e6 da 3e
       -0.103152454 -0.01945107 0.15811376 0.42753825
0000c0 48 26 1a 3d bf c2 86 3c bf e2 5d 3d 87 9a 2f be
       0.037634164 0.016450284 0.05417132 -0.17148791
0000d0 30 76 04 3f 49 eb 45 be 08 27 01 be 4b 0d 46 be
       0.5174284 -0.19328035 -0.12612545 -0.19341008
0000e0 8f 39 c8 3e df 66 16 3e 89 80 1c bd c0 4f 68 be
       0.39106414 0.1468768 -0.03820852 -0.22686672
0000f0 00 23 a9 3c 65 26 a2 3e cf 3f 67 3d 89 ff f9 bd
       0.020646572 0.31669918 0.056457337 -0.122069426
000100 f1 7b 79 3e 7c 1c 75 3d 5d c7 2d be ad 27 14 be
       0.24363686 0.059841618 -0.16970582 -0.1446826
000110 fe 1a d7 3d 11 47 1c be 0a 54 c0 be d4 70 aa 3d
       0.10503195 -0.15261485 -0.37564117 0.083223015
000120 7a fa 79 3d d3 b8 20 be 56 77 02 3e 7b ac ea bc
       0.06102989 -0.15695505 0.12740836 -0.028646698
000130 13 d2 c8 3e 68 c4 07 3f 18 c2 0a be f4 33 14 be
       0.39222774 0.5303407 -0.13550603 -0.14472944
000140 6e 39 1d be 18 01 98 bd 08 55 ce 3d 3e d7 1e 3e
       -0.15353939 -0.074220836 0.10074812 0.15511796
000150 05 80 b2 bd 36 72 33 3e 2b 03 21 bc 9f e0 d3 3d
       -0.08715824 0.17524037 -0.009827415 0.103455774
000160 0f 93 1e 3c 56 a6 87 bc 70 32 68 bd 74 db 8e bb
       0.009678616 -0.016558807 -0.056688726 -0.004359657
000170 c0 cb a6 bd ed e7 5f 3e 24 81 b4 3e 86 12 a8 bd
       -0.08144331 0.21865816 0.35254776 -0.08206658
000180 54 10 22 be 6a c5 b8 3d 19 ff d6 bd ae 26 1b 3f
       -0.15826541 0.09022029 -0.10497875 0.60605896
000190 6b 2d 33 3d eb eb 65 3d 2d ee b6 be 1a 47 4f bd
       0.043744486 0.056133192 -0.3572859 -0.050604917
0001a0 01 a9 3b bd c2 57 8a 3e 38 4d 1d be 6b af 0a be
       -0.04581547 0.2702008 -0.15361488 -0.13543479
0001b0 3a ac 2e 3e 4f c1 57 3d fc 63 85 be bc 1f e7 3d
       0.17057887 0.052674588 -0.26052845 0.1128535
0001c0 18 2f a3 3e 08 d4 89 be 03 a6 2b be b3 21 36 3d
       0.31871867 -0.2691958 -0.16762547 0.04446573
0001d0 fc 6e dd bc b6 28 4e 3e c2 01 4e be 3b a5 69 3c
       -0.02703046 0.20132717 -0.20117858 0.014260585
0001e0 b1 62 1b 3e b3 9a 20 3e 06 51 48 3d 0e cb 79 3d
       0.15174367 0.15684013 0.048905395 0.060984664
0001f0 a6 d1 20 3d 02 f4 b9 3d aa 60 7e be 10 88 11 3e
       0.039262436 0.09079744 -0.24841562 0.1421206
000200 72 07 19 3e ec 0b 34 bc 43 77 ec bb 5e 51 c1 bd
       0.14944246 -0.0109891705 -0.0072163655 -0.09439348
000210 3e 74 5f 3d 45 f8 1c 3d 2e 03 90 bc dc c1 35 be
       0.054554217 0.038322706 -0.017579641 -0.17749733
000220 21 1b dd 3d 73 47 54 3c 7b 1c e8 bc 23 cb c4 3d
       0.1079619 0.012956488 -0.028333893 0.09609058
000230 98 e3 dc 3d 32 6c 51 3e ef 8c 17 be 12 96 78 bd
       0.107855976 0.2045143 -0.14799856 -0.060689993
000240 d1 a6 a2 bd 89 95 9f 3c 86 b0 bc be 20 0a 83 3e
       -0.07941974 0.019480484 -0.36853427 0.25593662
000250 67 c7 89 3c a0 84 28 3d 4e 0d e4 be b3 30 01 3e
       0.016818715 0.041142106 -0.445414 0.12616234
000260 4a 1b 0a 3e 39 0b 45 bd 69 79 17 be 9e b5 e5 3d
       0.13486972 -0.048106406 -0.14792408 0.11216281
000270 8d 00 bc bd 08 0b 91 3d a2 5d 67 3e 2c 35 0f be
       -0.091797926 0.07082182 0.22594312 -0.13985127
000280 00 c9 21 be a9 84 df 3c a3 d9 12 3e 27 4a c1 bd
       -0.15799332 0.027284937 0.14340834 -0.094379716
000290 3e 99 81 3d e2 9f cc bd 2b 89 99 3d bf 34 0d 3f
       0.06328057 -0.09991433 0.07496866 0.5515861
0002a0 a1 10 43 bd da 2a 8a 3b e6 94 1c 3e f6 b6 dc bd
       -0.04762328 0.004216534 0.15291175 -0.107770845
0002b0 73 99 2d 3d d3 88 14 3d db bb e9 bd 4b bb 53 bd
       0.04238267 0.0362633 -0.11412784 -0.05169229
0002c0 67 80 87 3e 11 e6 fe bd 51 e0 20 3e 02 92 30 3c
       0.2646515 -0.124462254 0.1571057 0.0107769985
0002d0 fa 54 95 3e 66 9b a9 bd 35 bf 2d 3d c4 84 e8 bd
       0.29166394 -0.08281593 0.042418677 -0.11353448
0002e0 24 cb fe b9 27 33 fe bd 00 7b 0e 3c 0f 52 a0 3d
       -0.00048598007 -0.124121 0.008696318 0.078281514
0002f0 c4 54 70 bd 1f 4c b1 3d b0 53 ea bd ae b8 69 bd
       -0.05867459 0.08657097 -0.114417434 -0.05706089
000300 fd 2e 23 3e e0 39 26 bd bf 58 29 be 6d bf a2 bc
       0.15935893 -0.040582538 -0.1653776 -0.01986667
000310 38 1d 5b 3e 8d 53 ea 3c f3 7b 25 be 74 f0 38 bd
       0.21397865 0.028604293 -0.16160564 -0.04515119
000320 f8 41 b3 bd e8 60 2d bd c9 19 e7 bd 12 ae a9 3e
       -0.08752817 -0.042328745 -0.11284215 0.33140618
000330 b1 99 af 3d 0e 63 e1 bd ac 38 45 3e 20 52 19 be
       0.08574236 -0.11005221 0.192599 -0.14972734
000340 8e f4 85 3d d9 8b 59 3e 2b 02 37 be 88 15 ab bd
       0.06540786 0.21244754 -0.17871921 -0.08353716
000350 aa 61 3a be 20 25 55 3d 92 23 67 bc 03 38 51 bd
       -0.18201318 0.05203736 -0.014107602 -0.051078808
000360 ea 62 2d be c5 f6 22 3e 25 4a 13 3d c6 f0 47 3d
       -0.16932264 0.15914448 0.03595938 0.048813604
000370 0c 21 c9 3d 36 e1 0d bd 05 03 e8 bc 37 9b d8 bd
       0.09820756 -0.034638606 -0.028321752 -0.1057648
000380 9c 26 37 bd 7e 05 21 bd ad 60 25 3e 02 2c bd 3e
       -0.044714555 -0.03931188 0.1615016 0.36947638
000390 54 37 ad bd a8 b3 16 3d 28 e0 0e 3e 47 12 c7 bd
       -0.084578186 0.036792427 0.13952696 -0.09720283
0003a0 8b de 7e 3d ab cd 08 3d f8 9e 5d bd 39 84 94 3d
       0.062223952 0.033399265 -0.054106683 0.07251782
0003b0 4c 50 e6 3d 94 9f 14 bd 65 fa b8 be 49 ee 95 3d
       0.11245784 -0.036284998 -0.36128536 0.0732084
0003c0 56 b8 e6 3d 4c 15 c6 3e b9 29 e1 bd 5e fe 2d be
       0.11265628 0.38688123 -0.10994286 -0.16991565
0003d0 56 f1 8d bd 7c e6 17 bc 69 ae 1b 3e 23 05 db 3d
       -0.06930797 -0.00927126 0.15203251 0.10694339
0003e0 b7 51 85 bc 79 1f c8 3d 85 f9 7b bd b6 e0 42 bd
       -0.016274316 0.09771628 -0.061517257 -0.047577582
0003f0 7b 13 13 be 4a 51 1c 3e b2 4a 3b 3c bb aa 07 3d
       -0.143629 0.15265384 0.011431383 0.033121806

fc1.bias f4 [100]
000000 dd 3f 10 be 4f 41 d8 3d 7c 7a b7 bc 78 c1 1c bd
       -0.14086862 0.105593316 -0.022397272 -0.038270444
000010 c0 24 cc bd a8 23 6e bd fe b1 11 be 8b b3 13 be
       -0.09967947 -0.058139473 -0.14228055 -0.14423959
000020 67 1f cb bd fe a8 80 3e d1 50 36 bd 0c 60 41 3d
       -0.09918099 0.2512893 -0.044510666 0.047210738
000030 6b 81 2d bd 53 44 f6 3d ba 62 19 bd fc f6 b0 3c
       -0.04235975 0.120247506 -0.03744767 0.021602146
000040 22 42 01 bc 34 17 e9 bc fc b1 aa bc a4 19 c7 bc
       -0.007889302 -0.028453447 -0.020836823 -0.024304219
000050 75 c8 d6 bc d4 22 10 bd f4 9d 55 3d 4e 14 ac bd
       -0.026218632 -0.035189465 0.05215259 -0.0840231
000060 8f 0b 1a 3e 38 b4 07 bd 22 f4 17 bd c5 35 2b 3d
       0.15043472 -0.033130854 -0.037098058 0.041799325
000070 82 8e b0 3d b6 53 31 3e 79 b9 44 bd 29 1a 08 bd
       0.08620931 0.1731709 -0.048028443 -0.033228073
000080 a6 ab 23 3e 2d f5 f6 bc 52 82 2b 3e 3a 94 77 bd
       0.15983447 -0.030146206 0.16748932 -0.060444094
000090 e7 84 15 3d 7d 1b 54 bc f7 9e 0a 3e 42 53 eb bd
       0.0365037 -0.012946007 0.13537203 -0.114904895
0000a0 31 9d 70 3e 18 66 b8 3c 49 cf 3e bb 36 3a 56 bc
       0.23497464 0.02250962 -0.002911525 -0.013075402
0000b0 44 da 7c 3d 2a c5 28 be 97 3a ca bc c5 94 b0 bd
       0.06173159 -0.16481462 -0.024686141 -0.086221255
0000c0 ca 69 4a bc 08 f0 f6 bd 1b 01 1a 3c d3 e5 9e bd
       -0.012354324 -0.12057501 0.009399678 -0.07758679
0000d0 cd 95 1d bd a9 53 d3 bd 91 02 4e bd 18 47 98 3d
       -0.03847294 -0.10318691 -0.050295416 0.07435435
0000e0 17 28 d8 bb dd 23 f5 bc b3 4d f1 3d ab 15 61 3c
       -0.006596576 -0.029924328 0.11782398 0.013738076
0000f0 32 5e 42 bd 72 c9 d1 bc fe 4a e9 bc 78 e1 11 bd
       -0.047453113 -0.025608752 -0.028478142 -0.035615414
000100 11 d3 7c 3d 9f 57 cb bd 03 38 ce bc b3 59 8d bc
       0.061724726 -0.09928822 -0.025173193 -0.017254686
000110 c2 6e bd bd b9 15 8d bc 9c 5c 20 3e 31 ed ec bd
       -0.09249641 -0.017222272 0.15660328 -0.11568678
000120 c7 a6 40 bd 35 31 b2 bc 7f 9e c1 bc aa a1 e0 bc
       -0.04703405 -0.02175198 -0.023635147 -0.027420837
000130 42 61 b4 bc e1 3a 28 3d 56 2a 02 bd dd b9 0d 3e
       -0.022019032 0.041071776 -0.031778656 0.13840432
000140 57 f5 ae bc 9a 13 a2 bc 06 ba e6 bd 2f aa 6d 3d
       -0.021357222 -0.019784737 -0.1126595 0.058023628
000150 d3 23 4e bc b7 7a 8f 3e e5 f4 13 3e 06 b4 b3 bc
       -0.012581783 0.28023311 0.14448889 -0.021936428
000160 38 03 5b 3e a2 ba 3a 3e 5b 27 26 3d 97 af 5d bd
       0.21387947 0.18235257 0.040564876 -0.054122534
000170 56 d0 35 3d c1 0d a4 3d 4f 9a 97 3d a1 63 ba bc
       0.044388138 0.08010436 0.07402479 -0.022752585
000180 79 62 85 bd 69 2e 89 bc 79 22 d8 bd 0d d9 af 3c
       -0.06512923 -0.016745763 -0.1055345 0.021465803

fc2.weight f4 [10, 100]
000000 aa bb fc be f3 5d 08 3d 76 c4 97 3b a3 c2 10 3e
       -0.49361926 0.033292722 0.0046315743 0.14136748
000010 59 b0 17 3e ef 62 3b 3e 96 7a b8 bd f0 e2 1c bf
       0.14813365 0.18299459 -0.090077564 -0.6128378
000020 91 ec 6a be cb ec 0a 3e 87 78 18 bd 69 f3 4a be
       -0.22941805 0.13566892 -0.03722432 -0.19819416
000030 68 0d 00 bf b8 b2 97 3d c0 c6 a1 bd f0 90 0f 3e
       -0.50020456 0.07407135 -0.07899237 0.14020133
000040 2c 81 90 bd b1 29 36 bd 65 9a 2c be 9b 82 e7 3c
       -0.070558876 -0.044473354 -0.16855772 0.02826052
000050 6c ea 68 be 2f 69 a8 be b4 a5 97 be 80 f3 70 3e
       -0.22745675 -0.3289275 -0.2961861 0.23530388
000060 fb b8 0a 3e 10 02 09 bf 6a 22 08 bd ea 30 3c be
       0.13547127 -0.5351877 -0.033235945 -0.18378034
000070 e7 9a 07 3e 25 3c ea 3d 19 02 64 3d ce 9f a8 bd
       0.13242684 0.11437253 0.055666063 -0.08233605
000080 b3 5b 87 3d 11 00 ca bd 6a 12 c7 3d d9 96 8b bd
       0.06609287 -0.09863294 0.09720309 -0.06815881
000090 9f 12 71 3e 87 44 09 bf 62 c3 50 be 40 e7 f2 be
       0.2354226 -0.5362019 -0.20387033 -0.47442055
0000a0 4a 58 0f 3e de 1c 22 3e a5 15 8d bc 31 84 a0 bd
       0.13998523 0.15831324 -0.017222235 -0.078377135
0000b0 66 17 d7 3c f0 cc 5c 3d 73 f7 54 3d 15 ae f0 bd
       0.026256274 0.05390638 0.0519938 -0.117519535
0000c0 c7 50 d6 3d 42 ed eb be 39 a0 c8 3d ad 76 52 be
       0.10464626 -0.4607945 0.09796185 -0.20553084
0000d0 0a 56 7b bc 77 52 9e be cd 12 35 bf a2 a6 d7 bd
       -0.0153403375 -0.3092229 -0.7073181 -0.105298296
0000e0 0a 4a 63 be e0 93 27 be 15 58 82 3e a0 ae 57 be
       -0.22196212 -0.16365004 0.25457826 -0.21062708
0000f0 fd 81 67 bd f1 a0 86 bd 84 2d 9d 3d 56 05 da bd
       -0.05652045 -0.06573666 0.07674697 -0.10645549
000100 c8 3b 67 3d 0d 95 6d be c3 36 27 bc df 91 a1 bd
       0.056453496 -0.2320139 -0.010205927 -0.07889151
000110 24 7d 23 be 9f 25 7a bd eb 2a b7 3d b4 5d 49 be
       -0.15965706 -0.061071035 0.08943733 -0.19664651
000120 3f 4e ed be ab 4d 29 3d e1 db 9c 3d 1d b1 c9 3c
       -0.4634876 0.041333836 0.07659126 0.024620587
000130 bd 1b 81 3d fb 26 72 3d 2a 92 ea be ce 05 35 3e
       0.06304119 0.059119206 -0.4581464 0.17677996
000140 81 2f 18 bd 79 fc 9d bd f2 80 d7 3d 57 22 71 bd
       -0.03715468 -0.07714171 0.10522641 -0.05887064
000150 d3 be 59 3d 0e be e6 3d f6 19 5f 3d fb c4 58 bd
       0.0531605 0.11266719 0.054468118 -0.05292223
000160 c9 89 34 3e b0 e9 4f 3e 5b 8c 34 3e 69 50 f6 be
       0.17630686 0.20303988 0.17631666 -0.48108223
000170 61 48 39 bf 6c 40 ab be 60 75 f9 bd 35 88 9f 3d
       -0.72376066 -0.33447587 -0.12180591 0.07789651
000180 04 a1 be be 7c a5 90 be ae ab 39 be ce 65 42 3e
       -0.3723222 -0.28251255 -0.18131897 0.18984148
000190 67 56 da be 94 5e 71 3d 1a bb b9 3d 60 72 19 bf
       -0.42644045 0.058928087 0.0906889 -0.5994015
0001a0 17 16 26 bf 9e e5 38 3e 14 7a 28 bf 2a 75 20 bf
       -0.64877456 0.18056342 -0.65811276 -0.6267878
0001b0 ea c2 2b be 6c 0d d4 3d 57 6f b5 3c 48 f2 f2 be
       -0.16773573 0.103541225 0.022147818 -0.4745047
0001c0 fd 9f 9e be ef 0c aa 3d 8c 20 ec bc db 72 81 3e
       -0.30981436 0.08303248 -0.028824113 0.2528294
0001d0 29 00 6a 3d 2c 75 3f bc 97 a1 20 bd 50 8d 31 bd
       0.05712906 -0.011685651 -0.039216604 -0.043347657
0001e0 ae 00 75 bd e6 e9 11 bf 1f 6a fd be bd 5c 7e be
       -0.0598151 -0.56997526 -0.49495026 -0.24840064
0001f0 82 de 0c 3e 2e e1 1d 3e c4 7a e8 bb 38 40 83 be
       0.13756755 0.1541793 -0.007094713 -0.25634933
000200 55 cf 1b 3e 9e 0e 01 3e a3 29 58 3d 75 fa 91 bc
       0.1521581 0.12603232 0.052774083 -0.017819623
000210 e1 be de 3d 44 bc e8 bd fd ee fa 3d 81 0a 1b bf
       0.10876251 -0.11364034 0.12252615 -0.605629
000220 69 5f 6a 3e e2 72 1a 3b a8 45 cc bd 9f 40 49 3e
       0.22887959 0.002356701 -0.099742234 0.19653557
000230 45 37 20 3e e0 eb d9 3d 60 c9 3f bf 8e bf 84 bc
       0.15646084 0.10640693 -0.7491665 -0.016204622
000240 a6 06 08 3e ab e7 cb be 16 79 78 bd 08 9d d2 be
       0.13283786 -0.39825186 -0.06066235 -0.4113543
000250 71 90 66 3d 1c aa fd 3c 09 f4 82 be 31 ba d2 bd
       0.056290094 0.030964904 -0.2557681 -0.102894194
000260 d9 d7 89 bd 07 2d 07 3e 97 7d 3a bf 5d b1 d6 be
       -0.06730623 0.1320077 -0.72847885 -0.41932192
000270 2b 08 30 bd 6d 63 05 be 42 69 c3 3e ed 54 f9 3d
       -0.04297654 -0.13026209 0.38166243 0.121744014
000280 5a c7 2e bc bd 24 41 3c a5 05 8b ba 2a da d3 bd
       -0.010667646 0.011788544 -0.0010606541 -0.10344346
000290 4c 34 13 3e 66 b0 65 bc e4 54 e3 bc 36 0b cc 3d
       0.14375418 -0.014019107 -0.02775044 0.09963076
0002a0 ac 82 45 bd aa c1 58 bd a5 75 00 3e 4a 8f f2 be
       -0.04822032 -0.052919067 0.12544878 -0.47374946
0002b0 b6 43 76 bf ec b6 55 bd 42 44 0e 3e c8 fc 08 bc
       -0.9619707 -0.0521764 0.13893226 -0.008361049
0002c0 5e 2a 36 3d 44 33 08 bf ba 6d 08 bf 89 ba 51 bd
       0.044474 -0.53203225 -0.5329243 -0.051203284
0002d0 18 36 c5 3d 67 aa 49 bd ef 49 97 be ac 4a 06 bf
       0.09629458 -0.049234774 -0.29548594 -0.5245769
0002e0 42 fd 86 be b5 5d b3 3d fd e2 bf 3c 9c 01 9a bd
       -0.26365095 0.087581076 0.023423666 -0.07519838
0002f0 de ec 2c 3e a5 89 80 3e ee f9 55 3e fe 99 c6 bc
       0.16887233 0.25105014 0.20896122 -0.024243351
000300 1f 77 e6 bd f9 82 07 3e ca 24 42 bf 78 bb 8a bd
       -0.11253189 0.13233556 -0.75837386 -0.06774038
000310 ad 5c d4 be b2 76 82 be 17 4e 2d be a3 9e 30 bf
       -0.41476956 -0.25481182 -0.1692432 -0.6899206
000320 94 40 0a bd e6 e8 0f bf c7 b1 ac 3d 1a 9c 14 3e
       -0.033752993 -0.5621475 0.08432346 0.14512673
000330 a4 6e 9c 3d d9 79 5c be bb 62 fb 3d b0 9a 7f 3e
       0.076382905 -0.21530856 0.12274691 0.24961352
000340 b6 ec 6d 3e c2 35 a3 be db 2a 8f 3d 88 ca cc 3d
       0.2323483 -0.3187695 0.06990596 0.09999567
000350 c1 fc 05 bc ab ce 5f bf 6e e5 03 bd 5e 1a a4 be
       -0.008177937 -0.87424725 -0.032201223 -0.32051367
000360 61 c8 2b bc 59 20 86 3d 7e 59 1d 3d 89 66 61 3d
       -0.010484786 0.065491386 0.038415425 0.055029426
000370 cd 27 67 3e ac ea fb 3d 5b 5e 4a bd 5c 1a 0d 3e
       0.22573777 0.123006195 -0.04940639 0.13779587
000380 aa 31 ef bc 02 f3 34 3e f9 5b 4e 3d 15 a8 ff 3d
       -0.029198486 0.17670825 0.05038068 0.12483231
000390 ea e4 c9 3d 35 ad 2a 3d 4e 76 ef bc 43 3c 7f bd
       0.09858115 0.04166909 -0.029231217 -0.06231333
0003a0 c7 a9 4a 3c 4a f9 0b bf 8f 65 3f 3d a9 1f 5a 3e
       0.01236958 -0.5467726 0.046727713 0.2130114
0003b0 72 0e 10 bf 49 ac 61 3e ca 3d 97 3e 13 92 0b 3e
       -0.5627204 0.22038378 0.2953933 0.13629942
0003c0 5a 86 8b bd fd 35 ec be d2 30 a9 3d ad 78 2f bc
       -0.06812735 -0.4613494 0.08261265 -0.010709924
0003d0 87 97 ec bd 57 fb 9d 3d d1 f5 fd bc f4 e6 00 bf
       -0.11552339 0.07713955 -0.031001003 -0.50352407
0003e0 d0 a7 0a bd cd c4 88 3e e6 29 68 be 32 d2 d2 be
       -0.033851445 0.26712647 -0.22672233 -0.4117599
0003f0 d6 8b a8 bd ea b7 25 bd 5a 48 3a 3d cb f6 03 3e
       -0.082297966 -0.040458597 0.045479156 0.12887113

fc2.bias f4 [10]
000000 1f 1e f8 bb 97 fe 11 3e a8 90 a1 be b1 52 8d 3e
       -0.00757195 0.14257275 -0.31555676 0.2760215
000010 be c7 37 be 03 a9 5f be e1 dc e6 3d 3f df bd 3e
       -0.1794729 -0.21841817 0.11272598 0.37084386
000020 15 e8 54 be d4 dd 35 bc
       -0.20791657 -0.011100251
