results/mfdwc-baseline/a-s3/latest_FE_a-s3.pth (torch, 415237 bytes, 12 tensors)

conv1.weight f4 [32, 1, 7, 7]
00000000: e9ec 7bbd d623 0b3d a466 673b dc52 76bd
00000010: 280e c4bd 9513 5d3d dd46 d23d d614 2fbd
00000020: 5575 7d3c 7e3b 8439 052e afbd 0a0f a4bd
00000030: 2ab5 5a3d 216b d03d 6de7 103e 7597 013e
00000040: e522 3c3e ef42 293e a344 173e 0d46 043e
00000050: 8bd7 5e3e 0d97 5abe ff3d f8bd dd2d 5cbe
00000060: acbc 91be dfcb 89be 2d98 59be 8dab bfbd
00000070: 5663 863b b580 db3d a8e9 54bc ed45 a6bc
00000080: 47af 2dbd 6555 803d 4ce4 a13d 3f61 5b3b
00000090: 7b92 1d3c f1bf ffbd fe13 babd cac3 39bd
000000a0: 3f25 2fbd f0d0 513c df55 6f3d 6d03 a63d
000000b0: 8b13 a13d ba66 b53c 3467 493d b787 7f3d
000000c0: 73a7 143d b887 8abb 8bbb e1ba 6c33 36bd
000000d0: 8630 f43d 8e10 533d 0ea6 91bd 279b 21bc
000000e0: 5b0b f93c 31d5 19bd 1b8f cb3c 5776 043e
000000f0: 99f6 57bc edbc e7bd 2ab0 7abd 0301 79bd
00000100: 4073 1dbd f076 863d 4b5f 753e 3206 273d
00000110: efa2 36be ebad 90bd a856 443e 4368 423e
00000120: ec92 853e b0c6 803e a0b9 d83d c21a 273e
00000130: c6f2 313e 8984 8bbc f61c da3c 19c5 803d
00000140: e4f1 743d af30 40bd 0264 b1bd f7a7 26bd
00000150: e353 9dbd 44b4 14be e9d5 35bd 2355 97bc
00000160: e0fc d5bd fa75 77bd 4343 b6bd ec4d fbbd
00000170: e57c fabd ac41 8f3b 0f12 8bbc dcc5 1ebe
00000180: d19b 1fbe 75e3 c9bd beed b4bd e364 45bc
00000190: 24f2 f43d 3ec5 86bc 84d2 783c b5a7 ad3d
000001a0: bdad 87bc 5f22 41be 00df 203c ff2b df3d
000001b0: 3e1d 44bd e75e 6d3d b465 c33c 0d16 313d
000001c0: 86e4 27be e506 83bc e897 153e b229 8ebd
000001d0: 6fcb 70bd 6349 473d b512 003d d7a1 293d
000001e0: 836f 6a3c bf4d 703e 7991 cc3d c2d8 f33d
000001f0: 939b fa3d 4044 293e 2c99 37be 2b53 5dbd
00000200: 5e4d 0f3e af19 8dbd 8f18 5e3c bb24 8a3d
00000210: a1fe d53d 9a55 d5be a55e 60be d54c b5bb
00000220: ff98 fdbd 0aaa 56bd 1ab7 b7bc b263 a8bc
00000230: a952 28be 1d13 01bd 12e6 d13d 9f88 00bd
00000240: 405e 9d3d a27a 153d d2e1 ec3c 5fba 483d
00000250: 064e a73b 3474 c23b 3506 8b3d 28f7 97bd
00000260: 9d49 8ebe 2888 38be afc2 613e fc68 053e
00000270: 6e7d e83c 6e42 1c3d 00aa 0e3d 2e7b e9bd
00000280: f3f7 2cbd 66a3 0a3d ea4f c23a 7459 07bd
00000290: c04b 55bd 6c00 efbd f25f 2cbe 5a76 5abe
000002a0: 2936 11be 6a3d b6bd 2501 bcbc 3e34 d2bd
000002b0: aaf2 92bd c85a 66be 17d0 79be 16f8 b4bc
000002c0: 3d6b 943c 3ae7 a1bc 5ecc 9f3c 7271 23bd
000002d0: 3dd4 61bd cebb 2bbd 94cf 463b 30d8 483d
000002e0: 8b8e 1c3c a357 ad3c 4dde 6ebd b436 f8bc
000002f0: e745 59bd e5e0 f23d ff02 0a3e aee6 da3d
00000300: 219e 173e e031 8b3d 1816 623d 9b6d c73d
00000310: 1b7d 2d3d 5ed5 c33d cd40 033e bb23 db3d
00000320: c3d3 e53d 401e 463c f927 93bd 3960 e23c
00000330: 1cf5 113e 4253 5a3d e5df 083e b0f8 08bc
00000340: 748c 4abd 6906 3abe be2e 3a3e 4bc3 623e
00000350: 48a3 663e 45ce 393e feb2 873d 1067 b93c
00000360: a0ce 88bd 23f5 1cbe 0ead a2bd f9f2 f0bd
00000370: 1d33 a6bd e6fd 6cbe f9d3 80be 1843 7cbe
00000380: 6695 c53b bc47 903d c234 7f3d 2ae0 bf3c
00000390: a678 9ebd 0e76 c8bc dd60 d2bd 4383 99ba
000003a0: 0cfd bdba 6ff5 4e3d a5e5 d9bc 9d90 f5bb
000003b0: 1ad3 28bd b7a3 d5bc 8fd6 db3d 14c6 e03d
000003c0: 6fe3 ed3d 11b7 253e 5f8b c53d 7774 233e
000003d0: 606c 473d d379 173d 781a 1fbd e751 2dbd
000003e0: 7986 013e f656 f63d 45fe e03d 2c93 073e
000003f0: 01ab 03be e5c2 84be 29fa 6f3b eccf 093e
-0.061505232 0.033969723 0.0035308981 -0.060137615 -0.095730126 0.053973753 0.10267422 -0.04274448
0.015469869 0.00025221327 -0.085536994 -0.08010681 0.053395428 0.10176683 0.14150782 0.12655433
0.18372686 0.1652944 0.14772277 0.12917347 0.2176191 -0.21346684 -0.121212 -0.2150187
-0.28464258 -0.26913354 -0.21249457 -0.093588926 0.0041011972 0.10717908 -0.012995161 -0.020297015
-0.042403486 0.06266288 0.07904872 0.0033474711 0.009617443 -0.12487782 -0.090858445 -0.045352735
-0.04276013 0.012806162 0.058431502 0.08106122 0.07865056 0.02214371 0.049170688 0.062385287
0.036292505 -0.0042276047 -0.001722203 -0.044482633 0.119233176 0.05152946 -0.071117505 -0.009863651
0.030400923 -0.03755683 0.024848511 0.12935768 -0.013181352 -0.113153316 -0.06120316 -0.06079198
-0.03843999 0.06565654 0.23962133 0.040777393 -0.17835592 -0.07064422 0.19173682 0.18985085
0.26088655 0.25151587 0.1058228 0.16318801 0.17377767 -0.017030971 0.026625138 0.062875934
0.059800997 -0.04692143 -0.08661653 -0.040687528 -0.07682016 -0.14521891 -0.044393454 -0.018473214
-0.10448623 -0.060415246 -0.08899548 -0.12270722 -0.12230853 0.0043718424 -0.016976384 -0.15505165
-0.15586783 -0.09857837 -0.08834408 -0.012047979 0.11960247 -0.016451474 0.01518691 0.08479253
-0.016562337 -0.18860768 0.009818792 0.108970635 -0.04787945 0.057951834 0.023852207 0.04323392
-0.16395769 -0.015994499 0.14608729 -0.069415465 -0.05878776 0.04865397 0.03126784 0.041414108
0.014308813 0.23467158 0.09988684 0.11906578 0.12236705 0.16529942 -0.17929524 -0.054034393
0.13994357 -0.068896644 0.01355566 0.06745287 0.10448957 -0.4166687 -0.21911104 -0.0055328407
-0.12382697 -0.052408256 -0.022426177 -0.02055535 -0.16437782 -0.03151237 0.102489606 -0.031380292
0.076839924 0.036493905 0.028916273 0.049005862 0.0051057367 0.0059342626 0.06788293 -0.07420188
-0.27790537 -0.1802069 0.22046922 0.1302833 0.028380122 0.03814929 0.034830093 -0.11400448
-0.04222865 0.033847235 0.0014824842 -0.033044294 -0.052074194 -0.11670002 -0.16833475 -0.2133421
-0.14180817 -0.088984326 -0.022949765 -0.10263871 -0.07175191 -0.22495568 -0.24395786 -0.022090953
0.018117541 -0.019763578 0.01950663 -0.03990311 -0.055134047 -0.04192715 0.0030336129 0.049034297
0.009555469 0.021159953 -0.05831747 -0.030299522 -0.05304518 0.118593015 0.13477705 0.1068853
0.14806415 0.06796622 0.05519685 0.097377025 0.042355638 0.09562181 0.12817688 0.107001744
0.11222031 0.012092173 -0.071853586 0.027633773 0.14253658 0.053302057 0.13366659 -0.008360073
-0.049450353 -0.18166508 0.18181893 0.22144811 0.22523224 0.18145092 0.06625937 0.022632152
-0.066800356 -0.15327887 -0.07943164 -0.11765093 -0.08115218 -0.2314373 -0.25161722 -0.24634969
0.0060297726 0.07044932 0.062306173 0.02342232 -0.077378556 -0.024470355 -0.102723815 -0.0011712093
-0.001449497 0.050527032 -0.02659876 -0.007494046 -0.041216947 -0.026079042 0.10734283 0.109752804
0.11615645 0.16183116 0.096457236 0.15962397 0.04868734 0.036981415 -0.038843602 -0.042314436
0.12648953 0.12028305 0.10985998 0.13239735 -0.12858202 -0.25929943 0.0036617613 0.13458222

conv1.bias f4 [32]
00000000: d7b0 813c 0088 4f3d e3d5 1bbd 597d ecbb
00000010: d5b3 87bc 0bec 22bd eb6c d3bb 9fd8 24bc
00000020: 5314 2bbd e698 cebb fb5e e9bb f886 973d
00000030: 0ef0 50ba febf f239 1677 973b 5b0e 3e3d
00000040: 7699 093b 14f5 b1bb 77d7 0dbd 2964 35bd
00000050: 6301 75bb 5431 f83d 4d50 ccbb f348 faba
00000060: ebfa 80bb e2f0 d5bc 6d1e 28bb dd88 37bb
00000070: 0d7a 55b9 640c 85bd 7d89 43bc 3985 21bd
0.015831394 0.05066681 -0.038045775 -0.007217091 -0.016565243 -0.03977589 -0.006452193 -0.010061412
-0.04176743 -0.006304848 -0.0071219183 0.0739879 -0.0007970341 0.00046300882 0.0046223504 0.04640041
0.002099601 -0.005430827 -0.03462931 -0.044284973 -0.003738486 0.121187836 -0.0062351585 -0.0019095227
-0.0039361618 -0.026115838 -0.00256529 -0.002800516 -0.0002035873 -0.06496504 -0.011934635 -0.03943369

bn1.weight f4 [32]
00000000: 029a 043f a29a 8d3f 4396 883f 0316 e93e
00000010: 85d9 703f c029 4d3f 43a2 573f 854f 2e3f
00000020: cc0b 853f ca61 543f e38a 3b3f 02b8 1f3f
00000030: 5fe1 283f b4f6 6b3f 1996 1f3f 27de 613f
00000040: 137a 223f 08c5 3b3f a0d8 643f acf4 623f
00000050: c0bc 213f 62e0 493f b46f 5a3f b094 283f
00000060: 89d1 983f 8d20 1e3f 4316 363f fd2b 463f
00000070: 697a 393f 2d53 8c3f 311d 5e3f 7b05 943f
0.517975 1.1062815 1.0670856 0.45524606 0.9408191 0.8014183 0.84231967 0.6809009
1.0394225 0.82961714 0.732588 0.6239015 0.6596889 0.92173314 0.62338406 0.882296
0.6346752 0.7334752 0.89393044 0.8865459 0.63178635 0.78858006 0.85326695 0.6585188
1.1938945 0.6176842 0.7112772 0.7741087 0.7245241 1.0962883 0.8676329 1.1564173

bn1.bias f4 [32]
00000000: 2872 edbd 4d7f f0be db84 aebe ab4e a5be
00000010: cabe 27bf db8a 11be fd33 06bf 8122 33bf
00000020: ed8b 19be 2bbd 14bf c714 55bf 05d2 04bf
00000030: 0e9c 5abf 9887 1dbf 5464 3cbf 71ad 16bf
00000040: f49e 18bf 024c 00bf 52b6 18bf 0f87 a7be
00000050: aaca 32bf d3d4 ae3c 20ca 1ebf ba36 febe
00000060: 175b 1fbf 0e36 f7be e0d9 29bf e9ab 6cbf
00000070: 3699 08bf f71f 9abe 80e0 10bf 660c 61be
-0.11594039 -0.46972123 -0.34085736 -0.3228658 -0.65525496 -0.14213125 -0.5242308 -0.69974524
-0.14994784 -0.5810115 -0.8323483 -0.51882964 -0.8539437 -0.61535025 -0.7359059 -0.588584
-0.59617543 -0.5011598 -0.596532 -0.3272023 -0.6984049 0.021341717 -0.6202717 -0.49651128
-0.6224837 -0.48283428 -0.66348076 -0.92449814 -0.5335878 -0.30102512 -0.5659256 -0.21977386

bn1.running_mean f4 [32]
00000000: 12a6 423e bc5c 45bf daef d6be 02a4 8b40
00000010: 731c 5bc0 4d95 e3be a8ba 24c1 7aee ab40
00000020: 3a9d 84bf 7153 49c0 50c7 8540 c3a2 a0be
00000030: 35d5 a941 33fe bfbf 21ca 6141 b9ec 90bf
00000040: a6a3 4f41 f60b 1341 0cf2 dcc0 33e9 733e
00000050: 7e61 7041 76e5 50bd 8e25 83c0 7b17 5d41
00000060: 97cb 0cc0 ceae 8f3e 6f89 c141 ebae 9240
00000070: 127e 3341 641e 71bf 9f0a 87c0 33aa 57bf
0.19008663 -0.77094626 -0.41979867 4.3637705 -3.4236114 -0.44449845 -10.29557 5.372861
-1.0360482 -3.1457179 4.18058 -0.31374177 21.229105 -1.499945 14.111848 -1.1322242
12.977453 9.19042 -6.9045467 0.23819427 15.023802 -0.05100008 -4.0983343 13.818233
-2.1999261 0.28063053 24.192106 4.5838523 11.218279 -0.94187 -4.2200465 -0.8424408

bn1.running_var f4 [32]
00000000: c4e3 0941 c81e 8841 4964 e940 0627 5242
00000010: af9e 0542 1c1f 0e41 04d4 8543 4fc6 e642
00000020: 5aeb be41 62da f141 3c9b 7042 424b 6240
00000030: 1ff0 8444 3f32 5541 2a5a e543 6d4d 4d41
00000040: 3547 c343 c46a 5743 09d0 ec42 56ed 9c40
00000050: 3c76 0144 ee76 b741 da7a 2642 f5e9 dd43
00000060: 9dad de41 9706 9640 adf6 a144 a967 7e42
00000070: f418 9b43 b18e 9341 0827 2e42 de09 ae41
8.618107 17.01503 7.293492 52.53811 33.404964 8.882595 267.65637 115.38732
23.864918 30.231632 60.151596 3.5358434 1063.5038 13.324767 458.7044 12.831403
390.5563 215.41705 118.40632 4.9039717 517.8474 22.933071 41.619972 443.8278
27.834772 4.6883044 1295.7086 63.60123 310.19495 18.444674 43.538116 21.754818

conv2.weight f4 [64, 32, 7, 7]
00000000: 856e 9cbc c3bf 243d 8400 373e a70e 4d3d
00000010: a642 a8bd bd3a 3c3c 80af 113c 0145 1d3e
00000020: 4e0b 7e3d a554 093d 1938 d5bc 40b7 9e3c
00000030: 744c 393d 2ae3 bebd 5d56 a33d b719 8abd
00000040: cc67 9fbd b50f c5bd 4800 0cbe 070f 20be
00000050: 18b1 32be e985 99bd 96cf 01be 7162 d1bd
00000060: d4cf d9bd 0f8d a2bd 0501 483d ab8c 9bbd
00000070: 4e5c 0bbd c312 733d 300f e0bc d370 7abd
00000080: 2c78 7a3b 767e 733d 0567 4cbd ff94 f3bb
00000090: ab60 c9bd 147d fc3d b135 f3bd f722 b6bd
000000a0: cdbb f7bd 80a3 9fbd b801 c3bc f225 75bc
000000b0: d4d5 8c3c 661f f9bc f4b4 c5bc e78d 8fbd
000000c0: 32ea c53d 7b7b 00bd 5532 34be 9119 8d3e
000000d0: cadb 8abd a588 34bd 045f 1f3d 1425 303d
000000e0: 515a 62bd 2329 bebd 9ed7 88bd 8e2c 2dba
000000f0: f7a4 323e 41aa 213c 371d 9d3d 3d50 fd3d
00000100: 938f 69bc 438e 0c3e 9df4 013e 1c1e fe3d
00000110: 988e 20be 7d58 183d 2a3b ec3b 86a5 733d
00000120: 714a b9bc dc38 1dbd 39cd 6dbe 4ed8 c03d
00000130: 0a0a c73d c110 3dbe 0e0c d2be 72ee 0c3d
00000140: 64e5 edbd d988 d0bd b2b1 a8be e942 28be
00000150: bb71 323e 60d2 063c 288f fd3d c2ca 753e
00000160: 9a7c 8b3e ee98 a03d 4620 323e ae35 28bd
00000170: 3d15 d43c b710 07be 4b2c a8be 17d7 56bd
00000180: 70e7 f6bd 0eee e63c 79f9 80bd a5b0 af3d
00000190: 6f7a 4dbe 5b1a bf3b 7ab9 423d 746b cbbd
000001a0: 69e8 fbbd aa09 023d 4d1c e93d 8ef9 40bd
000001b0: 44f7 17bd 343f 4a3e 3280 093e 9b81 42bc
000001c0: befa 88bd b9a6 113d d65e 9dbd 8698 56bc
000001d0: a6e6 893e 055b 3b3e 8ef4 e6bb 0827 0fbe
000001e0: e89c 303d 25e6 5fbd 2643 0abf 7338 c03d
000001f0: 9114 913c 116c 8a3d 1043 5bbe f8f3 eebd
00000200: 3d9d 8ebe 0916 d0be 6430 e23c 9d0e 6abe
00000210: 05e4 fcbd 939a f83d c772 ce3d 731a 373e
00000220: 6446 1e3e c4e1 163e 69e8 6c3e 824c 4e3e
00000230: 2f53 3fbd bebd c9bd e8a3 403d a9f7 6dbb
00000240: eebc 2bbe a939 07bd 09e8 a23d 4394 b0bd
00000250: cd98 42bb f186 8dbd a297 22be 7a77 1ebe
00000260: 86ff 8bbd af24 3fbe 964d d23d 5313 a93d
00000270: e5dd 7f3d 02ae 663d cfab dc3d 1cd7 183e
00000280: f630 dd3d 9c6f a93d 6edd 143e 9d39 983d
00000290: 28be 93bc 37ab 293d 45c1 6d3d 1954 54bc
000002a0: 0460 40bd 7580 04bc 63fe 563c 49ce dabc
000002b0: e301 1fbd 2c98 11be a81c 07be 8c56 ce3d
000002c0: ba33 8e3d 4ef8 3e3d d979 143e e6d8 dd3d
000002d0: ae5b ac3d dbc9 873c 84ad 22bd 9257 d9bd
000002e0: ef89 9bbd 1264 95bc aabe 13bd a4f2 e0bd
000002f0: c6de 2fbe 46ac cd3c bce5 34bd 58c7 6bbd
00000300: 6143 21bb bfb9 dabc dfb1 d7bc 3211 03bd
00000310: 9f52 edbb c4b8 9cbb b8db 773e 731f 073e
00000320: 3ada e6bd f717 5ebe 1436 9c3d 466e b23d
00000330: 4cd6 23bd 7543 4e3e 136b 0d3e f1b6 2a3e
00000340: 830a 283d 7ad2 583d f904 c63d 01f6 16be
00000350: ac79 90bd 524d 1c3e 4cb7 aa3d 1d87 6abe
00000360: 8914 4ebe 60b3 ed3d 4899 2b3d e33e 7b3d
00000370: 98ea 7b3e 5567 993c a5ba bc3b 3532 b73d
00000380: 5b3e c8bb 9593 51be 7c38 c13d f0b2 aa3d
00000390: efcc 583e 3bd4 093e d53b 1a3e 8d25 bcba
000003a0: 03bd 4cbc cfb6 abbd c194 c7bd 0a1d 63bd
000003b0: b526 82be 7702 33be 4ab8 88be 565f 21be
000003c0: 5ccf 0ebe 2de5 3cbd bb64 fabc 43ad 6abe
000003d0: 0235 61bd f0e3 9abd 03d8 e83d 264f ddbc
000003e0: 2be1 b3bd 94e2 323e 4a50 753e ac11 9fbd
000003f0: e25d fd3d f5d9 583e a162 b6bd e697 f8bd
-0.019095669 0.04022194 0.1787129 0.0500628 -0.08215837 0.011488614 0.00889194 0.15358354
0.0620225 0.03352799 -0.026027726 0.01937449 0.045238927 -0.09320672 0.07975457 -0.06743186
-0.077834696 -0.096221365 -0.13671982 -0.15630732 -0.17450368 -0.074962445 -0.12676844 -0.10223854
-0.10635343 -0.07937061 0.048829097 -0.0759519 -0.034023575 0.059344064 -0.027350992 -0.061142754
0.00382186 0.059446774 -0.049902935 -0.007433533 -0.09832891 0.12328544 -0.11875475 -0.08893388
-0.12096367 -0.07794857 -0.02380453 -0.01496266 0.017191805 -0.03041048 -0.024134137 -0.070094876
0.0966381 -0.03136776 -0.17597325 0.27558568 -0.06780203 -0.044075627 0.038908973 0.04300411
-0.055261914 -0.0928519 -0.06681751 -0.00066060654 0.17445742 0.009867252 0.07671588 0.1236882
-0.014255422 0.13726144 0.12690969 0.12408087 -0.15679395 0.037193764 0.0072092013 0.059484027
-0.022618504 -0.038384303 -0.23222817 0.09416257 0.09718712 -0.18463422 -0.41024822 0.034407087
-0.116160184 -0.101823516 -0.3294807 -0.16431774 0.17426197 0.008228868 0.123808205 0.24003127
0.272435 0.07841669 0.17395124 -0.041066818 0.025889033 -0.1318997 -0.32846293 -0.05245122
-0.12055862 0.028189685 -0.06297583 0.08578614 -0.20066236 0.0058319992 0.047540165 -0.099326044
-0.12300188 0.031747498 0.11382351 -0.047112994 -0.037101045 0.19750673 0.13427809 -0.011871721
-0.0668845 0.03555939 -0.07684104 -0.013097888 0.26933783 0.1829644 -0.007048196 -0.13979733
0.043118387 -0.054662842 -0.5400871 0.09385767 0.017710002 0.06758893 -0.21412301 -0.11667627
-0.27854338 -0.4064181 0.027610965 -0.22857137 -0.12348179 0.12138858 0.10080486 0.17881183
0.1545654 0.1473456 0.23135532 0.20146373 -0.04671019 -0.098506436 0.047031313 -0.0036310947
-0.1677129 -0.033013973 0.079544134 -0.08622029 -0.0029693127 -0.06910504 -0.15878156 -0.15475264
-0.068358466 -0.18666337 0.102687046 0.08255639 0.062467474 0.05631829 0.107749574 0.14925808
0.10800354 0.08273241 0.14537594 0.07432864 -0.01803501 0.04142305 0.058045644 -0.012959504
-0.046966568 -0.008087267 0.013122174 -0.026709693 -0.03882016 -0.14218205 -0.13194525 0.10075101
0.0694346 0.04662352 0.14499606 0.10832386 0.08415924 0.016575744 -0.03971626 -0.10612406
-0.07594668 -0.018236194 -0.036070503 -0.1098378 -0.17174825 0.02510656 -0.044164404 -0.057563156
-0.0024606811 -0.026699899 -0.026329933 -0.03199882 -0.007242515 -0.004782768 0.2420491 0.1319559
-0.11272092 -0.2168883 0.07627502 0.08712439 -0.03999929 0.2014292 0.13810377 0.16671349
0.04102565 0.0529351 0.09668917 -0.1474228 -0.07054457 0.1526387 0.08335742 -0.22903104
-0.20125021 0.11606479 0.041894227 0.06133927 0.24601209 0.01872603 0.0057595544 0.08945123
-0.006110949 -0.20466454 0.09434602 0.08334911 0.21171926 0.13459866 0.15061887 -0.0014354453
-0.012496236 -0.08384477 -0.097451694 -0.055447616 -0.25420156 -0.17481409 -0.267031 -0.15759024
-0.13946289 -0.046116997 -0.03056561 -0.22917657 -0.054982193 -0.07563007 0.11369326 -0.02701528
-0.08783182 0.17469245 0.23956409 -0.077670425 0.12371422 0.21176894 -0.08905531 -0.12138347

conv2.bias f4 [64]
00000000: 1d56 84bc f954 b53b 3206 533b 9084 fb3a
00000010: 9a5e debb f4c5 e6ba d1f7 81bb 5899 173b
00000020: 8e82 edbb f7fb af3b 301d 6bb8 eabe fdbb
00000030: 7cc6 04bb 1120 2d3c ce7e b7bb 9310 ed3a
00000040: 0b9b 29bb 3e39 36bc b20e a13a cfcf 7abb
00000050: 4c8a dabb 84c8 a93a 48b6 4dbb a331 12bb
00000060: 8e59 2abc a741 b63b 5e34 b33b 270a 01bb
00000070: 9dc8 433b 5784 4a36 926f 01bb ac4b ddbb
00000080: 3fa9 d3bb 6dcd 323b f65b 69bb 78be 5bbb
00000090: 1368 5abb df84 f9b9 451b 99bb 9b1b a23b
000000a0: 624c 93bb 43a9 9dbb 6892 c63b 3552 87b7
000000b0: cb4a cabb 1372 88bb ea64 7a3b e450 133b
000000c0: 0502 c039 ab13 7d3a e0d4 d13b 5a60 8fba
000000d0: d5b8 91bb 7481 e238 378f 113b a681 16bc
000000e0: 762a 6bbb 43ea ccba 436d fdbb ffd6 01bc
000000f0: 290c 923a 4b45 a1bb 98ee ccbb 66f6 47bb
-0.016154343 0.005533811 0.0032199738 0.0019189287 -0.0067861797 -0.0017606602 -0.0039663096 0.0023132171
-0.0072482293 0.0053706127 -5.605555e-05 -0.007743706 -0.0020259907 0.010566727 -0.005599833 0.0018086605
-0.0025879766 -0.011122046 0.0012287705 -0.0038270836 -0.0066693183 0.0012953435 -0.0031389166 -0.0022307418
-0.010397328 0.0055620256 0.005468889 -0.001968989 0.0029874214 3.0177378e-06 -0.001975034 -0.0067534056
-0.0064593847 0.0027283088 -0.0035607792 -0.0033530276 -0.0033326193 -0.00047591978 -0.0046724402 0.0049471385
-0.0044951895 -0.0048114373 0.0060599335 -1.6131535e-05 -0.006173467 -0.0041639893 0.0038207122 0.0022478634
0.00036622598 0.0009654115 0.0064035505 -0.0010938749 -0.0044470825 0.00010800632 0.0022210607 -0.009186184
-0.0035883463 -0.001563378 -0.0077339723 -0.007924794 0.001114254 -0.0049215904 -0.0062540285 -0.0030511855

bn2.weight f4 [64]
00000000: 7c51 b73f 8bef c83f 094a a13f c812 be3f
00000010: 3053 7c3f 8b00 b93f 8297 a33f b57a df3f
00000020: b71f b03f 05d8 ae3f bc59 b73f de0a 853f
00000030: 153b 9d3f f1fc cb3f e71a b73f 7e79 b53f
00000040: f532 b73f 260f df3f 74b9 ad3f cbd4 ca3f
00000050: 8e65 b93f a9a7 ae3f 2e10 8b3f 0fe0 a83f
00000060: 189a b13f aff3 d53f e5d5 be3f ef9d ad3f
00000070: 4a3f 983f e63e d93f 312e 8b3f fe06 9d3f
00000080: 3b83 a93f 9543 a83f 1729 9d3f 283c de3f
00000090: ca6e 953f 7d7d a23f 2f53 b33f d8de bb3f
000000a0: 4753 583f da76 963f 7e2c 923f 0b78 963f
000000b0: 194b aa3f cee6 a23f 5016 973f b652 943f
000000c0: e5b6 993f c0c2 a53f e1a9 e33f c336 aa3f
000000d0: 551b d53f 0925 8b3f f268 913f 96d8 b63f
000000e0: d9ad 883f 398e ab3f faf9 993f 2d9d a43f
000000f0: 8ffd d53f d5b1 6e3f fb66 6b3f 360a a53f
1.4321742 1.5698103 1.2600719 1.4849482 0.98564434 1.4453291 1.2780612 1.7459322
1.3759679 1.3659674 1.432426 1.0393941 1.2283655 1.5936567 1.4305085 1.4177701
1.4312426 1.7426498 1.3572221 1.5846189 1.4484117 1.3644916 1.0864313 1.3193377
1.3875151 1.6714991 1.4909025 1.3563823 1.1894314 1.697232 1.0873471 1.2267759
1.3243173 1.3145624 1.2278165 1.7362108 1.1674435 1.2694546 1.4009761 1.4677382
0.8450207 1.1755021 1.1419828 1.1755384 1.3304168 1.2726686 1.1803684 1.1587741
1.200894 1.2950058 1.7786218 1.3297962 1.6648966 1.0870677 1.1360152 1.4284847
1.0678054 1.3402778 1.2029412 1.2860466 1.6718005 0.932401 0.9195401 1.2893741

bn2.bias f4 [64]
00000000: 14a4 7dbf b186 4dbf 6588 52bf 5fce 81bf
00000010: bc0c 2bbf 24a8 47bf 7259 20bf 9f56 46bf
00000020: f431 18bf f454 45bf 59d4 1abf fabd 10bf
00000030: 8adf 3bbf 7fc2 e0be 4aa2 1abf 1eb3 d4be
00000040: 3f76 2abf 3201 38bf 8523 09bf e3c2 85be
00000050: a596 51bf 0883 35bf 128f 3bbf 4ff2 3fbf
00000060: 4daf 78bf 15e7 4bbf b8af 60bf 4963 3dbf
00000070: b8c5 36bf 9e2a 1abf 3cda 31bf 2a15 52bf
00000080: 1e28 87bf 5a29 1ebf d6e1 53bf 776c 33bf
00000090: 0be1 1ebf 881a 3cbf 79c9 32bf ffca 79bf
000000a0: bf9f 34bf c9b1 21bf f1c2 0abf 1c88 3ebf
000000b0: 6d58 28bf 44a7 0abf 6366 80bf bc9e 29bf
000000c0: 409b 46bf b872 44bf 7002 93bf 2fcc 34bf
000000d0: 5fe8 33bf acb0 ecbe c706 21bf f8e1 4ebf
000000e0: 9ca7 56bf 2520 e3be 9e4e 58bf 5469 57bf
000000f0: c98c a4be b9b9 2fbf cb3e 42bf 51c3 f7be
-0.9907849 -0.8028365 -0.8223937 -1.0141104 -0.66816306 -0.7799094 -0.6263648 -0.77475923
-0.5945122 -0.77082753 -0.60480267 -0.5653988 -0.7338797 -0.4389839 -0.60403883 -0.41542906
-0.6658668 -0.71876824 -0.53569824 -0.2612525 -0.8187049 -0.7090306 -0.7326518 -0.7497911
-0.9714249 -0.7964948 -0.87768126 -0.7397962 -0.71395445 -0.6022128 -0.69473624 -0.82063544
-1.0559118 -0.6178185 -0.82766473 -0.7008738 -0.6206214 -0.73477983 -0.6983867 -0.9757537
-0.70556253 -0.63161904 -0.54203707 -0.74426436 -0.6575993 -0.5416148 -1.0031246 -0.66257834
-0.7758064 -0.76737547 -1.1485119 -0.7062406 -0.70276445 -0.4622854 -0.62900966 -0.8081355
-0.838495 -0.44360462 -0.8449496 -0.8414509 -0.3213866 -0.68642765 -0.75877064 -0.48391202

bn2.running_mean f4 [64]
00000000: 9a3a 1a3d 733a d0c0 308d 9dc0 c1f9 08c1
00000010: 651d 6d40 abd7 9fc0 1c33 0ec0 3b9f 83c0
00000020: 6692 1ec0 f912 65c0 f67c d1c0 a39f f3bf
00000030: ce31 2ec0 af14 20c1 8970 0dc1 01f6 39c1
00000040: 4a73 a0c0 adf6 45c0 2941 5dc0 d695 3ec1
00000050: fbce 20c0 1b9c a7c0 99b6 cdbf aef2 a5c0
00000060: 3c25 7ec0 8531 85c0 5781 93c0 1187 87c0
00000070: 8940 a6c0 ef27 d0c0 f1df 16c1 e32d 67c0
00000080: 174d ddbf 6bde 09c0 e878 36c0 0f31 a7c0
00000090: 17a6 3b3f 8034 bcbf 8937 9fc0 97b9 8fc0
000000a0: 53d5 5b40 ee0b 92c0 cb49 b6c0 5968 b6bf
000000b0: 6351 1ec0 933d 2ac1 e6ca 9dbf 122a 963e
000000c0: 7ec6 10c0 0d83 31c0 fafd b0c0 910f dcc0
000000d0: 5d03 febf 943e 1e40 a238 debf f6ca 23c0
000000e0: 7a2b f8be 51bf eebf ecba 57c0 1971 33c0
000000f0: 4dce 37c1 c1cd 87c0 2ed0 17c0 c812 aec0
0.037653543 -6.507135 -4.923485 -8.560975 3.704919 -4.9950767 -2.2218695 -4.1131873
-2.4776855 -3.579283 -6.546504 -1.9033092 -2.7217898 -10.00505 -8.839974 -11.62256
-5.0140734 -3.093181 -3.457102 -11.911581 -2.512633 -5.237806 -1.6071349 -5.185874
-3.9710226 -4.162295 -4.6095386 -4.2352376 -5.195378 -6.5048747 -9.429673 -3.6121757
-1.7289151 -2.1542003 -2.8511295 -5.2247386 0.7330031 -1.4703522 -4.975529 -4.491405
3.4348953 -4.5639563 -5.696508 -1.4250594 -2.4737175 -10.640033 -1.2327545 0.29328972
-2.262115 -2.7736237 -5.531003 -6.8769 -1.9844776 2.4725695 -1.7361033 -2.5592628
-0.4847067 -1.8652135 -3.3707838 -2.803778 -11.487866 -4.2438664 -2.3720813 -5.4397926

bn2.running_var f4 [64]
00000000: e539 d141 36ef 2042 1523 a041 4185 6942
00000010: e161 fe41 2ab5 b841 aeee 0142 a47d a541
00000020: b8d3 0342 c733 0142 c9d6 c142 a877 d241
00000030: 9b4a da41 5305 5d42 743f 9942 3e65 b842
00000040: 3969 1342 b65e ba41 403e dc41 c1fe 2243
00000050: a520 0342 61cd 4142 4d80 a341 eb89 de41
00000060: 277e b341 d959 a541 2668 d841 da21 4c42
00000070: 2edc bc41 8fe0 2042 5425 5b42 1129 c341
00000080: 9a1e 9c41 6873 7641 1c99 ac41 452a c641
00000090: dd97 1c42 a68c 6741 e8a7 1342 1ba5 6841
000000a0: 43eb e841 8b67 a841 b24f 1542 b513 b841
000000b0: 94d9 5042 da8a 0f42 8547 4641 414e c741
000000c0: 9945 c541 17bb ca41 0388 0342 4499 1242
000000d0: eb27 0342 f2e9 1642 1a1b b441 a753 d041
000000e0: ee7f 4d41 c1a2 0342 401d 6041 4c55 bd41
000000f0: 1257 0e43 bd20 1842 f68e 6241 2596 db41
26.153269 40.233604 20.01713 58.38013 31.797792 23.088459 32.483086 20.686348
32.956757 32.300564 96.9195 26.308426 27.286428 55.2552 76.62393 92.19774
36.852757 23.296246 27.530396 162.99513 32.78188 48.450565 20.437647 27.817343
22.436598 20.66887 27.050854 51.03306 23.60751 40.219296 54.786453 24.395052
19.514942 15.403175 21.57476 24.77064 39.148304 14.471838 36.91397 14.540309
29.114874 21.050558 37.327827 23.009623 52.21248 35.885597 12.392461 24.91321
24.658983 25.341352 32.882824 36.649673 32.788982 37.728462 22.513233 26.040846
12.843733 32.90894 14.007141 23.666649 142.34012 38.03197 14.159903 27.448313
