results/mfdwc-cnn/a-b/best_CL_a-b.pth (torch, 109561 bytes, 4 tensors)

fc1.weight f4 [100, 256]
0	0x3cd16b6c	0.025563918
1	0x3e40e3b1	0.18836857
2	0xbd584777	-0.05280253
3	0x3cb070bd	0.021538133
4	0x3d9a2793	0.075270794
5	0x3cb3b31b	0.02193599
6	0xbd912c27	-0.070884995
7	0xbe0cd8fa	-0.13754645
8	0x3eab622b	0.33473334
9	0xbe4bb640	-0.19893742
10	0xbdafb9bb	-0.08580347
11	0xbe21931b	-0.15778773
12	0xbe3d55f1	-0.18489815
13	0xbc26b783	-0.010175589
14	0xbd1b3a23	-0.03789724
15	0x3e9353c5	0.2877485
16	0x3e39ce58	0.1814512
17	0x3d51868e	0.051153712
18	0xbdd3710a	-0.10324295
19	0xbe53b164	-0.20673138
20	0x3db88bdc	0.09011051
21	0x3d1b8ecd	0.037977982
22	0x3ce087fa	0.027408589
23	0xbe4e062f	-0.20119546
24	0x3d8e04cd	0.069345094
25	0x3ce1396c	0.027493201
26	0x3d932d63	0.07186391
27	0xbe8b5b92	-0.272183
28	0xbcf4aa48	-0.029866353
29	0x3c5f9939	0.013647371
30	0x3c1fc94c	0.009752583
31	0x3d06b64a	0.03288869
32	0x3ddd34f8	0.108011186
33	0xbc160608	-0.009156711
34	0xbe512ff8	-0.20428455
35	0xbd4f7290	-0.050646365
36	0x3dece308	0.1156674
37	0xbc0b3c08	-0.008498199
38	0xbe8238b5	-0.2543389
39	0xbdb8ca05	-0.09022907
40	0x3e31be86	0.17357835
41	0xbc255647	-0.010091371
42	0xbad65392	-0.001635181
43	0xbd782506	-0.060582183
44	0x3d93a0dd	0.072084166
45	0xbcbf2c33	-0.023336506
46	0xbe0b0a0d	-0.13578053
47	0xbeb362fc	-0.35036457
48	0xbd75b750	-0.059989274
49	0x3e60a52d	0.2193801
50	0xbd8c7de7	-0.068599515
51	0xbd5714df	-0.05251014
52	0xbd3e3caf	-0.04644459
53	0x3e29f3e7	0.16596948
54	0xbd363888	-0.044487506
55	0x3cb9e956	0.022694271
56	0x3d166c3a	0.036724307
57	0x3da52daf	0.08065354
58	0x3c5c8559	0.013459527
59	0xbd4ff9d9	-0.050775383
60	0xbb3fb2ab	-0.0029250782
61	0x3d8097e3	0.0627897
62	0xbe0a5de2	-0.13512376
63	0xbe5f9c26	-0.2183691
64	0x3ab13d4c	0.0013522296
65	0x3e5bfb03	0.21482472
66	0xbd37a67f	-0.044836517
67	0xbe20afe2	-0.15692094
68	0x3d9a1d67	0.07525139
69	0x3c022313	0.007942933
70	0xbe45a103	-0.19299702
71	0xbe6cfae3	-0.2314258
72	0x3d0300b9	0.03198311
73	0xbd185565	-0.037190814
74	0xbe1b5158	-0.15167749
75	0x3c97463f	0.018466113
76	0x3e5948d1	0.21219184
77	0x3dec003b	0.115234815
78	0xbe1ec7b0	-0.15505862
79	0xbda0f585	-0.07859329
80	0xbe139481	-0.14412118
81	0x3d8765fd	0.066112496
82	0x3ac69e76	0.0015153426
83	0xbd951b3c	-0.07280585
84	0xbd3d2834	-0.04618092
85	0x3d52c5bc	0.051458105
86	0x3d2e11d6	0.04249748
87	0xbd832ef2	-0.064054385
88	0xbc324edd	-0.01088306
89	0x3d9ff516	0.07810418
90	0x3cb3be31	0.021941276
91	0x3c05a861	0.00815782
92	0x3eb1459b	0.34623417
93	0xbd7b634d	-0.061373997
94	0x3dd8ef40	0.10592508
95	0xbdb6a34c	-0.08917865
96	0x3e37fa34	0.17966539
97	0xbd8eefc0	-0.069793224
98	0x3e2a6ca3	0.16643004
99	0xbda41aca	-0.08012922
100	0x3dbf5c23	0.093437456
101	0x3de726d6	0.11286704
102	0xbda78feb	-0.08181747
103	0xbd220ee2	-0.039564975
104	0xbe4c7db9	-0.19969834
105	0x3e4614fe	0.19343945
106	0xbdadac0b	-0.0848008
107	0x3e886b87	0.26644537
108	0xbd5d88d6	-0.054085575
109	0xbcf992fe	-0.0304656
110	0x3ca8d843	0.020610934
111	0x3aa54fce	0.0012612285
112	0x3dc75323	0.09732654
113	0x3dae9948	0.0852533
114	0x3d37bc1c	0.04485713
115	0xbe937926	-0.28803366
116	0xbcf46d96	-0.02983741
117	0x3e6a8764	0.2290321
118	0xbdbb7426	-0.09153013
119	0x3db9f176	0.09079258
120	0x3cf1638f	0.029466419
121	0xbdd7f2ac	-0.10544333
122	0x3bc60ab7	0.006043758
123	0xbe58f808	-0.21188366
124	0x3d75e317	0.060031023
125	0x3cd5b8a8	0.026089028
126	0xbdf5cfee	-0.1200255
127	0xbe65aca0	-0.22429132
128	0x3d4f8016	0.05065926
129	0xbc44c8d3	-0.012010771
130	0x3d86f574	0.06589785
131	0xbe66077d	-0.22463794
132	0x3e3309c8	0.174842
133	0xbb3a0330	-0.0028383248
134	0x3c9c9dda	0.019118238
135	0xbda04af1	-0.07826794
136	0x3e51a029	0.20471253
137	0xbc122504	-0.008919958
138	0xbe7ff704	-0.24996573
139	0x3c24d09e	0.010059504
140	0x3d4dee7a	0.050276257
141	0x3e18dc88	0.14927876
142	0xbd56510e	-0.052323394
143	0xbcb2593b	-0.021771064
144	0xbdb93d56	-0.09044902
145	0x3e1235e7	0.14278375
146	0x3d2687cf	0.04065686
147	0x3cc2c09f	0.02377349
148	0x3e71a731	0.23598935
149	0xbca83742	-0.020534161
150	0xbea23235	-0.3167893
151	0xbdf5ad9d	-0.11996005
152	0x3d406217	0.046968546
153	0xbd25e46a	-0.040501036
154	0xbea2d250	-0.3180108
155	0xbe2b3160	-0.16718054
156	0x3d9c464c	0.076305956
157	0x3cc76acf	0.024342922
158	0xbdadc713	-0.08485236
159	0xbd8c341c	-0.068458766
160	0x3dc504b3	0.09620037
161	0x3c84e081	0.016220333
162	0x3dc01995	0.093798794
163	0xbda506d4	-0.08057943
164	0x3c45b44c	0.012066912
165	0x3d0169b9	0.031594966
166	0x3d930332	0.07178344
167	0x3db79b1c	0.08965132
168	0xbdabc80e	-0.08387767
169	0x3e68e0a1	0.22741939
170	0xbcabb87b	-0.02096199
171	0x3e242154	0.16028339
172	0x3e3b374e	0.18282816
173	0x3c9480ff	0.018127916
174	0xbe33e618	-0.17568243
175	0xbde961e5	-0.11395625
176	0x3e067f73	0.13134556
177	0xbe0159ca	-0.12631908
178	0xbe49b41e	-0.19697616
179	0x3d39ed20	0.045392156
180	0x3d93de41	0.07220126
181	0x3d504b01	0.05085278
182	0xbe08e709	-0.13369383
183	0xbea827d6	-0.32842892
184	0xbc14fb93	-0.009093183
185	0x3da87fc8	0.08227497
186	0xbe090d9a	-0.13384095
187	0x3d520669	0.051275644
188	0x3d9af43d	0.07566116
189	0x3cf89258	0.03034322
190	0xbe1b2105	-0.15149315
191	0xbd704dd6	-0.05866798
192	0x3db08ab6	0.08620207
193	0x3e2a3c1d	0.16624494
194	0xbdbb2059	-0.09137029
195	0xbcd84d1f	-0.026403962
196	0x3d35a24e	0.04434424
197	0x3d704db7	0.058667865
198	0x3d535b5b	0.051600795
199	0xbd5fe643	-0.054662954
200	0x3db866a1	0.0900395
201	0xbd1527fd	-0.03641509
202	0xbe60a5f6	-0.21938309
203	0xbd7f967d	-0.062399376
204	0x3e39fb0d	0.18162175
205	0xbdc9ad3e	-0.098474964
206	0x3ca84732	0.020541761
207	0xbe2bfaae	-0.16794845
208	0x3dc08951	0.09401191
209	0x3cef2fba	0.029197562
210	0x3d5caf6c	0.053878233
211	0xbe9a80d6	-0.3017642
212	0x3d0be2c9	0.034151826
213	0x3c6f1b1f	0.0145938685
214	0xbdd9b878	-0.10630888
215	0xbd7d1e33	-0.06179638
216	0xbdeb9f41	-0.11504985
217	0x3d890bf4	0.06691733
218	0xbd52de36	-0.051481448
219	0xbde80b0d	-0.11330233
220	0x3d45b1bf	0.048265215
221	0x3c899598	0.016794965
222	0x3c4cebcb	0.012507389
223	0x3cd296f3	0.025706744
224	0x3df13c62	0.11779095
225	0xbc1a3eba	-0.009414369
226	0xbe890526	-0.2676174
227	0xbe82efc1	-0.25573543
228	0xbd5cbc7a	-0.053890683
229	0x3e90545d	0.28189364
230	0x3d5b8760	0.0535959
231	0xbdccc9d3	-0.099994324
232	0x3ce78837	0.028263194
233	0x3b746127	0.0037289353
234	0x3c97c33e	0.018525716
235	0xbe2bad8f	-0.16765426
236	0x3d4c3463	0.049854647
237	0x3d433481	0.047657494
238	0xbe087afa	-0.13328162
239	0xbda63fec	-0.08117661
240	0xbca6ab58	-0.020345375
241	0x3d7e30bb	0.06205819
242	0x3d1f7b6d	0.038936067
243	0xbdb42b3d	-0.087973095
244	0xbe4a923d	-0.19782348
245	0x3e35eba1	0.17765667
246	0xbcbe94be	-0.023264285
247	0xbdb53703	-0.08848383
248	0xbd979572	-0.07401551
249	0x3d0a10bd	0.03370737
250	0xbd47c13b	-0.048768263
251	0xbe21979c	-0.1578049
252	0x3e3d53c0	0.1848898
253	0x3dd1ac91	0.102379926
254	0xbe23a137	-0.15979467
255	0xbe11277c	-0.14175218

fc1.bias f4 [100]
0	0xbd1588e0	-0.036507487
1	0xbcbd0da4	-0.023077793
2	0xbd633b81	-0.05547667
3	0x3debd7d5	0.11515776
4	0x3d175c0b	0.036953013
5	0xbcbf58ad	-0.023357714
6	0xbc996509	-0.018724935
7	0xbd1dd4b2	-0.03853292
8	0xbd167772	-0.036735006
9	0xbd07c445	-0.03314616
10	0xbc8cc4e0	-0.017183721
11	0x3dead36c	0.11466107
12	0xbcc64bee	-0.024206128
13	0x3c87c820	0.01657492
14	0xbd81ee34	-0.06344262
15	0xbc3712e8	-0.011173941
16	0x3d291482	0.041279323
17	0xbd979009	-0.074005194
18	0x3c86adec	0.016440354
19	0xbcaa19a9	-0.020764189
20	0x3c49fcc6	0.012328332
21	0x3e18a4cd	0.14906617
22	0xbd783b80	-0.06060362
23	0xbd887e95	-0.066647686
24	0x3e056833	0.1302803
25	0xbd0961de	-0.0335406
26	0xbcc9cb24	-0.024632998
27	0x3b3a1240	0.0028392226
28	0xbda34808	-0.07972723
29	0xbdc1fb44	-0.09471753
30	0xbcfc89b2	-0.030827377
31	0xbca33f27	-0.019927574
32	0x3d680749	0.056647573
33	0xbcc411e1	-0.023934307
34	0x3d75664e	0.05991202
35	0xbd7984d9	-0.06091771
36	0x3db5c078	0.08874601
37	0x3b05c58b	0.0020411934
38	0xbcb47cd5	-0.02203218
39	0xbd868294	-0.065678746
40	0x3d8472e6	0.06467228
41	0xbca88fcd	-0.020576382
42	0x3d33782b	0.043815773
43	0xbdbdff46	-0.09277205
44	0xbd017192	-0.03160245
45	0x3c80362c	0.015650831
46	0xbc03eefa	-0.008052582
47	0x3cb569c0	0.022145152
48	0xbcaa05dc	-0.020754747
49	0x3ca1112a	0.019661505
50	0xbd163bd7	-0.03667816
51	0xbc7007fe	-0.014650343
52	0xbc21df73	-0.009879935
53	0xbd305f47	-0.043059614
54	0x3d8c94ae	0.06864296
55	0xbc5d1762	-0.013494344
56	0x3db53ecd	0.08849869
57	0xbd483f8e	-0.048888735
58	0xbd46167c	-0.048361287
59	0x3ddb8948	0.10719544
60	0xbc895d81	-0.016768219
61	0x3dbc31dc	0.091891974
62	0xbc8269a5	-0.015919516
63	0xbc971e3b	-0.018447032
64	0x3db4f39e	0.08835529
65	0xbcbc6e5d	-0.023001844
66	0x3e192405	0.14955147
67	0xbc99cd26	-0.01877458
68	0xbd0e8b30	-0.03480071
69	0xbd992531	-0.07477797
70	0x3df32b20	0.1187346
71	0xbcf9ea32	-0.03050718
72	0xbc863d5c	-0.01638668
73	0x3d3f7cba	0.046749808
74	0xbc9e1c19	-0.019300507
75	0xbd0f483e	-0.034981005
76	0x3dba14f9	0.090860315
77	0xbd8887db	-0.066665374
78	0xbcbea0db	-0.023270061
79	0x3d10b9a5	0.035333294
80	0x3d29bd10	0.04144007
81	0x3c270f25	0.010196482
82	0x3ccb8a83	0.024846321
83	0x3df2a041	0.11846972
84	0x3c123e0e	0.008925928
85	0xbc0b10d3	-0.008487898
86	0x3dd4b915	0.10386864
87	0xbc80bb91	-0.015714439
88	0x3deafa80	0.1147356
89	0xbbbb0aa5	-0.005708056
90	0xbcd969bd	-0.026539678
91	0xbd0f4536	-0.034978114
92	0xbd4c1ed2	-0.04983408
93	0xbb52cb06	-0.0032164468
94	0xbc112b94	-0.0088604875
95	0x3b7685c0	0.0037616342
96	0x3c0a9d9a	0.008460427
97	0xbd19a5b2	-0.037511535
98	0x3dbe47ea	0.0929106
99	0xbc9bd514	-0.019022502

fc2.weight f4 [10, 100]
0	0xbe1e81f7	-0.15479265
1	0xbe39224c	-0.1807949
2	0xbe6ca893	-0.23111181
3	0x3dfdc1b6	0.12390463
4	0xbe8c7f93	-0.2744108
5	0x3cce5fac	0.025192104
6	0xbd80169f	-0.06254315
7	0xbe87e60f	-0.26542708
8	0xbd8d8687	-0.06910425
9	0x3d5b4d98	0.053540796
10	0xbc64fe5b	-0.013976659
11	0x3dee2e6d	0.11629949
12	0xbdaae0b8	-0.08343643
13	0xbdf0b0b2	-0.11752452
14	0xbe804d46	-0.25058955
15	0x3d681d3d	0.05666851
16	0xbe09513f	-0.13409899
17	0xbe8cb0c5	-0.27478614
18	0xbde2ab7a	-0.11067863
19	0xbee3d733	-0.4450012
20	0xbcecd640	-0.028910756
21	0x3d7c589b	0.06160794
22	0xbe09bc5d	-0.13450761
23	0xbcf4ab1e	-0.029866751
24	0x3da348e0	0.07972884
25	0xbde37bc4	-0.11107591
26	0x3d8fda8a	0.07024105
27	0xbcb9c206	-0.022675525
28	0xbe9ac09c	-0.30225074
29	0xbe0c4a41	-0.137002
30	0x3d3f9f86	0.046782993
31	0xbc2f5f57	-0.010703883
32	0x3e63a176	0.22229561
33	0x3d94a467	0.0725792
34	0x3d9dde51	0.07708419
35	0xbe162d96	-0.14665827
36	0x3de3924f	0.111118905
37	0xbde9016d	-0.11377225
38	0x3d6d0d87	0.05787423
39	0xbe1fbcb8	-0.15599334
40	0xbd52517d	-0.051347245
41	0x3d8d2a06	0.06892781
42	0xbd874ba1	-0.06606222
43	0xbd1bbdd2	-0.038022824
44	0xbeb2dfce	-0.34936374
45	0xbdc92f04	-0.09823421
46	0x3da7e03a	0.08197065
47	0xbe3a9a15	-0.1822284
48	0xbcf205b9	-0.029543744
49	0xbdd3c172	-0.10339631
50	0x3da2ffab	0.07958921
51	0xbd7f7c77	-0.06237456
52	0xbdd96ef2	-0.10616864
53	0x3d537489	0.05162481
54	0x3d89e282	0.06732656
55	0xbdece69d	-0.115674235
56	0x3e32bfea	0.17456022
57	0xbec8c22e	-0.39210647
58	0xbdbff1c2	-0.093722835
59	0x3e235605	0.15950783
60	0xbd7ad074	-0.061233953
61	0x3e84fcc6	0.259741
62	0xbd2f009c	-0.04272519
63	0x3c847b93	0.016172206
64	0x3e19f547	0.15034972
65	0xbce0471e	-0.027377661
66	0x3dd6481c	0.104629725
67	0xbd727cfa	-0.05920122
68	0xbc8c4f04	-0.017127521
69	0xbdf1b945	-0.118029155
70	0x3d929a74	0.07158366
71	0xbd23eb99	-0.040019605
72	0xbe2daff2	-0.16961649
73	0x3e498ff7	0.19683824
74	0xbd544a07	-0.05182841
75	0xbed7332b	-0.42031226
76	0xbdfd1fa7	-0.12359553
77	0xbcc767e9	-0.02434154
78	0xbdc0d7a9	-0.09416134
79	0xbcbd1544	-0.02308143
80	0x3da0973e	0.07841347
81	0x3de06c1e	0.10958122
82	0xbe8a5e07	-0.27024862
83	0x3e145196	0.14484248
84	0xbee5324b	-0.44764933
85	0x3e51942f	0.20466684
86	0xbcc4ab83	-0.024007564
87	0xbddadc28	-0.10686523
88	0x3e1c5a93	0.15268926
89	0x3d74cd6a	0.05976621
90	0x3e501527	0.20320569
91	0xbe5415f0	-0.20711493
92	0xbe727c3f	-0.23680209
93	0xbd7cacb5	-0.061688144
94	0x3d0a4c37	0.03376409
95	0x3c9d545c	0.019205265
96	0x3e53a39a	0.20667878
97	0xbd2a55ce	-0.041585736
98	0x3d18d614	0.037313536
99	0xbd1fa664	-0.03897704
100	0xbc61e8d1	-0.013788418
101	0xbd17f7f6	-0.03710171
102	0xbe8db934	-0.2768036
103	0x3e085903	0.13315205
104	0xbe528a76	-0.20560631
105	0x3c9310b6	0.017952304
106	0xbc3be924	-0.011469159
107	0x3d26d3d6	0.040729366
108	0xbe973a1b	-0.29536518
109	0x3ce53ecc	0.027984045
110	0x3d9c76b9	0.07639832
111	0x3db2d4b7	0.087319784
112	0x3d475619	0.048666093
113	0xbe5fd676	-0.21859154
114	0xbe84b1ec	-0.25916994
115	0x3d2439c2	0.040094145
116	0x3dcb5ba8	0.099295914
117	0xbe9dbee2	-0.30809695
118	0x3e20b955	0.15695699
119	0xbeb9cb8a	-0.362881
120	0xbe88430c	-0.26613653
121	0x3da91e4c	0.08257732
122	0xbe35b9da	-0.17746678
123	0xbeb1a582	-0.34696585
124	0x3da5c739	0.08094639
125	0xbc48f681	-0.012265802
126	0xbd809ca3	-0.06279876
127	0xbe2f956a	-0.1714684
128	0xbebdf09e	-0.3709764
129	0xbea6a7e0	-0.32549953
130	0x3da5747e	0.0807886
131	0x3d436bb4	0.047710136
132	0x3e58f2dc	0.21186393
133	0x3c6d392a	0.014478961
134	0xbe344625	-0.17604883
135	0xbda48fc3	-0.08035233
136	0x3e0def3f	0.13860796
137	0xbeabaf0b	-0.33531985
138	0x3d643ff3	0.05572505
139	0xbea32bb8	-0.31869292
140	0xbe707fcf	-0.23486255
141	0x3d8a5f86	0.06756501
142	0xbe04b87c	-0.12961
143	0xbe83f731	-0.2577453
144	0xbe2302b3	-0.15918998
145	0xbe343838	-0.17599571
146	0xbc8812ae	-0.01661047
147	0xbe6d0aca	-0.23148647
148	0x3d5c8d02	0.053845413
149	0xbd96bad3	-0.07359853
150	0xbd9fad37	-0.0779671
151	0xbc72c3ea	-0.014817217
152	0x3e49dcdb	0.19713156
153	0x3da9b172	0.08285798
154	0x3d84698e	0.064654455
155	0xbda3c4ba	-0.07996507
156	0x3e00e044	0.1258555
157	0xbee62963	-0.4495345
158	0xbcfe2f15	-0.03102831
159	0x3e3b40a9	0.18286385
160	0xbc8f06a1	-0.017459216
161	0x3e82cb00	0.25545502
162	0xbdf68278	-0.12036604
163	0xbd809478	-0.06278318
164	0x3e33c975	0.17557319
165	0x3d1fe7d8	0.039039463
166	0x3e02057a	0.12697402
167	0xbe83785f	-0.25677773
168	0x3e3fe768	0.18740618
169	0xbe4c8e3c	-0.19976133
170	0x3d8aa1d0	0.067691445
171	0xbd9fcaf3	-0.07802381
172	0x3da16ff1	0.07882679
173	0x3e102215	0.14075501
174	0xbbc25be8	-0.0059313662
175	0xbec444bf	-0.383337
176	0x3d2d1e52	0.042265244
177	0xbe8bb5b5	-0.2728707
178	0x3d222445	0.03958537
179	0xbe29c8e4	-0.1658054
180	0x3d8b9f14	0.06817451
181	0x3e340f5c	0.17583984
182	0xbdbba12f	-0.09161603
183	0x3d008369	0.031375322
184	0x3dc32c29	0.09529907
185	0x3d2f7aa7	0.04284158
186	0xbc4125ce	-0.0117887985
187	0xbac22855	-0.0014813045
188	0x3e2aadef	0.16667913
189	0x3d518e3c	0.051161036
190	0xbe632646	-0.22182569
191	0xbdcc69da	-0.09981127
192	0xbe847f4a	-0.25878364
193	0xbd78c2e4	-0.060732737
194	0xbc84af13	-0.016196763
195	0xbe9c0293	-0.30470714
196	0xbd1e391a	-0.038628675
197	0xbd311887	-0.04323628
198	0x3c2649ce	0.010149432
199	0xbd82942e	-0.06375919
200	0x3e5fb5ee	0.21846744
201	0xbd7d2bf2	-0.061809488
202	0x3e2d88d0	0.16946721
203	0x3db5a62b	0.08869585
204	0x3e38d91b	0.18051569
205	0x3c55fe6c	0.013061147
206	0xbc60ae76	-0.01371347
207	0xbdd7ee60	-0.10543513
208	0x3e16715d	0.14691682
209	0x3c6cd116	0.014454147
210	0xbdd20328	-0.10254508
211	0x3dc53afb	0.0963039
212	0xbe83b9e1	-0.25727752
213	0x3e234751	0.15945174
214	0x3e2d1c59	0.16905345
215	0xbda96ac6	-0.082723185
216	0xbe11a4ef	-0.14223073
217	0x3e11ab67	0.14225541
218	0x3e19419f	0.14966439
219	0x3d296a58	0.041361183
220	0xbe70e5a5	-0.23525102
221	0xbcdea045	-0.027176032
222	0xbe8b5f1a	-0.27220994
223	0x3de5c28f	0.1121875
224	0xbf0094de	-0.50227153
225	0x3c0a6be8	0.008448578
226	0xbccbc2b5	-0.024873117
227	0x3dd043ea	0.101692036
228	0xbe1f43fc	-0.15553278
229	0xbe42349b	-0.1896538
230	0x3dc7afb3	0.09750309
231	0x3c826758	0.015918419
232	0x3d7baaa4	0.061442032
233	0xbd9d0cba	-0.07668443
234	0x3e30433c	0.17213148
235	0x3d3781ca	0.04480151
236	0xbdfd470b	-0.12367066
237	0x3e14fffd	0.14550777
238	0x3d3b6405	0.045749683
239	0xbeaa7f4e	-0.3330025
240	0x3dfebd5f	0.124384634
241	0xbd6eb88a	-0.05828146
242	0x3ec4ae8c	0.3841442
243	0xbd71109f	-0.05885374
244	0x3dc36fd4	0.09542814
245	0x3e279173	0.16364078
246	0x3ce68f85	0.028144607
247	0x3ecb650d	0.39725533
248	0xbc5aae0d	-0.013347161
249	0x3e8273ac	0.25478876
250	0xbc1243e7	-0.008927322
251	0x3d2cf6d2	0.042227574
252	0xbe0db854	-0.13839847
253	0xbe9aa61a	-0.3020485
254	0xbe85407e	-0.26025766
255	0x3ea00b62	0.31258684

fc2.bias f4 [10]
0	0x3ac1d2c7	0.0014787548
1	0x3dbef971	0.09324921
2	0xbdbea7d5	-0.09309355
3	0x3e4d546b	0.20051734
4	0xbde9c90f	-0.11415302
5	0xbc96dc57	-0.018415613
6	0x3da96c7e	0.08272646
7	0xbb8b3bc2	-0.004249067
8	0xbd427ebd	-0.04748415
9	0xbd9abdf5	-0.07555763
