results/mfdwc-cnn/a-s2/best_FE_a-s2.pth (torch, 415197 bytes, 12 tensors)

conv1.weight f4 [32, 1, 7, 7]
00000000: c960 07bc bbd8 083c 477e 74bc e408 383c
00000010: aa62 b43d 6e1b 1ebb 7af8 9f3d fe97 87bd
00000020: 994f c93c 1d27 5bbd 7415 8b3c 8f36 053d
00000030: d9ea 453c cf0e 943d a614 d3bd d824 58bc
00000040: f96d ccbd 5160 66bd c38a 103e 3aa8 f03d
00000050: 4674 8c3d b885 a23d 06da b93d 4f08 6a3d
00000060: 364a 353e 9884 743e 2298 f73d 5c58 7b3e
00000070: 958f e4bd 18ef 0abd 5ffd babd 3222 1bbc
00000080: 0677 793d 8e12 01bd f0c4 703d 1b66 f1bd
00000090: 6a49 93bd d9f8 dcbd dbb5 f63c 6d03 1f3d
000000a0: 027d 31bc 5c8c 09bc 1dfd c1bd 2c52 a8bd
000000b0: b976 0abe b0c8 5abd 26c7 1d3d dc46 3dbd
000000c0: 1320 02bd bd3e e93d 1846 853e d5f0 233e
000000d0: 4663 d53d dae1 273c 2541 9abd 81dd b9bc
000000e0: 9653 133e 0d92 323e 421e 7d3d 81f4 1b3b
000000f0: c364 09be c24b c1bd ded6 86bd 674f e63d
00000100: 1b17 213e 786f 55bc 55c2 b0bc da8f 10be
00000110: 22c9 58be 5052 1fbc 6b9c 7cbc b65c 1d3d
00000120: e0df e1bc 8fd2 db3d 88e7 c33d 2707 b4bd
00000130: af11 dd3c bd0c efbc 3e38 943d bc31 143d
00000140: 5108 e23d b2ee 9b3c d6d0 9cbd 7022 d8bd
00000150: ae27 52bd 0565 9cbd d0de d4bd 1e8d 97bd
00000160: 4a9a 593c 5c90 58be b53a 30be 1b3e 2b3c
00000170: 9357 a23d 5643 e03c 9267 b53b 7af7 a33c
00000180: d165 0abd 52a5 9abd d8cb 7fbe 87b2 a2be
00000190: 39bc 92be 9116 65be 7661 7cbe aeb8 83be
000001a0: 9eec a0be 5788 2a3c 3146 c8bd a0c2 8abc
000001b0: e895 92bc 028b c1bc 6c21 d5bd 4431 88bd
000001c0: 7d7a 513c 7ef8 33bc 25ac 553c 4a43 393b
000001d0: ec6d c43c 04cf 223b 26f1 30bd cfa0 eebd
000001e0: e8ae 0dbe f2cc 05be f475 edbd 16eb 0cbe
000001f0: a262 08be b10b e9bd 60ef 173d b158 1cbd
00000200: 87d5 cd3c 7ce8 34bd f620 a3ba a35f 28bd
00000210: 3507 4d3c 1081 2a3d c077 dc3c 22a2 983c
00000220: 1104 80bb c9fc 07bd d752 a4bc 9450 01bd
00000230: d6e7 0a3d 9c36 2f3d 4846 66bb 4a5c a9bb
00000240: 8a37 1fbc c63e bebc 7528 b73c a9dc 8cbb
00000250: 2f47 363c 6e45 e23c d22e 5abb 44e5 a13d
00000260: c47c 1e3d 991d d5bc 0619 09bd 26d5 2f3c
00000270: dcd4 64bc 446f 9a3a 0516 8e3d 61e3 023d
00000280: dfef 883b 8b2b 74bc c199 55bd 3922 53bd
00000290: 0f48 9b3d c253 103e e07a b93d de1d b7bd
000002a0: ae17 453e 60b6 1f3e 3b0f 333e c460 543e
000002b0: bd2e 3b3e 9607 ff3d b0d0 193e fd0a b0bb
000002c0: 2e08 83bd ae36 493d 09d5 41bb 0330 5fbd
000002d0: e059 07bd b2f9 1cbd 5c2e 253c f3b5 023d
000002e0: ecbd 1a3d 12a2 8abd ab05 3bbd 00fe bfbc
000002f0: f132 90bd 37c5 99bd 72a1 96bd 691a 79bd
00000300: 3f83 debd 940c 25be 3b9e 01be 31ce 9fbd
00000310: 60d4 1abd dabd 933b 92db 96bb 2677 4c3d
00000320: d068 663d 628a 443d 5eb0 1b3c c244 b83d
00000330: 5d3e df3d a192 053e 73fd 8a3d af70 023e
00000340: b7ea 323e 2ff6 1d3e 2ca6 97be cb6d 9dbe
00000350: eaf9 abbe 33a7 abbe 2995 58be 4a9c 75be
00000360: 910a 83be c7f4 1c3c 5913 bebc 3abf 1ebd
00000370: c111 5fbc 1b23 8dbc 871b 563c e352 603d
00000380: 9ae4 75bd b0e3 8a3b 262e 61bd ce40 c03c
00000390: ed14 b93b a057 b33c 47da c83c b968 33bd
000003a0: d996 513c b6ef 28bd ff5a 8ebb e425 2339
000003b0: 0e75 023b 3db8 a4ba fd64 3dbc 04e6 513c
000003c0: f15f 223c 2932 ddba 89e4 203d 66db ceba
000003d0: 6c76 ae3c 7da8 c13c 4a58 aabc 60de 23bd
000003e0: e2b4 823d d352 39bd 5659 3d3d 04e3 863d
000003f0: b164 ca3d 79dd 943d 6e86 f73c 8428 503d
-0.0082628215 0.008352454 -0.014922685 0.011232588 0.08807881 -0.0024125236 0.07811065 -0.06620787
0.024574088 -0.0535041 0.016978003 0.032522734 0.012079918 0.07229387 -0.10306673 -0.013192378
-0.09981913 -0.0562442 0.14115433 0.11750837 0.06858115 0.07935661 0.09074788 0.05713683
0.1770409 0.23878706 0.12089564 0.24545425 -0.111601986 -0.033919424 -0.09130358 -0.009468602
0.060904525 -0.031511836 0.058781564 -0.11787053 -0.07191737 -0.107896514 0.030116012 0.038821626
-0.010833027 -0.008395281 -0.09472106 -0.08218798 -0.13521852 -0.053414047 0.03852 -0.046210155
-0.03176887 0.113889195 0.2603004 0.16009839 0.104193255 0.010246718 -0.075319566 -0.02268863
0.14387354 0.17438526 0.061796434 0.0023796859 -0.13417344 -0.09438278 -0.065839514 0.112456135
0.1573147 -0.0130270645 -0.02157704 -0.14117375 -0.21170476 -0.009724215 -0.015418152 0.038418494
-0.027572572 0.1073352 0.095656455 -0.08790427 0.026985971 -0.029180879 0.0723729 0.036180243
0.110367425 0.019034717 -0.0765702 -0.105534434 -0.051307373 -0.076364554 -0.103940606 -0.07399963
0.013281414 -0.21148819 -0.17209895 0.010451819 0.0792686 0.027375858 0.005536028 0.020015467
-0.033788506 -0.075510636 -0.24980104 -0.3177683 -0.28659227 -0.2237189 -0.24646553 -0.25726837
-0.31430525 0.0104084825 -0.09779013 -0.016938508 -0.017893746 -0.023625854 -0.10406765 -0.06650022
0.012785551 -0.010984538 0.013041531 0.0028268867 0.023978196 0.002484263 -0.043198727 -0.116517656
-0.13836253 -0.13066462 -0.115947634 -0.13761553 -0.13318875 -0.11379183 0.03709352 -0.03817052
0.025126232 -0.044167027 -0.0012445736 -0.04110683 0.012513925 0.04162699 0.02691257 0.018631998
-0.0039067348 -0.03320006 -0.020059032 -0.031570986 0.033912502 0.04277669 -0.0035137106 -0.0051684724
-0.009717831 -0.023223292 0.022358159 -0.0042987657 0.01112537 0.027620997 -0.0033292067 0.07905057
0.038693205 -0.02601509 -0.03347113 0.010731971 -0.013966765 0.0011782427 0.06937794 0.031955127
0.0041789855 -0.01490296 -0.052148584 -0.05154631 0.075821035 0.14094451 0.0905664 -0.089412436
0.19247314 0.15596914 0.17486279 0.20740038 0.18279548 0.12452619 0.15021014 -0.0053724037
-0.063980445 0.049124412 -0.0029576442 -0.054489147 -0.033044696 -0.038324066 0.010081854 0.0319118
0.03777878 -0.06769194 -0.045659702 -0.023436546 -0.07040966 -0.07508319 -0.07355012 -0.060816202
-0.10864877 -0.1611808 -0.12658016 -0.07803 -0.037800193 0.004508716 -0.0046038115 0.049918316
0.0562523 0.047983535 0.009502498 0.089974895 0.10900567 0.13044216 0.06786623 0.12738298
0.17472349 0.15425943 -0.29618967 -0.30747828 -0.33589107 -0.33526 -0.2115065 -0.23985401
-0.25594 0.009579844 -0.023202585 -0.038756587 -0.013615073 -0.017228654 0.0130680865 0.054766547
-0.060032465 0.0042385682 -0.05497565 0.023468401 0.0056482465 0.021892369 0.024518145 -0.043801043
0.012792313 -0.04124423 -0.0043443437 0.00015559007 0.0019906196 -0.0012567114 -0.011559722 0.012811188
0.0099105695 -0.0016875911 0.039280448 -0.0015781939 0.021296702 0.023639912 -0.020794053 -0.040006995
0.06382157 -0.045245003 0.046227776 0.065862685 0.098824866 0.07268805 0.030215468 0.05081989

conv1.bias f4 [32]
00000000: c99a 113b dd52 413d 8764 80ba 1e4b d5bc
00000010: 94ce bdbb 0828 a5ba 1e34 50ba eb7a 77bb
00000020: c5ab 12bc 239e 82ba 1932 e3ba 0b15 56bb
00000030: cb86 9c3d 1167 e0b9 af13 953b 084a 6a3b
00000040: 4df6 1bb9 28a9 7d3a 8436 3bbb 0c45 643c
00000050: 82ae edba afaf 1dbd 5963 653c b4a0 133c
00000060: f700 5dbc d027 303a f4c0 91bb 120c 93bb
00000070: 14a0 96ba e8d1 a2bb 5df2 083d e3c0 1ebd
0.0022217503 0.047198165 -0.0009795584 -0.026036795 -0.0057924483 -0.0012600431 -0.00079423364 -0.0037762474
-0.008952086 -0.0009965341 -0.0017333656 -0.0032666351 0.07642897 -0.000428014 0.0045494656 0.0035749692
-0.00014873706 0.00096763903 -0.002856643 0.013932478 -0.0018133672 -0.038497623 0.014000737 0.009010483
-0.013489 0.00067198 -0.0044480506 -0.004487523 -0.0011491799 -0.0049688704 0.03343426 -0.03875817

bn1.weight f4 [32]
00000000: a6f5 953f 572a 883f 404c 143f 3826 933f
00000010: 5629 563f f72e 463f 5649 283f 7540 a93f
00000020: 9515 9b3f b410 423f 0513 eb3e f4a5 3e3f
00000030: 012f 603f 7725 503f 3fec 303f 467c 1c3f
00000040: 9246 053f c9fd 363f 7d6a 463f 439f e23e
00000050: a84e 2a3f a30f 923f e9b2 5e3f 0e71 a13f
00000060: 747a 4f3f 3e23 383f 434f 313f 91d8 4b3f
00000070: 5ac8 203f 7cd1 463f ce86 633f 23bb a43f
1.1715591 1.0637921 0.5792885 1.1496038 0.83656824 0.7741541 0.657369 1.3222796
1.2115961 0.75806737 0.45912948 0.74471974 0.8757172 0.81307167 0.6911048 0.61127126
0.52060807 0.71480995 0.7750624 0.44262132 0.6652627 1.1411022 0.86991745 1.2612627
0.81046224 0.71928775 0.6926157 0.7962733 0.6280571 0.776634 0.8887757 1.286961

bn1.bias f4 [32]
00000000: 61f1 19bf 7241 e0bd 0dc7 27bf e564 c4be
00000010: 1ed6 65bf dfba 02bf 8c67 27bf 3f50 55be
00000020: 6905 a2be 4381 1dbf 4e65 2bbf 2f42 18bf
00000030: 4e38 b3be 5eef c5be 185c 1abf edaf 37bf
00000040: c4dc 47bf 5ee0 0abf 10f1 28bf 3e23 26bf
00000050: c1ad e4be a5ec 12bf cf51 15bf 7946 aabe
00000060: 7510 f1be 5fce c3be bfc1 f8be 62ff 34be
00000070: 9a71 0cbf 725a c8be 0f1f b8be 2ac2 96be
-0.6013394 -0.10949983 -0.655381 -0.38358226 -0.8977984 -0.5106639 -0.65392375 -0.20831393
-0.31644753 -0.6152536 -0.66951454 -0.5947599 -0.35003895 -0.38659185 -0.60296774 -0.71752816
-0.78071237 -0.5424861 -0.6599283 -0.64897525 -0.44663814 -0.5739234 -0.58327955 -0.3325689
-0.47082868 -0.38243386 -0.48585317 -0.17675546 -0.5486084 -0.39131504 -0.35961196 -0.2944501

bn1.running_mean f4 [32]
00000000: 888d f8bf 2952 3d3c 1058 4141 7535 14c0
00000010: c359 8340 f08f f940 0242 7441 b3a1 edbe
00000020: 3dac 4bbf 9f55 8c40 30a8 4441 5946 8640
00000030: 45ea 0bbe d67c 4241 6b5d 1c41 ecc9 2941
00000040: a139 3d41 40e5 d240 8b1e 8d40 c7df bc40
00000050: f185 dc40 1e58 efbf 74e7 c0bf 0420 f5be
00000060: 6e77 65c0 6fea 0541 6d47 0a41 a0ff 95bd
00000070: 885a 6541 3ba7 2941 4adb 7a3e 591a 23be
-1.9418192 0.011555233 12.084 -2.3157628 4.1047072 7.7988205 15.266115 -0.4641243
-0.7955969 4.385452 12.291061 4.1960874 -0.13663585 12.155478 9.772807 10.611797
11.82657 6.5904846 4.4099784 5.9023166 6.8913503 -1.8698766 -1.5070634 -0.47875988
-3.5854144 8.369735 8.642438 -0.07324147 14.334602 10.603328 0.24497715 -0.1592802

bn1.running_var f4 [32]
00000000: ec45 7641 8930 0b41 2ccb a043 7503 b141
00000010: 6028 4e42 70a1 1943 fc47 0344 84ab 5141
00000020: ef3e 1441 40df 9642 b124 aa43 099d 9342
00000030: 7c90 3c40 9cea bf43 76ea 6243 54e8 8043
00000040: 372e 9e43 085a dc42 9fdf 7142 dc2c 9942
00000050: 28b8 e942 32ad 8141 52f4 0541 a960 c140
00000060: 8bc6 1342 aebd 4a43 0358 3343 93e6 b440
00000070: a062 e943 b4eb 9243 f7b2 4740 c982 e940
15.392071 8.699349 321.58728 22.126688 51.53943 153.63062 525.12476 13.104374
9.265365 75.436035 340.28665 73.80671 2.9463186 383.8329 226.91586 257.81506
316.36105 110.17584 60.46838 76.587616 116.85968 16.209568 8.3721485 6.0430493
36.94389 202.74094 179.3438 5.6531463 466.7705 293.84143 3.1202981 7.297215

conv2.weight f4 [64, 32, 7, 7]
00000000: 86e6 e43b a8b0 d1bd 8c43 e73b a9d3 5e3c
00000010: 0705 92bd 000b f2bd 9df2 8bbd e8fd c5bd
00000020: a220 2fbe 46e1 10be 6ad8 5cbe 6ec9 c1bd
00000030: 9d07 f5bd abb2 7abd 27c9 263d c8f3 13be
00000040: a812 6a3d 9fec 4b3b 1c55 78be 3a3d 43bd
00000050: f77b c4bc 805c c83d 629e 24bd 6807 a8be
00000060: b315 93be aea8 9bbe 7dd6 b4be 13c6 853c
00000070: 0186 413e 931d b33c 4939 013e d5c5 133d
00000080: c600 b9bd 1c76 e1bd 2466 073e 8427 913e
00000090: 9ec0 0e3e e1e4 073e d874 7c3d efed 0e3e
000000a0: 7d99 c53d e9f2 333e 800f ac3d a3ea e73b
000000b0: 1fc0 823c 4bc5 57bd c452 0f3c 0319 093d
000000c0: 0893 48bd 8355 fe3d 8d43 053c e601 f33c
000000d0: f231 28bc 0d86 6f3d 0073 a03c bbeb 3cbd
000000e0: fb6f d03c 0be1 e4bc c999 ee3c 0932 123d
000000f0: 2819 7d3d 5287 c7bc 1085 163d bd8c 21bd
00000100: 0a84 8ebd 449a 33be 9e96 d7bd 8673 87bd
00000110: 799d 18be 6309 06be 4583 1ebd cb0b e63b
00000120: cd20 20bd 158b d6bc b705 aebd e115 80bc
00000130: 6746 98bd 9ed5 ddbd 3af2 1e3e 042b 133e
00000140: 77b5 023d 331b 223d 8bd7 ebbc c37c 22be
00000150: 556b a03b c295 423e ec62 163e d9f2 203d
00000160: f0a4 4bbd 77a1 7abd 0dcf 25bb fdec 1ebe
00000170: 2266 33be b977 dabc 16f7 19be 11d8 ccbc
00000180: 783c b8bc 9adb bbbc 8da9 383e e9fd 623d
00000190: f213 d73d be6c 6a3d 422b 863d a361 2a3d
000001a0: 58b6 973d 0462 313e f9f9 583d 3e1c de3d
000001b0: ac52 a43d a7df a33d 7eb1 803c 1aaf 973d
000001c0: 5de3 8b3d a2df 5a3d 93cd 643d 6c80 6d3d
000001d0: 1dc9 3e3c b01f 243d 8900 8fb9 97df aa3d
000001e0: 21c7 153d 8805 803d 78e1 12bd a016 ddbb
000001f0: a6bd e53c f4eb 2d3c 24cf 7ebc e12c f93b
00000200: 85de 44bd 95e1 66bd 9a75 33bd 3799 aabd
00000210: 45c1 06bd fe3e 05bc 3870 243d c93b 883d
00000220: e6bd 5e3b 44d3 033d eb61 033d e4df 363d
00000230: 8bcc a33c d374 173d 9cdd 2ebc 7db9 5e3d
00000240: 7a90 483d 099d ff3c e2c0 553d 9095 b9bb
00000250: 4fdb 8bbd 828b b13c 1b8a 95bd 0829 29bc
00000260: fe97 f8bc cb1b f33c 990e 27be 7c52 3fbe
00000270: d267 25be 0ab6 51be 8442 84be 522a 0fbe
00000280: 7b5f 0ebe be7b dfbd 4dec 83bd 5621 6eba
00000290: e305 00be d3fc 16be 5e3c 0fbe 4253 efbd
000002a0: a319 3f3d d518 803d 8fce 35be b0c0 82be
000002b0: 7df4 84be 6d6f 3bbe ea6e c0bc 0361 ca3d
000002c0: f697 a33d 4d4e 003d eb03 b6bd 0130 1ebb
000002d0: 7e11 c93c 6a00 013e 0994 2b3e f9a1 193e
000002e0: be5e 9f3d d39f a1bd 332c 72bd dbe0 cd3d
000002f0: 4084 563e 74ce 223e ab54 133e fa28 4b3d
00000300: ecdd fdbb 5fdd f93d d4a3 b23d a357 113e
00000310: b976 c23b fa50 fb3c 8d3f d1bc 5513 cebc
00000320: 4646 18bd 288e 82bd ddd9 75bd 1632 fdbc
00000330: 9425 35bd 6f1c 94bc bb25 52bd 930e 47bd
00000340: 55bd bcbd dc08 d2bc 6726 89bc 6562 673b
00000350: fa82 9dbd 0046 b4bd 9277 96bd cb74 90bd
00000360: 2654 75bd 2e35 d23d 540e 373d 13e4 b03d
00000370: 0b95 063e 2c51 fa3d 1df9 ee3d c091 af3d
00000380: 331b 27be 6645 3abe e444 57be d702 74be
00000390: edbd 14be b63c 11be 413f 80be bc06 94bc
000003a0: 1f41 ee3a 6ffe 15bd cf59 b33b d5df 9bbd
000003b0: c110 09bd c933 edbd e58b 18bc 703a 3b3c
000003c0: 44a9 093d 28ec 053c 5270 5cbd e6ab 013d
000003d0: c5b4 8b3c d8e0 cbbc 54f8 57bd 05e0 4ebc
000003e0: ef3b 44ba 7557 a3bd 0d0d 31bd 4b19 3abd
000003f0: ad43 393d 1d5a 15bd 9822 923b 6611 50bd
0.0069854883 -0.10238773 0.0070576128 0.013600268 -0.07129865 -0.11818504 -0.06833384 -0.096675694
-0.17102292 -0.14148435 -0.2156693 -0.09462248 -0.11964343 -0.061205547 0.040719178 -0.14448464
0.0571467 0.003111638 -0.24251217 -0.047665812 -0.023984892 0.09783268 -0.040190108 -0.3281815
-0.28727493 -0.3040213 -0.35319892 0.0163298 0.18898775 0.021864688 0.12619509 0.03607734
-0.09033351 -0.11008856 0.13222557 0.2835046 0.13940665 0.13270904 0.06163487 0.13957952
0.09648416 0.17573132 0.08401394 0.0070775314 0.015960751 -0.052678388 0.00874776 0.03347112
-0.048968345 0.12418654 0.008133781 0.029663991 -0.010265814 0.05847745 0.019586086 -0.046123248
0.025444021 -0.02793934 0.029126065 0.03569225 0.06179157 -0.024356518 0.036747992 -0.03944086
-0.06958778 -0.17539316 -0.10526775 -0.06613831 -0.14903821 -0.13089518 -0.038699407 0.007020449
-0.03909378 -0.026189366 -0.08497184 -0.015635433 -0.07435303 -0.1083176 0.1552209 0.14371878
0.03191134 0.03957672 -0.028789302 -0.15867905 0.0048956075 0.1900244 0.14686173 0.039294098
-0.049717844 -0.06118914 -0.0025300414 -0.15520091 -0.1751943 -0.026668416 -0.15035662 -0.025005372
-0.022489771 -0.022931863 0.18033428 0.05541793 0.10501851 0.05723261 0.065512195 0.04159702
0.07407826 0.17322546 0.052972768 0.108452305 0.08023581 0.08001643 0.015709635 0.07406445
0.068304755 0.05343593 0.055860113 0.0579838 0.011644629 0.040069282 -0.00027275484 0.08343428
0.036566857 0.06251055 -0.035859555 -0.006747082 0.028044533 0.010615338 -0.015552316 0.007604227
-0.048063774 -0.056367476 -0.043813325 -0.08330005 -0.03289916 -0.008132694 0.040146083 0.06652028
0.00339877 0.0321839 0.032075804 0.044647112 0.019994995 0.036976647 -0.010672953 0.054376114
0.04896591 0.03120281 0.0521859 -0.005663581 -0.06828939 0.021672968 -0.07301732 -0.010324724
-0.030345913 0.029676339 -0.16314162 -0.18683809 -0.16152886 -0.20479599 -0.25831997 -0.13980988
-0.1390361 -0.10912274 -0.06441555 -0.0009083947 -0.12502246 -0.14744882 -0.13987872 -0.11685802
0.04665531 0.06254736 -0.17754577 -0.25537634 -0.2596778 -0.18304224 -0.023490388 0.09881785
0.079879686 0.031324673 -0.08887466 -0.00241375 0.024544474 0.12597814 0.1675569 0.15003194
0.077817425 -0.07891812 -0.059124183 0.100526534 0.20948887 0.15899068 0.14387767 0.049599625
-0.0077474024 0.12200426 0.08722654 0.14193587 0.005934563 0.030678261 -0.025542999 -0.025155703
-0.037176393 -0.063747704 -0.060022224 -0.030907672 -0.04422529 -0.018079964 -0.051305514 -0.048597883
-0.092158 -0.02563899 -0.016741944 0.003530645 -0.076909974 -0.08802414 -0.07347025 -0.070535265
-0.059894703 0.102640495 0.0446914 0.08637252 0.13142793 0.122225136 0.11668608 0.085727215
-0.1631897 -0.18190536 -0.21022373 -0.23829208 -0.14525576 -0.14183316 -0.2504826 -0.018069617
0.0018177367 -0.0366196 0.0054733525 -0.07611052 -0.033463243 -0.11582143 -0.009310697 0.011427507
0.03360869 0.00817398 -0.053818054 0.031658076 0.017053971 -0.024887487 -0.05272706 -0.012626653
-0.00074857374 -0.079756655 -0.043225337 -0.045434278 0.045230556 -0.03646289 0.0044596903 -0.050797842

conv2.bias f4 [64]
00000000: 6d4b 85bb e182 40b9 f98a ccbb 8ebd a8bb
00000010: 26a8 8fbb 3614 af3a 21ba 1e38 0a3b a7b9
00000020: acda b939 338a 86bb 51bb 85ba 966a 70bb
00000030: 1f08 2f3b e908 0cba 0bfa ee3a 93f6 39bb
00000040: 74d9 3cb8 365a 05ba e70a 62ba b21f 81ba
00000050: 8e71 b8b8 b81c 4e39 414d 1cbb 15a7 77ba
00000060: f0b3 0bbb dfe2 0cbb e832 a8ba 2b64 e639
00000070: 0196 a33a f99e 11ba c01c b1ba 3c85 303b
00000080: b908 a83a d4bc 71ba c978 64ba 6640 a2ba
00000090: b319 883a 01c4 583b 039c 393b 9303 afba
000000a0: ae5a 18bb f280 273b ec45 fa3a 6d9d 83bb
000000b0: 8716 d23b f1b2 b5ba 8e39 4aba d00b 26b9
000000c0: 4b4f 1ab9 20ed dcba 2451 b4b9 2f73 16bc
000000d0: f356 26bb 1f3e bbba 0294 b338 b08c ccbb
000000e0: 6c83 0b3b 0de0 81ba fbe1 063b 1387 7cbb
000000f0: cda5 71bb 9021 643b 5c60 edba 0303 133b
-0.0040678293 -0.00018359303 -0.006242153 -0.00514955 -0.0043840585 0.0013357464 3.784348e-05 -0.0003189671
0.00035448873 -0.00410583 -0.0010202919 -0.0036684624 0.0026707721 -0.0005341904 0.0018232478 -0.002837573
-4.5025212e-05 -0.000508699 -0.00086228404 -0.0009851365 -8.794955e-05 0.0001965639 -0.0023849758 -0.00094471994
-0.0021316968 -0.002149753 -0.0012832554 0.0004394365 0.0012480618 -0.0005555 -0.0013512596 0.0026934883
0.0012819982 -0.0009221558 -0.0008715508 -0.0012378811 0.0010383636 0.0033075812 0.002832175 -0.0013352506
-0.0023247409 0.0025559035 0.0019094325 -0.0040165693 0.006411377 -0.0013862533 -0.0007714265 -0.00015835394
-0.00014716123 -0.0016855337 -0.0003439273 -0.009182735 -0.0025381416 -0.0014285481 8.562954e-05 -0.006242357
0.002128805 -0.0009908691 0.0020581472 -0.003853266 -0.0036872507 0.0034810044 -0.0018110382 0.0022432215

bn2.weight f4 [64]
00000000: b905 8e3f 0a25 b53f f668 c03f 7a87 903f
00000010: e71b 983f c766 ac3f aa52 c73f 910d aa3f
00000020: e3ea cc3f 7ef5 973f 0d29 aa3f 90b3 9a3f
00000030: aa95 b13f b09a b43f 43fe 783f f3bb a53f
00000040: 336b bd3f 752f b93f 80ec c83f 4306 b03f
00000050: 3553 a63f dbb3 4f3f 1b1f bd3f 4512 aa3f
00000060: ef2c a63f 6b0f ad3f e251 c63f bb0d 713f
00000070: 3bc7 c03f ed85 793f bdb9 a33f f7a4 7c3f
00000080: ec2f ab3f b985 d83f ddcf af3f 2636 823f
00000090: 57f8 893f 20dc b03f 51f7 ba3f 49fd 9a3f
000000a0: edd0 a83f 7c39 c13f c799 b43f 673a a33f
000000b0: af85 a43f e62e 993f e15b 8f3f d063 be3f
000000c0: 0093 963f ea21 a73f 77f1 d13f fde8 8c3f
000000d0: 28ad dc3f fc1b 953f 57f6 a53f e282 a53f
000000e0: 755d ca3f ab66 cc3f 3ed2 9e3f 8ccd b83f
000000f0: f3e9 b23f f807 b73f f299 9c3f 34c1 803f
1.1095496 1.4151928 1.5032032 1.1291344 1.1883515 1.3468865 1.5572102 1.328539
1.6009182 1.1871793 1.3293778 1.2086048 1.3873799 1.4109707 0.9726297 1.2947983
1.479834 1.4467608 1.5697174 1.3751911 1.2994143 0.8113381 1.4775118 1.3286825
1.2982463 1.352033 1.5493739 0.94161576 1.50608 0.9746998 1.2791058 0.98689216
1.3374 1.6915809 1.373531 1.0172775 1.0778912 1.3817177 1.4606725 1.2108546
1.3188759 1.5095668 1.4109429 1.2752198 1.2853297 1.1967437 1.1199914 1.487421
1.1763611 1.3057225 1.6401814 1.1008602 1.7240343 1.1649165 1.2965802 1.2930567
1.5809771 1.5968832 1.2407911 1.4437728 1.3977646 1.4299307 1.223448 1.0058961

bn2.bias f4 [64]
00000000: e263 0abf aaed 05bf 70aa 37bf 975b b6be
00000010: fe81 a3be 4a55 69be 5aa1 f9be ddd7 24bf
00000020: fd4a 2bbe 28a7 3fbf 81c4 72be d02d a1be
00000030: 2b34 02bf 5836 c4be 884d 9dbe e9dd efbe
00000040: 8d2d 2fbf 3c52 17bf 6d83 3cbf 7b3b 3fbf
00000050: 0782 d8be 2e42 f8be 390a f5be f97a ccbe
00000060: b065 e1be ec7d fabe 7132 d5be 357e c6be
00000070: 4acd 6abe 7ebe a6be 5fb2 9abe fe5e d8be
00000080: 0ed9 5fbe 7141 a8be 1444 d8be a09a c3be
00000090: e7bc 75be 6657 cdbe 0fbd b9be 1c2a c0be
000000a0: 19e9 95be 1d74 4dbf 2e10 e8be aa31 adbe
000000b0: ce73 b0be e0c1 cbbe 3643 c2bd 91d5 92be
000000c0: 4505 b0be b3b5 97be 5895 bfbe 322a 06bf
000000d0: f440 00bf f85d 06bf 6f6a 7fbe e3d5 57bf
000000e0: d9b2 aebe a2bc 93be 6856 d8be a65f 42bf
000000f0: 881a 19bf d3b9 abbe b6ea 99be 35e4 27bf
-0.5405866 -0.5231577 -0.7174444 -0.35616753 -0.31935114 -0.22786441 -0.48755914 -0.6439188
-0.16727825 -0.74864435 -0.23707773 -0.31480265 -0.5086085 -0.3832271 -0.30723214 -0.46848992
-0.6842888 -0.59109855 -0.7363804 -0.74700135 -0.42286703 -0.4848799 -0.47859362 -0.3993757
-0.44022894 -0.48924196 -0.41640046 -0.38768163 -0.22929874 -0.3256721 -0.3021421 -0.42259973
-0.21860144 -0.32862428 -0.4223944 -0.38203907 -0.23997842 -0.40105742 -0.36277053 -0.37532127
-0.29279402 -0.802553 -0.45324844 -0.33826953 -0.34463352 -0.39796352 -0.09485476 -0.28678563
-0.3437902 -0.29630813 -0.37418628 -0.52408135 -0.5009911 -0.52487135 -0.24942945 -0.8431074
-0.34120825 -0.28854853 -0.42253423 -0.759272 -0.5980611 -0.3354021 -0.30061883 -0.6558259

bn2.running_mean f4 [64]
00000000: e127 dac0 0222 b73e ad42 e2be 9c4a 78bf
00000010: 3cf7 323f 1018 76c1 3837 e1c0 621a 71c0
00000020: 9bdd 1bc1 4e4f 55c0 183a 1ac1 4fbb 9abf
00000030: 2678 acc0 f999 71c0 66a7 50c1 e211 8dc0
00000040: 62e5 81c0 20a9 6dbe f936 6ec0 2f66 14c1
00000050: 22ab 33c0 3be7 f340 bfc9 cfbe 7b16 98c0
00000060: 08a5 2ec0 cf2d e9bf 7fda 30c1 9da5 ca3f
00000070: b778 0bc1 021a c340 2bc8 3cc1 dea1 b4bd
00000080: 3613 57c0 bf47 80bf b582 0bc1 dba0 dcbe
00000090: b83d 8c3f 59a1 febf 1138 05c0 b8a1 83c0
000000a0: cd10 03c0 c21b adc0 239c 60c0 dd52 01c0
000000b0: 9ab2 23c0 9cbe 2d3f 0030 55c1 edbc 12c1
000000c0: 7c3c a0c0 4c51 0ec1 8820 18c0 5f68 fcbf
000000d0: d48c 00c1 5983 a7be 8b01 a7c0 e4b0 e7bf
000000e0: e696 02c1 aa12 05c0 17ba 2abf 8c76 03c0
000000f0: 5d7d 6cc0 e6c0 0ac0 ec69 383f a9d6 0ac0
-6.817368 0.35768133 -0.44191495 -0.96988845 0.699085 -15.380875 -7.0379906 -3.7672353
-9.741603 -3.3329654 -9.639183 -1.2088412 -5.3896666 -3.7750227 -13.040869 -4.408433
-4.059251 -0.23209047 -3.7221053 -9.274947 -2.80732 7.6219764 -0.40583608 -4.752744
-2.7288227 -1.8217105 -11.053344 1.5831791 -8.716971 6.096925 -11.798869 -0.08819936
-3.3605475 -1.0021895 -8.719411 -0.43091473 1.0956335 -1.9892989 -2.081547 -4.113491
-2.0479004 -5.4096384 -3.5095298 -2.0206826 -2.557776 0.6786897 -13.324219 -9.171124
-5.0073833 -8.894848 -2.3769855 -1.9719352 -8.034382 -0.32717398 -5.2189384 -1.8100858
-8.16184 -2.0792642 -0.666902 -2.0541105 -3.6951516 -2.1680236 0.72036624 -2.1693518

bn2.running_var f4 [64]
00000000: af46 0342 31ea 8842 6cc2 ea41 e956 2a42
00000010: 8de3 4842 f140 b742 ce69 9b42 a736 da41
00000020: 1e29 0f43 a4be 2842 2272 e642 0c77 bb41
00000030: 7448 6842 e8a3 8142 1970 5642 985e 6c42
00000040: e0b0 9342 cba8 0242 b950 6f42 1094 6d42
00000050: a9ea 3442 bbe1 3642 0ff1 f341 bba8 b442
00000060: 8c72 2042 c7c3 a042 8600 6d42 230c 1142
00000070: d000 a142 ddf1 a042 8e2c 8d42 8862 7c41
00000080: a650 0942 aed2 b541 2657 6442 9b56 4c42
00000090: b084 7042 c7d8 7042 45c4 0a42 310e 1c42
000000a0: 5969 b742 6877 0642 8a05 1f42 d276 3f42
000000b0: 28d5 4542 737c 6842 6d84 1d43 29e4 8742
000000c0: a114 8642 13f5 a442 b991 f141 1c79 9641
000000d0: 87ed 8f42 4aa0 ba41 666c 0d42 4dbf 1442
000000e0: be21 c242 8a4e 0f42 1737 0e42 8b47 3442
000000f0: 34df 0e42 7fe8 4142 492a fd41 e86f ec41
32.819027 68.457405 29.344933 42.584873 50.222218 91.62684 77.70665 27.276686
143.16061 42.186172 115.222916 23.433128 58.070755 64.82013 53.60947 59.092377
73.84546 32.664837 59.82883 59.394592 45.22916 45.72044 30.492704 90.32955
40.111862 80.38238 59.25051 36.261852 80.50159 80.47239 70.58702 15.7740555
34.32876 22.72787 57.085106 51.084576 60.129578 60.211697 34.69167 39.01386
91.70576 33.616608 39.75541 47.866035 49.45816 58.121532 157.51729 67.945625
67.04029 82.47866 30.196154 18.809135 71.96392 23.328266 35.355858 37.186817
97.0659 35.8267 35.5538 45.069866 35.71797 48.477047 31.645647 29.554642
