integrated_mfdwc_cnn_dcase/results/a-s3/best_FE_a-s3.pth (torch, 415197 bytes, 12 tensors)

conv1.weight f4 [32, 1, 7, 7]
00000000: 0fec 84bd 5fa9 c33c 565f 6abb ea6f 49bd
00000010: c3bd b0bd 1227 343d ada6 a83d ec92 35bd
00000020: c0ce 3e3c fdf0 0bbc 055a a4bd 4a9e 96bd
00000030: da20 4c3d 13cb bf3d 45ad 0c3e e7e1 fa3d
00000040: abb9 303e f722 1a3e e0cf 113e fa6a f83d
00000050: 9d89 493e 16a0 51be c955 ebbd 7268 52be
00000060: 6564 86be ce63 81be 629f 4ebe 7a2a c4bd
00000070: 4f46 c63b a7f5 d93d 98bc fdbb 1b46 e2bb
00000080: 0f01 e4bc 095a 803d d064 a63d 01f6 5d3b
00000090: 1769 f83b 33ed e7bd dc3c 96bd 0f63 03bd
000000a0: be52 14bd 9f01 873c 9177 6b3d 90dc 9e3d
000000b0: 7f51 9d3d ff82 ca3c 85a1 633d 3c39 663d
000000c0: eeaa f93c 3146 4fbc 7ff3 0cbc 835d 1abd
000000d0: bded e73d dfd8 683d ac95 92bd d5b8 dbbb
000000e0: 28d2 f53c 0ef3 12bd 83f1 203d ef93 f83d
000000f0: 6fc2 b4ba 1a22 ccbd 111b 6fbd 33cf 60bd
00000100: 2b1d 28bd 5f82 833d 943a 683e ffe6 0d3d
00000110: b3a2 29be 201a 80bd e8bc 3e3e 055d 383e
00000120: 81a6 7c3e 00c6 6a3e 8baf db3d b637 263e
00000130: b451 253e c5b3 82bc a287 ac3c 5e6b 603d
00000140: a611 7c3d 450e 16bd a16c acbd 14f1 23bd
00000150: c162 87bd 7d99 05be 4ebb 30bd ce45 0dbc
00000160: b7aa bfbd 29cc 60bd 9cf4 9ebd 43d0 e5bd
00000170: b0ea e6bd 08cf 313c c055 83bc ffd1 0fbe
00000180: 708e 0cbe 75e0 adbd ca7a a1bd b607 d0bb
00000190: 7773 e83d 182c d9bb 4c47 8a3c b3c8 b43d
000001a0: b2cf 14bc 91b6 30be 2c7f 7d3c 1808 d33d
000001b0: 3e9c 10bd 7195 813d 6fd6 dc3c fd97 2b3d
000001c0: fc9d 1abe 1706 fcbb 69a1 0a3e ec22 79bd
000001d0: f035 5fbd f2a5 2f3d 8962 e23c 1ed3 083d
000001e0: a341 1f3c 672f 5c3e 68bf be3d 003d e73d
000001f0: 212c e63d a931 0d3e aef9 27be 406d 42bd
00000200: 40d8 053e 3993 72bd 05a5 d13c a528 893d
00000210: 3594 bf3d db15 c9be c27f 56be 503a 55bb
00000220: 5410 debd 4d7c 40bd 09ca b2bc c4fd a9bc
00000230: 8a47 2dbe 77fd 2fbd bc6e b33d f280 19bd
00000240: 0d88 993d 5bb9 ea3c 57be 723c b264 393d
00000250: 8a02 81bb bd00 b93a 28fb 7e3d f18f 9bbd
00000260: a084 82be bb3a 2dbe 1048 4a3e 6236 f23d
00000270: 523d d43c 4c1a fe3c 359c e93c 46b0 e1bd
00000280: 162e 25bd efd5 3b3d 5429 4f3c 9589 c5bc
00000290: 3ac3 1dbd 5354 cebd 848e 12be 9165 40be
000002a0: 7482 0dbe f9c5 c3bd 08dd d1bc ee32 c9bd
000002b0: 0cc6 a1bd 6a10 60be b524 75be ce2e 7dbc
000002c0: 4a7a 533c 344b 7bbc 1687 b43c c01a f4bc
000002d0: 431c 38bd 4018 1cbd 19e4 5c3b e873 383d
000002e0: a593 fd3a 278d b13c 9a7b 54bd 058a dabc
000002f0: 57a1 69bd 4398 e53d 6942 063e acb2 cc3d
00000300: 219b 0f3e cf33 843d 8ed5 553d 6071 bc3d
00000310: aa64 f23c bf72 8c3d 7d2f eb3d 7695 c53d
00000320: c538 c93d d4e6 a63b 00c7 87bd 8f7c 333b
00000330: 95c3 f73d ef18 413d 84d0 fc3d 9ed6 1cbc
00000340: bfca 37bd 7303 2fbe 341f 253e be73 523e
00000350: 4895 523e bbfd 2b3e e3e5 633d 33c3 c83c
00000360: 69d9 89bd 6ccf 17be d381 92bd b6eb e3bd
00000370: 03a4 a7bd 96d3 60be bb83 73be 0193 6fbe
00000380: 26ba db38 202e 793d 733a 5b3d 1d8b 553c
00000390: 975c b3bd 5291 1ebd 409a f6bd 97d0 2abb
000003a0: 4f1a 46ba 68ff 493d d167 0cbd c3b1 5dbc
000003b0: 5bff 5dbd bb68 34bd 5a11 cd3d 9950 da3d
000003c0: 71cd f33d a952 1d3e 7bdd b83d b77d 1a3e
000003d0: 56bb 223d d35c ce3c e60b 37bd 9792 2fbd
000003e0: 265d ff3d 13d8 ee3d 2835 eb3d 925c f33d
000003f0: c710 03be 7d2d 83be 26a0 973a be08 023e
-0.06490337 0.023884473 -0.003576239 -0.049178995 -0.08629944 0.043982573 0.08234916 -0.04432957
0.011645973 -0.008541343 -0.08024982 -0.0735441 0.049836017 0.09364905 0.13737972 0.12250119
0.17258327 0.150524 0.14239454 0.12129779 0.19681402 -0.20471224 -0.114909716 -0.20547655
-0.2624847 -0.25271457 -0.20177987 -0.09578414 0.006050862 0.106425576 -0.0077434294 -0.00690533
-0.027832536 0.06267173 0.08124697 0.0033868554 0.007580887 -0.11324539 -0.07335827 -0.03207689
-0.03621172 0.016480265 0.057487074 0.07756913 0.0768156 0.024720667 0.05557396 0.056206927
0.030477013 -0.012651012 -0.008602976 -0.037686836 0.11324642 0.05684745 -0.07157454 -0.0067053833
0.030007437 -0.035876326 0.039292824 0.12137591 -0.0013790856 -0.09967442 -0.058375422 -0.0548851
-0.04104344 0.06421351 0.22678596 0.034644123 -0.16565971 -0.06254983 0.1862675 0.18004234
0.24672891 0.22927094 0.107268415 0.1623219 0.16144449 -0.015954861 0.021060769 0.054789893
0.06154027 -0.036634702 -0.08419157 -0.040024832 -0.06610633 -0.13046832 -0.043147378 -0.0086226
-0.09358733 -0.054882202 -0.07761499 -0.112213634 -0.11275232 0.010852583 -0.0160321 -0.14044951
-0.1372621 -0.084900774 -0.07884748 -0.0063485755 0.11350148 -0.006627571 0.0168797 0.08827343
-0.009082722 -0.17257144 0.015472215 0.10304278 -0.035305254 0.06327332 0.026957719 0.041892994
-0.15099329 -0.0076911557 0.13538136 -0.06082432 -0.0544948 0.042882867 0.027634876 0.033404462
0.009720239 0.21502458 0.093138516 0.11290932 0.11238886 0.13788475 -0.16403839 -0.04746747
0.13070774 -0.059222434 0.025591383 0.066972055 0.0935444 -0.39274487 -0.20947173 -0.0032535978
-0.10842958 -0.046993542 -0.021824853 -0.020750888 -0.16921821 -0.042966332 0.08761355 -0.037476487
0.07496653 0.028652837 0.014815888 0.045262046 -0.0039370703 0.00141146 0.06225124 -0.07595814
-0.2549181 -0.16916935 0.19754052 0.11826779 0.025908146 0.031018399 0.028516868 -0.110199496
-0.040327154 0.04585832 0.012644131 -0.024113456 -0.03851626 -0.10074677 -0.14312178 -0.18788745
-0.13819295 -0.09559245 -0.025618091 -0.09824167 -0.078991026 -0.21881261 -0.23939784 -0.015453054
0.012907574 -0.015337754 0.02203707 -0.029797912 -0.044948827 -0.038109064 0.0033705293 0.04503241
0.001934637 0.021673752 -0.051875688 -0.026677141 -0.05703863 0.11210682 0.13111271 0.099950165
0.1402402 0.06455194 0.052205615 0.09201312 0.029589016 0.068578236 0.11483667 0.09647648
0.09825281 0.005093435 -0.06629753 0.0027387475 0.12097851 0.04714292 0.12344459 -0.009572653
-0.044871088 -0.1709116 0.16125184 0.20551965 0.20564759 0.16796009 0.05563916 0.02450714
-0.06730921 -0.14825219 -0.07153668 -0.11128943 -0.0818558 -0.21955714 -0.2378072 -0.23395921
0.000104774066 0.060835004 0.05352254 0.0130336555 -0.087578945 -0.038712807 -0.120411396 -0.002606427
-0.0007557021 0.04931584 -0.034278695 -0.013531151 -0.054198604 -0.04404519 0.10013075 0.10659904
0.11904419 0.15363564 0.09026619 0.15087019 0.03972944 0.025190746 -0.04468908 -0.04286441
0.124689385 0.11662307 0.11484748 0.11882891 -0.12799369 -0.25620642 0.0011568114 0.12698647

conv1.bias f4 [32]
00000000: 4529 173c 090e 3b3d 3c2a 17bd 2125 ddbb
00000010: 230d 4b3b ceec 88bd f97d 5bbb d000 25bc
00000020: acb8 37bc 4076 2a3c 5695 d0bb d4d7 803d
00000030: e21a 03ba 3fe2 293c ac84 bf3b d923 083d
00000040: 1bf6 683b cca9 8eba 1cdc c4bb ceab babc
00000050: cf09 b6ba 338b da3d 0874 41bb b800 f5bb
00000060: 127a 8bbc 56c0 31bc a03a c4ba fe69 9e3b
00000070: 0cbb 8aba f124 43bd 2d6e bebb 3995 bebc
0.009226148 0.04566768 -0.036905512 -0.006748811 0.0030983172 -0.06685792 -0.0033491834 -0.0100709945
-0.011213463 0.01040417 -0.0063654585 0.06291166 -0.0005001259 0.010368883 0.005844673 0.033237312
0.003554708 -0.0010884344 -0.0060076844 -0.022787001 -0.0013888421 0.106710814 -0.0029518623 -0.0074768923
-0.017025981 -0.010849079 -0.0014971085 0.0048344126 -0.0010584309 -0.047642652 -0.005811474 -0.023264514

bn1.weight f4 [32]
00000000: 2bf2 0e3f 6eb9 8e3f dc1a 8c3f 19fa f83e
00000010: c481 6e3f 9ffe 4f3f 2381 4e3f 2d3c 3a3f
00000020: aba8 8c3f 14c7 503f d649 3b3f 4c70 233f
00000030: 6aa2 233f bf59 623f 37fb 213f 6096 563f
00000040: 16d8 283f af9f 3d3f 21d7 623f 1640 693f
00000050: 76c5 273f a5d1 4d3f 5d4a 533f 703b 323f
00000060: 4bcb 943f 880a 213f fd55 3d3f a3ed 493f
00000070: e45e 3f3f 916a 8d3f 6226 593f 5cdb 973f
0.5583827 1.1150339 1.0945697 0.4862831 0.93166757 0.81247896 0.80665797 0.7274807
1.0988973 0.8155377 0.7315954 0.63843226 0.639197 0.8841819 0.6327395 0.83823204
0.6595472 0.7407178 0.8860951 0.9111341 0.65535676 0.8039802 0.82535344 0.69621944
1.162454 0.62906694 0.7395933 0.7887823 0.74754167 1.1048146 0.8482419 1.1863818

bn1.bias f4 [32]
00000000: 67f5 1abe 26d6 eabe 3ce6 a7be 87ee aebe
00000010: d531 1cbf 790c 0abe 4193 04bf 9d4e 2cbf
00000020: fe09 1dbe 203a 0dbf c17c 59bf c31d 04bf
00000030: f17c 59bf 9143 18bf 1ddb 35bf 073d 15bf
00000040: 2f92 17bf 95d2 03bf a1a1 10bf e3bc 9cbe
00000050: 5de7 2cbf 9a9a 443c d7f7 1cbf b258 00bf
00000060: b778 19bf 7b75 f7be 09a6 25bf 8fe7 6dbf
00000070: 269e 08bf 79d6 9abe af34 0cbf 0fbe 62be
-0.15132676 -0.45866507 -0.32792842 -0.34166357 -0.6101354 -0.1348132 -0.5178719 -0.67307454
-0.15335843 -0.55166817 -0.84955984 -0.5160791 -0.8495627 -0.594781 -0.71037465 -0.58296245
-0.59207433 -0.514932 -0.56496626 -0.3061286 -0.6754053 0.0119997505 -0.61315674 -0.5013534
-0.5994982 -0.48331818 -0.64706475 -0.92931455 -0.53366315 -0.30241755 -0.5476789 -0.22142814

bn1.running_mean f4 [32]
00000000: de71 a53e 8b38 8ebf ac74 4abe 3b72 7640
00000010: bb2b 1bc0 5565 593d ea87 1fc1 66f4 9d40
00000020: 9b98 2dbf 715f 48c0 6186 6b40 2bea a5bd
00000030: c59c a241 4121 0dc0 717a 5541 c80a 2ec0
00000040: 8492 4041 5f34 0741 70db bcc0 8840 d23e
00000050: 03b8 6641 8614 e73c cf2f 72c0 3612 4c41
00000060: 28fb d4bf d403 7e3e 78f1 b141 db7c 6940
00000070: 8e72 3841 f80c 6dbf 02c0 b1c0 2d63 20bf
0.32313436 -1.1111006 -0.1977107 3.850722 -2.424544 0.053075153 -9.970682 4.936084
-0.6781098 -3.1308253 3.6800768 -0.081013046 20.326548 -2.2051547 13.342393 -2.719408
12.03577 8.450286 -5.901787 0.41064858 14.419925 0.028208029 -3.784168 12.754446
-1.6639147 0.24806148 22.242905 3.6482456 11.527967 -0.92597914 -5.5546885 -0.6265133

bn1.running_var f4 [32]
00000000: 92c8 f040 26d5 8241 bbad db40 ee84 2942
00000010: 7601 a741 cf4c ea40 86ae 8143 f903 c542
00000020: fd9e a941 ad85 f041 c572 4542 ef91 4c40
00000030: a902 7344 2109 9341 22d2 cc43 f271 b741
00000040: 4a6d a843 4615 3743 05b6 af42 2c99 a540
00000050: a985 ed43 62ad a141 8ef9 0f42 b52d be43
00000060: 0e36 ab41 c0c9 7d40 1814 8b44 edbf 3642
00000070: e620 a143 fda5 8241 958b 9042 c3f3 9c41
7.5244837 16.354076 6.8649573 42.379814 20.875713 7.321876 259.36346 98.50776
21.202631 30.065271 49.36208 3.196407 972.04156 18.379457 409.64166 22.930637
336.85382 183.0831 87.85551 5.1749477 475.04422 20.20966 35.993706 380.3571
21.401394 3.9654388 1112.6279 45.687428 322.25702 16.331049 72.27262 19.619024

conv2.weight f4 [64, 32, 7, 7]
00000000: 2735 efbc a24a 173d 30e5 253e 65c5 033d
00000010: 9649 fbbd 0dc8 2c3b bcf8 ddbb 9141 133e
00000020: c1ed a03d 32d8 143d b2ba 84bc 2e7c 433c
00000030: 15cd 503d c2db a4bd 6c0b 4d3d fec9 88bd
00000040: 510e 91bd d498 e5bd 92d6 1ebe bc1d 28be
00000050: e30b 30be 94a2 a8bd de6e aebd dc58 e6bd
00000060: 3dc0 74bd 2213 6dbd d90f 153d 6a38 b0bd
00000070: a1f1 b1bc ba6c a33d 0e55 bebb a4df 38bd
00000080: 3ab6 c9bc 903e 023d e7e4 a7bd 35b2 a23b
00000090: 9302 52bd 1f79 e93d a993 c9bd 77da c8bd
000000a0: 263a 9dbd 7084 1cbd 0f2a 923b 4c27 e23c
000000b0: 6a99 e53c e5d5 3fbc 9ce9 0aba 86e6 30bd
000000c0: ecc2 d73d 05a9 c2bc fcc3 13be 1afc 9e3e
000000d0: 88e7 8ebc b5c9 9c39 e5a8 a93d 29c1 803d
000000e0: b0d7 00bd 28cc 70bd c890 04bd 2ba5 5b3c
000000f0: 101b 263e e2a4 b7bc 606f 9f3d 13b7 f53d
00000100: 0de4 ee3b 1a53 1f3e 3f24 db3d fd60 e23d
00000110: a6a8 11be 0145 113d b6b4 59bc 55fc 783d
00000120: ef9c 26bd 1120 81bd 4aaf 29be c34f 0abb
00000130: 5fcd 9f3d 2558 4bbe 0731 dabe c28b 5cbc
00000140: 3f48 ddbd 1bec 99bd 7b13 d8be b5a8 3fbe
00000150: fb32 563e 0eeb 813d 7b57 133e 2bab 783e
00000160: fa32 963e 0c97 403d 0bc5 2c3e cad3 0fbc
00000170: 5bab 3a3d ac60 b8bd b46b 90be 4ebb 58bd
00000180: 3252 35be fb2b 0f3d c8c1 6ebd 2eae ce3d
00000190: 6442 1cbe af13 87bc f7ac 183d 7904 69bd
000001a0: b8d7 bbbd e93c 883d 04a4 003e 35fd 7cbd
000001b0: 5585 f13b 4077 323e 3b57 193e bfd1 78bc
000001c0: 5c6e 183c 3aac 9d3d 6187 c0bd 1605 f23c
000001d0: c3e0 793e 571f 4a3e 34c1 c1bb 1a99 babd
000001e0: 221f 993c e46b cfbd 99af 02bf 494b c53d
000001f0: 6f02 87bb a7e8 0d3d 0dd7 14be 69aa efbd
00000200: 0362 8cbe 98dc bebe 6315 2d3d a7dc 38be
00000210: 33f8 ddbd 7694 1c3e 7ccc fa3d 048e 363e
00000220: de64 103e d206 123e b5f6 523e 841c 2b3e
00000230: 773b aebd b132 0fbd 4bd9 c93c bbd8 71bd
00000240: 1e30 3abe b119 84bd 6f9e 92bb c742 7cbd
00000250: 3653 a93c 117f 0fbd 82ba 03be c352 02be
00000260: f151 2fbd 80f3 25be 51ad a13d 7179 7d3d
00000270: d5bd 253d 4358 563d fc4c be3d ae74 043e
00000280: e7c2 a63d a7ef 7f3d 525a e63d 5f7c 4c3d
00000290: a7fb 95bc bc79 b13c 36ff e23c 74d1 1cbd
000002a0: 63c6 cbbd f73d 27bd eab7 d2bc b3b4 0dbd
000002b0: 80c9 79bd 6713 14be e2e6 05be 456a 8f3d
000002c0: 54a6 643d 21af 0b3d 8007 083e bef9 c03d
000002d0: 6de3 983d 07d6 533c 295b 81bd edc9 01be
000002e0: 6d17 b8bd 990e d4bc b251 51bd 2eb1 e3bd
000002f0: e7fa 32be 8bec 423c ccd1 5fbd 6b34 8cbd
00000300: a3b8 5dbb 341e d6bc 65c9 dbbc ef65 e0bc
00000310: f9ab b73c 5089 333d 325c 7e3e eb58 163e
00000320: 8666 53bd bbde 31be e9c8 ec3d eaa1 a33d
00000330: ea09 b3bb b87f 4a3e 3c29 213e 61fb 1b3e
00000340: 09a9 aebc 1031 993d 13a7 983d de7f 9bbd
00000350: f8ba 3bbd 71fc 1c3e 2171 d53d 5f7a 43be
00000360: bd20 16be c77b bd3d 88e1 3a3d 756b ee3c
00000370: 073e 643e 070f 4b3d b25b c63c e83e f83d
00000380: 89b8 953b 81e5 37be af2e bc3d 8e42 9f3d
00000390: cb81 4f3e 597c 043e ede9 3a3e 835e 563a
000003a0: 71ae 3ebb cfd8 3ebd 4785 01be 0dbe 84bd
000003b0: 55b2 65be 0474 06be 1a45 82be b1df 0ebe
000003c0: 2c10 d4bd 979c 2abd c6a8 1abc 7d47 4ebe
000003d0: 253c 26bd ed8c 83bd a5d1 c83d ccf5 49bd
000003e0: 4ef6 a9bd 1f97 203e dc61 613e 45a8 ccbd
000003f0: 95d5 e03d 435d 343e 1a56 d5bd 06dc f2bd
-0.02920015 0.03693641 0.1620071 0.032170672 -0.12269895 0.0026364357 -0.006774036 0.1438048
0.07857848 0.036338992 -0.016202305 0.011931462 0.05097683 -0.08049728 0.05005972 -0.06679152
-0.07082809 -0.1121079 -0.1551154 -0.16417593 -0.17192034 -0.08234134 -0.0851724 -0.11247417
-0.059753645 -0.057879575 0.036392067 -0.0860451 -0.021721663 0.07979722 -0.005808479 -0.045135155
-0.024623025 0.031797945 -0.081979565 0.0049650916 -0.051271986 0.11400055 -0.09842617 -0.09807294
-0.076771066 -0.03821224 0.00446058 0.027606629 0.028027255 -0.011708711 -0.0005299093 -0.043188594
0.10535225 -0.023762235 -0.14430231 0.31051713 -0.017444387 0.00029904922 0.08284167 0.062868424
-0.031455696 -0.05878845 -0.032364637 0.013406078 0.16221261 -0.02241749 0.07784915 0.11997809
0.0072903694 0.15559044 0.10700273 0.11053655 -0.1422449 0.035466198 -0.013287714 0.060787518
-0.040677007 -0.06304944 -0.16570774 -0.002110467 0.07802843 -0.19857843 -0.4261553 -0.013461055
-0.108047955 -0.07515737 -0.42202362 -0.187167 0.20917885 0.06343661 0.1438884 0.24284045
0.29335767 0.04701905 0.16872041 -0.008778522 0.045573574 -0.09002814 -0.2820717 -0.052913003
-0.17707136 0.034954052 -0.058290273 0.10091816 -0.15259701 -0.016488878 0.037274327 -0.05688903
-0.091720045 0.06652243 0.12562567 -0.061764915 0.0073706307 0.17428303 0.14974682 -0.015186726
0.0093036555 0.07698865 -0.094008215 0.02954344 0.24402146 0.19738518 -0.005912924 -0.09111233
0.018691603 -0.101280004 -0.5104919 0.096335 -0.004120163 0.034645703 -0.1453516 -0.11702425
-0.27418527 -0.37277675 0.042256724 -0.18052922 -0.10838356 0.15291008 0.122460335 0.17827612
0.14100978 0.14260414 0.20601924 0.16710097 -0.08507436 -0.034960452 0.024639746 -0.05904458
-0.18182418 -0.06450213 -0.004474453 -0.06158712 0.02066956 -0.03503329 -0.12864116 -0.12726884
-0.042802755 -0.16206169 0.078943856 0.061883394 0.04046424 0.052330267 0.09292027 0.12935135
0.081426434 0.06248441 0.11247696 0.049923297 -0.018308474 0.021664493 0.027709585 -0.038285688
-0.09949949 -0.04083058 -0.025722463 -0.034596156 -0.06098318 -0.14460526 -0.13076356 0.07002691
0.055822685 0.034102563 0.13284111 0.094226345 0.07465253 0.012929446 -0.063162155 -0.12674685
-0.08988843 -0.025885867 -0.0511033 -0.11117779 -0.17478524 0.011897217 -0.054643437 -0.068459354
-0.0033831976 -0.026137449 -0.02682943 -0.027392356 0.02242087 0.043832123 0.24839857 0.14682357
-0.051611446 -0.17370121 0.11561758 0.07989867 -0.0054638283 0.19775283 0.15738386 0.15232612
-0.021320837 0.07480061 0.07453742 -0.07592748 -0.045832604 0.15330674 0.10421968 -0.1908965
-0.14660926 0.09252124 0.04562524 0.029103974 0.22289287 0.049574878 0.024213646 0.121213734
0.0045691174 -0.17958643 0.09188592 0.07776366 0.20264356 0.1293806 0.18253298 0.00081775355
-0.0029095674 -0.046593484 -0.12648498 -0.06481562 -0.2243131 -0.13130194 -0.25443345 -0.13952519
-0.10354647 -0.041653242 -0.009439653 -0.20144458 -0.040584702 -0.06423364 0.098056115 -0.049306676
-0.08298932 0.15682648 0.22009987 -0.09993032 0.109782375 0.17613702 -0.10416813 -0.118583724

conv2.bias f4 [64]
00000000: 4aba 23bc cd33 db3b b160 5c3b 7262 283b
00000010: 8e60 aebb 7899 753a 523e fcba 9145 403b
00000020: e5a8 ddbb 7c5e 953b 5ba2 fd39 72cc d9bb
00000030: 8432 aabb 9c87 203c 9de6 afbb 1555 113b
00000040: 1559 a0bb 708e 0cbc 7963 fa3a 01e3 4dbb
00000050: 0e8d cebb e68e 9738 4aa8 8cba 05df 94ba
00000060: 93c6 01bc c15e 6e3b 777b 6d3b 915d a2bb
00000070: 7614 0b3b 68b5 b2ba ac2e 2cbb 5474 debb
00000080: 1b0a ffba 4c70 f339 20c1 36ba 8232 4cbb
00000090: 7d43 e7ba 6098 82bb 4a17 91bb 6ca9 0bba
000000a0: b382 96bb fe14 69bb 1108 9e3b 0aff 003b
000000b0: bf21 8cbb e3d1 31bb d0ee dfba 86bd f53a
000000c0: cf53 d739 c6ef d73b d89a 593b 5cc2 0dba
000000d0: 16ba b837 894c 9cb8 9582 483b c821 f4bb
000000e0: 43ac e3ba 8f58 1bba bd40 07bc 0c2f cbbb
000000f0: 1636 283b cc3c 95bb 48a5 15bb 9f00 c1b9
-0.009993145 0.0066895247 0.0033626969 0.0025693444 -0.005321569 0.0009368877 -0.0019244647 0.002933834
-0.0067645186 0.0045583826 0.00048376885 -0.0066466862 -0.00519401 0.009797957 -0.0053680674 0.0022175957
-0.004893432 -0.008578882 0.0019103131 -0.0031415822 -0.006303436 7.226858e-05 -0.0010731306 -0.0011357969
-0.007920879 0.0036372396 0.003623692 -0.0049550016 0.0021221912 -0.0013634386 -0.0026272936 -0.0067887697
-0.0019457968 0.0004643224 -0.0006971527 -0.0031158035 -0.0017644014 -0.0039854497 -0.004427825 -0.0005327675
-0.0045932173 -0.003556549 0.004822739 0.0019683265 -0.004276484 -0.002713316 -0.0017084721 0.0018748499
0.00041070438 0.0065898625 0.0033203866 -0.0005407685 2.2021162e-05 -7.4529155e-05 0.003059541 -0.007450316
-0.0017370064 -0.0005925977 -0.008255181 -0.006200677 0.0025667003 -0.0045543667 -0.002283411 -0.0003681229

bn2.weight f4 [64]
00000000: d3f3 b83f 63f1 c53f 75f3 a23f 493d bc3f
00000010: 0cc8 7f3f bc19 bf3f 9d59 a63f f8ee d63f
00000020: f5df ae3f b50e aa3f e081 b43f f2c7 823f
00000030: 6376 9b3f d2a8 c93f 6b2f b63f 3156 b63f
00000040: 1b69 bb3f f31c de3f da32 b33f afb3 ca3f
00000050: 3f46 bd3f fcb6 b13f 4b8c 8a3f fedd a93f
00000060: 3f41 b53f cb7c d13f c69d c13f 5ddd a73f
00000070: 2294 993f cb0b d33f 1cb5 8c3f e7c7 9a3f
00000080: 31f3 a83f 7df7 a43f 9070 983f 2af0 da3f
00000090: 872c 973f 88fe a23f 3bbc af3f a4d6 b53f
000000a0: bcc1 603f ce54 993f e2e2 903f b683 953f
000000b0: 2708 ab3f 9961 a43f 9fa9 933f da8d 933f
000000c0: a478 933f 2288 a53f d0bb e73f a4d1 a63f
000000d0: ee96 d13f ca7c 8f3f 5cf2 913f 5965 ba3f
000000e0: ea4a 873f 1ce4 ac3f e276 933f 277a a33f
000000f0: babb cc3f a193 6c3f 5d3c 6e3f 0a82 a53f
1.4449409 1.546429 1.2730547 1.4706203 0.9991462 1.4929729 1.2996098 1.6791677
1.3662096 1.3285738 1.4102135 1.0217268 1.2145504 1.5754645 1.4233221 1.4245054
1.4641451 1.7352585 1.3999894 1.5836085 1.4787062 1.3883967 1.0824064 1.3270872
1.4160537 1.6366209 1.5126274 1.311443 1.1998332 1.6487974 1.099277 1.2092255
1.3199216 1.2888027 1.1909351 1.7104542 1.1810464 1.2733927 1.3729318 1.4206128
0.87795615 1.1979005 1.1319239 1.168082 1.3361863 1.2842284 1.1536139 1.1527665
1.1521192 1.293217 1.8104191 1.3032727 1.6374185 1.1209958 1.1402087 1.4562179
1.0569737 1.3507113 1.1520655 1.2771653 1.599479 0.92412764 0.9306086 1.293031

bn2.bias f4 [64]
00000000: 93ea 5dbf 5ff1 40bf 8141 3bbf 20e3 6cbf
00000010: ef81 23bf 266b 2dbf db49 0abf efdc 2cbf
00000020: 1668 06bf 2c1c 2fbf 0f9d 03bf 592d 0dbf
00000030: 2704 2ebf 167f c3be 7e7f 05bf a9ec b0be
00000040: 8633 10bf 5398 23bf ffb0 e8be 4860 57be
00000050: 6099 3bbf d013 1ebf 8f2e 22bf 3a87 23bf
00000060: 2276 62bf 4ae9 38bf 5615 36bf 7deb 26bf
00000070: 7b40 22bf 17b7 0fbf 2d2a 1abf ad69 42bf
00000080: 5deb 80bf 589c 0cbf b0d5 42bf db96 0ebf
00000090: 7683 ffbe 7253 23bf fa32 27bf fd8b 58bf
000000a0: 2d94 1dbf 9116 14bf 5879 f6be af2f 2bbf
000000b0: f66f 1cbf 6fce fcbe 2ffd 67bf f3f6 14bf
000000c0: 5b89 35bf 1e0d 2fbf 7548 8abf 308f 2fbf
000000d0: 8d64 20bf fb77 c6be c7ad 0cbf 76d1 37bf
000000e0: 6a2c 47bf 3a65 bebe 8811 43bf a2dd 3ebf
000000f0: 0ca5 91be efb2 1ebf 7734 2dbf 4501 dbbe
-0.86686057 -0.75368303 -0.73146826 -0.92534065 -0.6387014 -0.6774162 -0.54018945 -0.6752462
-0.5250257 -0.6840236 -0.5141153 -0.5514732 -0.67975086 -0.38182896 -0.5214766 -0.34555557
-0.5632862 -0.63904303 -0.45447537 -0.21032822 -0.73280907 -0.6174898 -0.6335229 -0.63878214
-0.88461506 -0.7223097 -0.71126306 -0.65203077 -0.6337964 -0.5613875 -0.60220605 -0.759425
-1.0071827 -0.5492606 -0.7610731 -0.5569894 -0.49904984 -0.637992 -0.6531216 -0.84588605
-0.61554223 -0.57846934 -0.48139453 -0.66869634 -0.6110834 -0.49376246 -0.906207 -0.58189315
-0.7091271 -0.6837939 -1.0803362 -0.6857786 -0.6265343 -0.38763413 -0.54952663 -0.7180399
-0.77802145 -0.37186605 -0.76198626 -0.74556935 -0.28446233 -0.6199178 -0.6765818 -0.42774406

bn2.running_mean f4 [64]
00000000: 1726 d13e 3dc8 c1c0 aeff 72c0 a275 f3c0
00000010: e9de f93f 8bca 7fc0 b1c2 23c0 0576 6cc0
00000020: 7c32 c9bf f1bb 45c0 26dc e3c0 2b61 e7be
00000030: 4e38 50bf ef3f 10c1 0fb7 fac0 b18b 30c1
00000040: 275b 80c0 30d9 5dc0 d555 82c0 b9f8 60c1
00000050: 23de f3bf c4cf 98c0 42b5 88bf 4aa4 d5c0
00000060: bad3 83c0 dbcd 6cc0 1b61 6fc0 3612 8fc0
00000070: bdfc 79c0 3d63 b8c0 e880 26c1 7333 2dc0
00000080: deb3 6ebf 4a56 68bf 0d63 91c0 5b33 c6c0
00000090: a4e7 c43f ec97 a73e e407 80c0 120f 83c0
000000a0: fe07 8140 b61d 6cc0 b6e1 a4c0 4194 e3bf
000000b0: 79ad 49c0 3c3e 2ac1 7cf5 18bf 3110 573e
000000c0: 807b 3bc0 7601 57c0 72ac 96c0 59a3 b3c0
000000d0: f9e8 d9be c3a2 d13f b49d cabf d075 08c0
000000e0: f309 fdbf 3685 50c0 a167 25c0 6ba5 ddbf
000000f0: 7ad9 2ac1 e031 abc0 5687 87bf 89aa 84c0
0.40849373 -6.055693 -3.7968554 -7.6081095 1.9521152 -3.9967372 -2.558758 -3.6947033
-1.5718532 -3.089596 -7.1206236 -0.4519132 -0.81335914 -9.015609 -7.834846 -11.034104
-4.011127 -3.466381 -4.0729775 -14.060723 -1.9052166 -4.775362 -1.0680315 -6.676305
-4.1195955 -3.7000644 -3.7403018 -4.470973 -3.906051 -5.762114 -10.406471 -2.7062652
-0.93243206 -0.90756667 -4.543341 -6.193769 1.5383191 0.32733095 -4.000963 -4.0955896
4.0322256 -3.6893134 -5.1525526 -1.7779619 -3.151213 -10.640194 -0.5974958 0.2100227
-2.9294128 -3.3594642 -4.7085505 -5.61369 -0.42560557 1.6377796 -1.5829377 -2.1321907
-1.9768661 -3.2581306 -2.58445 -1.7316107 -10.678095 -5.3498383 -1.0588176 -4.1458173

bn2.running_var f4 [64]
00000000: e744 c141 88db 1d42 5270 9a41 c171 6642
00000010: 7b52 0d42 9e12 9241 53c1 eb41 f62d 9f41
00000020: dc09 0642 add2 e141 ae1c b842 01db fa41
00000030: aeb5 ba41 79b2 5a42 3b88 9542 accd ad42
00000040: e6f2 2842 2b9d b641 4407 fe41 a64d 4643
00000050: 4010 e241 b9cc 2d42 f672 c041 ca76 f241
00000060: f507 e841 4536 b941 9006 ce41 0971 6b42
00000070: 9b5c b941 ed6b f441 8e0d 8d42 c4fd ad41
00000080: 96f5 a541 0e12 9341 00c9 da41 d22d 1242
00000090: c9c1 3142 0ec3 4c41 f399 2a42 dd31 4b41
000000a0: e9d8 0642 7b79 9741 53bd 1142 e470 c441
000000b0: 601d 5642 42a5 6742 a260 7141 3574 0142
000000c0: 646b e241 076c d641 ce81 fa41 e8dd 0942
000000d0: 2426 f841 67ac 1742 449c b841 0327 d941
000000e0: 15e6 6441 1a8f 0e42 c782 5141 d3f7 9741
000000f0: 5190 1243 f61b 2b42 8e85 2741 9cf1 c541
24.158644 39.464386 19.304844 57.611088 35.330547 18.25909 29.469397 19.897442
33.50963 28.227869 92.056015 31.356936 23.33871 54.67429 74.766075 86.9017
42.237206 22.826742 31.753548 198.30331 28.257935 43.449924 24.056133 30.308002
29.003885 23.151499 25.753204 58.860386 23.170218 30.552698 70.526474 21.748909
20.744915 18.383816 27.348145 36.544746 44.439243 12.797621 42.65034 12.699674
33.711826 18.934317 36.434887 24.555122 53.528687 57.911385 15.086092 32.363483
28.302437 26.802748 31.313381 34.466705 31.018623 37.91836 23.076302 27.144049
14.306172 35.639748 13.094428 18.996008 146.56374 42.777306 10.470106 24.742973
