integrated_mfdwc_cnn_dcase/results/a-s3/latest_CL_a-s3.pth (torch, 109475 bytes, 4 tensors)

fc1.weight f4 [100, 256]
0.25351536 -0.13143015 0.072181575 0.038046565 0.2607158 -0.06175512 -0.07392364 -0.13214864
-0.036905333 0.060992446 0.009828267 -0.026893195 -0.061291657 -0.058049962 -0.051433347 0.46860462
0.09863006 0.044431843 -0.17186664 0.08346151 -0.006484146 0.13978189 -0.23345806 0.2259745
0.18242452 0.104929365 -0.42310986 -0.07170816 0.059358098 0.017175173 -0.27224565 0.08689765
0.0648845 -0.22750561 0.05281391 0.026001044 0.10978707 0.012770151 0.027421793 -0.234617
0.053262945 -0.103129685 0.09802836 0.03334878 -0.09926444 -0.04381741 0.17227907 0.41550574
0.08284924 0.041076977 0.12625988 -0.15740125 0.5008547 -0.26912922 -0.1366546 -0.23136602
0.37234113 0.12798731 -0.046762913 -0.2713167 -0.00039839125 0.26306164 0.0104248775 -0.1637299
0.24398123 0.013100249 -0.19710945 -0.17754546 0.0838344 -0.13413414 -0.3312779 0.07124314
0.05653172 -0.17850527 0.12063578 -0.018903859 0.36958578 0.48123217 -0.1541324 -0.17056075
-0.14788568 -0.044652596 0.1387854 0.17838924 -0.0675962 0.20174125 -0.012462474 0.13281132
0.045271046 -0.0043575456 -0.026773987 0.016637737 -0.09846904 0.21432415 0.39652503 -0.11306133
-0.15066949 0.07722075 -0.08354936 0.63852626 0.04428633 0.050106198 -0.3870836 -0.059220903
-0.04273913 0.29485306 -0.15776564 -0.14169292 0.18750535 0.0668562 -0.31469715 0.101868965
0.32410762 -0.2860574 -0.17812775 0.08185447 -0.08058938 0.18262462 -0.2025008 -0.02017346
0.13767149 0.10739746 0.029912831 0.019433258 -0.008733573 0.098520204 -0.29298314 0.1044884
0.14377558 0.00067140657 -0.019040946 -0.1090511 0.07132372 0.0034968413 -0.031159421 -0.19186784
0.095993616 -0.0016003005 -0.023563825 0.12348286 0.100201555 0.24445045 -0.13240209 -0.075558916
-0.08170546 0.05814873 -0.35971144 0.25787368 0.0467682 0.048944805 -0.43208513 0.15697646
0.11912538 -0.059807412 -0.14681856 0.104504645 -0.12050454 0.039840057 0.23341635 -0.14664178
-0.14753228 0.05093411 0.19478838 -0.046609998 0.06378424 -0.12147171 0.06690133 0.5653886
-0.013085004 -0.0040064524 0.19605982 -0.080988765 0.020995146 0.036283173 -0.13452265 -0.05187034
0.28017128 -0.1613329 0.16071485 0.0011567511 0.31415153 -0.13452546 0.032586478 -0.13841182
-0.013680786 -0.11839913 0.011420755 0.043403406 -0.045770045 0.13605678 -0.11672006 -0.014596991
0.17312412 -0.039754216 -0.1810878 -0.008619623 0.21733236 0.046835348 -0.14072083 -0.057814572
-0.071272075 -0.051457193 -0.108855896 0.35455012 0.12273495 -0.15382467 0.17894661 -0.17369838
0.05465079 0.24076283 -0.18171868 -0.047668085 -0.1611509 0.09938857 0.0041628857 -0.10435918
-0.19966324 0.1824026 0.056216028 0.02301962 0.08724206 -0.0379918 -0.036248807 -0.11020957
-0.06726273 -0.04314059 0.15383537 0.3920121 -0.082185894 0.04429365 0.1432833 -0.06964822
0.025306229 0.0007426821 -0.078482606 0.075345024 0.12802652 -0.009634556 -0.33735996 0.10278912
0.2045657 0.39618635 -0.08568723 -0.15705536 -0.103255786 -0.013474181 0.16554551 0.05977816
-0.055749893 0.07271142 -0.088493556 -0.043952223 -0.23926958 0.13079886 -0.019285355 -0.039894164
00000000: c4cc 813e a095 06be efd3 933d b7d6 1b3d
00000010: 8b7c 853e f0f2 7cbd 4765 97bd f951 07be
00000020: 0c2a 17bd 37d3 793d bd06 213c 1e4f dcbc
00000030: f60c 7bbd ccc5 6dbd c6ab 52bd f2ec ef3e
00000040: 8ffe c93d 2afe 353d cffd 2fbe deed aa3d
00000050: f678 d4bb fc22 0f3e a10f 6fbe dc65 673e
00000060: 7ecd 3a3e 35e5 d63d dba1 d8be badb 92bd
00000070: 7a21 733d f3b2 8c3c c863 8bbe 65f7 b13d
00000080: 2ae2 843d 3bf7 68be 6653 583d 2400 d53c
00000090: 0bd8 e03d e539 513c aba3 e03c 703f 70be
000000a0: 3f2a 5a3d a835 d3bd 18c3 c83d bb98 083d
000000b0: 284b cbbd e279 33bd ed69 303e 2bbd d43e
000000c0: ddac a93d 5540 283d 454a 013e cb2d 21be
000000d0: 0338 003f 4ecb 89be 2fef 0bbe 37eb 6cbe
000000e0: 7fa3 be3e 1b0f 033e 788a 3fbd 06ea 8abe
000000f0: 2bdf d0b9 04b0 863e 1bcd 2a3c d0a8 27be
00000100: 37d6 793e 6da2 563c 0fd7 49be 7ace 35be
00000110: 5fb1 ab3d 765a 09be 429d a9be ece7 913d
00000120: ce8d 673d 16ca 36be e40f f73d 44dc 9abc
00000130: 593a bd3e 1064 f63e e2d4 1dbe 7aa7 2ebe
00000140: 586f 17be a4e5 36bd c31d 0e3e abab 363e
00000150: e06f 8abd 4295 4e3e 682f 4cbc b1ff 073e
00000160: 226e 393d bec9 8ebb 1f55 dbbc dd4b 883c
00000170: 23aa c9bd ca77 5b3e 5405 cb3e b38c e7bd
00000180: 1a49 1abe ea25 9e3d ed1b abbd 7576 233f
00000190: 9565 353d 283c 4d3d d22f c6be 9e91 72bd
000001a0: 3a0f 2fbd fbf6 963e 518d 21be f317 11be
000001b0: 6701 403e e7eb 883d fc1f a1be ada0 d03d
000001c0: 6ff1 a53e 1e76 92be 1f67 36be 51a3 a73d
000001d0: 0b0c a5bd f301 3b3e 5f5c 4fbe d042 a5bc
000001e0: c1f9 0c3e 33f3 db3d c10b f53c 7f32 9f3c
000001f0: 4317 0fbc f6c4 c93d e301 96be 04fe d53d
00000200: e839 133e 5501 303a c2fb 9bbc 2f56 dfbd
00000210: 2c12 923d 432b 653b 0b42 ffbc 0179 44be
00000220: 4d98 c43d 2dc1 d1ba ec08 c1bc 95e4 fc3d
00000230: 7936 cd3d 3851 7a3e 6a94 07be a2be 9abd
00000240: 3155 a7bd 5d2d 6e3d 192c b8be 0508 843e
00000250: 0390 3f3d 597a 483d 433a ddbe 70be 203e
00000260: 02f8 f33d 9ef8 74bd 9b57 16be 8806 d63d
00000270: 16cb f6bd 542f 233d b204 6f3e 4329 16be
00000280: b412 17be 49a0 503d 9b76 473e 20ea 3ebd
00000290: 50a1 823d 29c6 f8bd 9103 893d 4fbd 103f
000002a0: 7c62 56bc 8f48 83bb e8c3 483e 70dd a5bd
000002b0: 03fe ab3c aa9d 143d 4ec0 09be fe75 54bd
000002c0: 9c72 8f3e 7434 25be 6f92 243e 209e 973a
000002d0: 78d8 a03e 0bc1 09be 6679 053d d4bb 0dbe
000002e0: 6025 60bc 3e7b f2bd 1e1e 3b3c c5c7 313d
000002f0: 5f79 3bbd 7852 0b3e ed0a efbd 3828 6fbc
00000300: 7347 313e 51d5 22bd 156f 39be 5239 0dbc
00000310: 608c 5e3e 6cd6 3f3d 1f19 10be f9ce 6cbd
00000320: 18f7 91bd c7c4 52bd d7ef debd 9887 b53e
00000330: 765c fb3d 3784 1dbe c83d 373e fddd 31be
00000340: 82d9 5f3d 888a 763e 7614 3abe 9c3f 43bd
00000350: be04 25be 3c8c cb3d d168 883b 44ba d5bd
00000360: 8574 4cbe bfc7 3a3e c742 663d a493 bc3c
00000370: f7ab b23d 4a9d 1bbd a179 14bd 8eb5 e1bd
00000380: 0bc1 89bd 30b4 30bd 0587 1d3e cfb5 c83e
00000390: 1451 a8bd 426d 353d dbb8 123e baa3 8ebd
000003a0: 024f cf3c 8db0 423a 7dbb a0bd 7e4e 9a3d
000003b0: 6219 033e 42da 1dbc 72ba acbe 1a83 d23d
000003c0: ac79 513e f0d8 ca3e c97c afbd 1fd3 20be
000003d0: c577 d3bd d0c2 5cbc c384 293e f2d9 743d
000003e0: 005a 64bd bae9 943d 1c3c b5bd 3f07 34bd
000003f0: 1603 75be 23f0 053e 52fc 9dbc 1068 23bd

fc1.bias f4 [100]
-0.15818435 0.11969848 -0.022397272 -0.050905414 -0.1230489 -0.040884662 -0.15426674 -0.1631136
-0.114433184 0.26460946 -0.044510666 0.05889233 -0.0257833 0.12996317 -0.03744767 0.017269492
-0.022530198 -0.028453447 -0.028811086 -0.029910969 -0.03707665 -0.036674626 0.04147875 -0.09403773
0.14942057 -0.04352577 -0.037098058 0.048850812 0.09128342 0.2001189 -0.048028443 -0.033228073
0.14410478 -0.039858077 0.17000732 -0.06871798 0.03587112 -0.030281182 0.13030952 -0.12571631
0.25209302 0.02224975 -0.00974256 -0.013075402 0.07254322 -0.18789583 -0.02611273 -0.08706848
-0.03292527 -0.1385984 0.016315073 -0.0664958 -0.03847294 -0.11320057 -0.043558143 0.0831005
0.0028858983 -0.06085768 0.14033245 0.023281379 -0.047453113 -0.02460108 -0.028478142 -0.03439526
0.07328772 -0.08988772 -0.025173193 -0.017254686 -0.081422985 -0.017222272 0.16412666 -0.1179641
-0.049702607 -0.053162996 -0.035541933 -0.027420837 -0.022019032 0.034648776 -0.029207349 0.14170545
-0.021357222 -0.019784737 -0.12705605 0.059428886 -0.016338758 0.28813508 0.15067966 -0.021936428
0.22520338 0.18383619 0.030586455 -0.03740428 0.044068214 0.07847568 0.08607859 -0.022752585
-0.0816289 -0.027676936 -0.11365122 0.016717464
00000000: 14fb 21be 7a24 f53d 7c7a b7bc 3282 50bd
00000010: 1001 fcbd ad76 27bd 1af8 1dbe 4007 27be
00000020: f25b eabd e47a 873e d150 36bd 1539 713d
00000030: 8037 d3bc 1115 053e ba62 19bd c078 8d3c
00000040: 4091 b8bc 3417 e9bc 3a05 ecbc d907 f5bc
00000050: afdd 17bd 2238 16bd 9fe5 293d da96 c0bd
00000060: b501 193e 1448 32bd 22f4 17bd ca17 483d
00000070: cdf2 ba3d f8eb 4c3e 79b9 44bd 291a 08bd
00000080: 3490 133e 3942 23bd 6616 2e3e 03bc 8cbd
00000090: 98ed 123d 3e10 f8bc dc6f 053e c7bb 00be
000000a0: 5612 813e 1c45 b63c 429f 1fbc 363a 56bc
000000b0: 8a91 943d c467 40be 5dea d5bc f650 b2bd
000000c0: a6dc 06bd bdec 0dbe 30a7 853c f32e 88bd
000000d0: cd95 1dbd b3d5 e7bd 066a 32bd 9830 aa3d
000000e0: 5721 3d3b e745 79bd 4fb3 0f3e 97b8 be3c
000000f0: 325e 42bd 3488 c9bc fe4a e9bc 0be2 0cbd
00000100: df17 963d 0e17 b8bd 0338 cebc b359 8dbc
00000110: 18c1 a6bd b915 8dbc d210 283e 2997 f1bd
00000120: f694 4bbd 71c1 59bd 6b94 11bd aaa1 e0bc
00000130: 4261 b4bc e0eb 0d3d 4044 efbc 3c1b 113e
00000140: 57f5 aebc 9a13 a2bc fb1a 02be b46b 733d
00000150: dcd8 85bc 7186 933e c54b 1a3e 06b4 b3bc
00000160: b79b 663e 8e3f 3c3e 7290 fa3c 3b35 19bd
00000170: df80 343d dbb7 a03d f949 b03d a163 babc
00000180: 0d2d a7bd beba e2bc f9c1 e8bd 10f3 883c

fc2.weight f4 [10, 100]
-0.54797614 0.042016037 0.0046315743 0.17205617 0.16332191 0.18952289 -0.07945076 -0.66683
-0.2560708 0.14811492 -0.03722432 -0.25170547 -0.5794701 0.0904356 -0.07899237 0.1663787
-0.046076223 -0.044473354 -0.16853787 0.022106234 -0.27118587 -0.3506943 -0.3498681 0.2330671
0.14399241 -0.60678476 -0.033235945 -0.18323237 0.14745556 0.114554405 0.055666063 -0.08233605
0.066535994 -0.09102709 0.10025203 -0.07314806 0.23436256 -0.5306033 -0.27678815 -0.47280726
0.16577092 0.13799195 -0.001770017 -0.078377135 -0.020593118 0.07924707 0.0519938 -0.11135274
0.10464626 -0.5121199 0.052966382 -0.28324893 -0.0153403375 -0.3511072 -0.7713652 -0.124181286
-0.23217486 -0.18285015 0.27893162 -0.26127344 -0.05652045 -0.067592844 0.07674697 -0.081434995
0.014026584 -0.29210117 -0.010205927 -0.07889151 -0.22481112 -0.061071035 0.09832025 -0.21594438
-0.4862246 0.010193472 0.09127595 0.024620587 0.06304119 0.060459044 -0.5334201 0.17156291
-0.03715468 -0.07714171 0.1341248 -0.053676434 0.0587886 0.09705319 0.08160338 -0.05292223
0.17730898 0.18469918 0.15589039 -0.5296999 -0.7697045 -0.35559812 -0.10887448 0.07789651
-0.37276283 -0.33267352 -0.16881527 0.20362534 -0.49876657 0.085757464 0.0906889 -0.65726876
-0.67140406 0.20360771 -0.7137579 -0.77010393 -0.10408585 0.1126714 0.022147818 -0.48811698
-0.28956035 0.081234805 -0.028824113 0.26999986 0.05761056 -0.011685651 -0.03944432 -0.009153333
-0.06815451 -0.5627018 -0.56661826 -0.2833055 0.13928129 0.16078195 -0.007094713 -0.26666498
0.1725707 0.12492654 0.052774083 -0.017819623 0.12475173 -0.15877697 0.14507769 -0.5906825
0.23403983 -0.03603681 -0.03917918 0.30111912 0.17105713 0.16094497 -0.8068008 -0.016204622
0.1761025 -0.42277777 -0.06066235 -0.46870667 0.056290094 0.018091334 -0.25444862 -0.12508512
-0.06730623 0.1576757 -0.7584784 -0.43112707 -0.03738258 -0.15566221 0.3899484 0.15754505
-0.010667646 0.016924458 -0.0010606541 -0.087339185 0.18959714 -0.040582664 -0.02775044 0.09963076
-0.035178863 -0.052919067 0.10620841 -0.55040336 -1.061649 -0.020615572 0.16383472 -0.008361049
0.044474 -0.52893287 -0.5199851 -0.09772031 0.09629458 -0.049234774 -0.36853778 -0.59075534
-0.32207143 0.09221416 0.017605497 -0.07519838 0.17679228 0.25810778 0.20646392 0.010699474
-0.11954676 0.12046621 -0.84313774 -0.06774038 -0.44916144 -0.36201563 -0.14941262 -0.7263935
-0.028602486 -0.61839044 0.08432346 0.16536207 0.0558298 -0.1765667 0.12983677 0.26481786
0.2763793 -0.33846888 0.06990596 0.110268444 0.009929324 -0.9486589 -0.032201223 -0.32904676
-0.010484786 0.065491386 0.03176511 0.03339512 0.2567429 0.13159241 -0.027889796 0.14883618
0.042322807 0.18544479 0.05038068 0.1603678 0.08462734 0.039292485 -0.029231217 -0.06231333
-0.03263544 -0.6100288 0.04315571 0.22459655 -0.66720814 0.18215436 0.30717108 0.0902393
-0.07592154 -0.5078484 0.092566974 -0.010709924 -0.10606128 0.02753861 -0.030621273 -0.586213
-0.033867065 0.31783724 -0.27320367 -0.50867 -0.082297966 -0.018584039 0.058500856 0.1337146
00000000: 2a48 0cbf 0219 2c3d 76c4 973b 7e2f 303e
00000010: dc3d 273e 4a12 423e 14b7 a2bd 5fb5 2abf
00000020: b61b 83be 70ab 173e 8778 18bd 8adf 80be
00000030: 2758 14bf 4d36 b93d c0c6 a1bd 2e5f 2a3e
00000040: 6cba 3cbd b129 36bd 3195 2cbe 2218 b53c
00000050: e0d8 8abe 348e b3be e921 b3be 24a9 6e3e
00000060: bf72 133e 3f56 1bbf 6a22 08bd 44a1 3bbe
00000070: 97fe 163e 809b ea3d 1902 643d ce9f a8bd
00000080: 0644 883d 696c babd f050 cd3d a6ce 95bd
00000090: bdfc 6f3e 9ed5 07bf 2db7 8dbe cb13 f2be
000000a0: dabf 293e c34d 0d3e eaff e7ba 3184 a0bd
000000b0: e6b2 a8bc 4a4c a23d 73f7 543d e80c e4bd
000000c0: c750 d63d 4a1a 03bf 47f3 583d 0106 91be
000000d0: 0a56 7bbc 53c4 b3be 3178 45bf c252 febd
000000e0: 3fbf 6dbe 123d 3bbe 20d0 8e3e a2c5 85be
000000f0: fd81 67bd 1e6e 8abd 842d 9d3d 64c7 a6bd
00000100: c2cf 653c 498e 95be c336 27bc df91 a1bd
00000110: e334 66be 9f25 7abd 215c c93d 8620 5dbe
00000120: 6ef2 f8be 8502 273c e3ee ba3d 1db1 c93c
00000130: bd1b 813d e7a3 773d 388e 08bf 30ae 2f3e
00000140: 812f 18bd 79fc 9dbd 0358 093e d2db 5bbd
00000150: 51cc 703d d3c3 c63d ac1f a73d fbc4 58bd
00000160: 7c90 353e c821 3d3e bba1 1f3e 6a9a 07bf
00000170: 5b0b 45bf f510 b6be 95f9 debd 3588 9f3d
00000180: c5da bebe 2f54 aabe e9dd 2cbe 2983 503e
00000190: 555e ffbe 9ca1 af3d 1abb b93d c442 28bf
000001a0: 23e1 2bbf 8a7e 503e d6b8 36bf 8825 45bf
000001b0: f62a d5bd 43c0 e63d 576f b53c 78ea f9be
000001c0: 4141 94be 6f5e a63d 8c20 ecbc 6c3d 8a3e
000001d0: 0df9 6b3d 2c75 3fbc 5e90 21bd dcf7 15bc
000001e0: 9794 8bbd 3a0d 10bf e50d 11bf 6b0d 91be
000001f0: c19f 0e3e 06a4 243e c47a e8bb 5088 88be
00000200: 60b6 303e 7cd9 ff3d a329 583d 75fa 91bc
00000210: d67d ff3d 6e96 22be 3f8f 143e f836 17bf
00000220: 23a8 6f3e 569b 13bd 597a 20bd 492c 9a3e
00000230: 9a29 2f3e c2ce 243e 7f8a 4ebf 8ebf 84bc
00000240: 3754 343e 5476 d8be 1679 78bd 52fa efbe
00000250: 7190 663d 4734 943c 1747 82be 5016 00be
00000260: d9d7 89bd bd75 213e a42b 42bf b0bc dcbe
00000270: 7a1e 19bd ea65 1fbe 51a7 c73e 7d53 213e
00000280: 5ac7 2ebc 29a5 8a3c a505 8bba e3de b2bd
00000290: c125 423e 023a 26bd e454 e3bc 360b cc3d
000002a0: b617 10bd aac1 58bd cb83 d93d 3ce7 0cbf
000002b0: 1de4 87bf fde1 a8bc 4ac4 273e c8fc 08bc
000002c0: 5e2a 363d 2568 07bf be1d 05bf 9621 c8bd
000002d0: 1836 c53d 67aa 49bd fcb0 bcbe be3b 17bf
000002e0: 8ce6 a4be c7da bc3d 6739 903c 9c01 9abd
000002f0: 0909 353e b426 843e 476b 533e d94c 2f3c
00000300: efd4 f4bd fdb6 f63d e0d7 57bf 78bb 8abd
00000310: 7df8 e5be 1d5a b9be 9fff 18be edf4 39bf
00000320: c34f eabc d64e 1ebf c7b1 ac3d ad54 293e
00000330: caad 643d e7cd 34be eef3 043e 3596 873e
00000340: 9681 8d3e cb4b adbe db2a 8f3d 6cd4 e13d
00000350: 9aae 223c 4fdb 72bf 6ee5 03bd d178 a8be
00000360: 61c8 2bbc 5920 863d 221c 023d 52c9 083d
00000370: ce73 833e 29c0 063e 2479 e4bc 8368 183e
00000380: ae5a 2d3d 3de5 3d3e f95b 4e3d 7537 243e
00000390: 1951 ad3d 28f1 203d 4e76 efbc 433c 7fbd
000003a0: bdac 05bd d92a 1cbf 0bc4 303d a3fc 653e
000003b0: 27ce 2abf ac86 3a3e 8745 9d3e 62cf b83d
000003c0: c17c 9bbd 5a02 02bf c193 bd3d ad78 2fbc
000003d0: a836 d9bd a798 e13c 77d9 fabc 0e12 16bf
000003e0: 31b8 0abd 90bb a23e 5ae1 8bbe 3238 02bf
000003f0: d68b a8bd 8e3d 98bc 989e 6f3d 7bec 083e

fc2.bias f4 [10]
-0.009696641 0.17293267 -0.3581981 0.2712664 -0.17635226 -0.25326964 0.12266041 0.42889464
-0.2234551 -0.020455463
00000000: a9de 1ebc 4315 313e be65 b7be 6ee3 8a3e
00000010: b095 34be 8fac 81be 6235 fb3d 1498 db3e
00000020: 6ad1 64be 3792 a7bc
