integrated_mfdwc_cnn_dcase/results/a-c/best_FE_a-c.pth (torch, 415473 bytes, 12 tensors)

conv1.weight f4 [32, 1, 7, 7]
-0.38549823 -0.25811836 -0.42650276 -0.34070176 -0.51388407 -0.41168955 -0.26741508 0.020272195
-0.03513528 -0.11316025 -0.23978074 -0.1468437 -0.24296595 -0.08310956 0.08341925 -0.002784928
-0.018943336 -0.020501124 -0.046561062 -0.11061578 -0.07595824 -0.13203022 -0.14539379 -0.1462139
-0.20033835 -0.05243509 -0.16977376 -0.12126724 -0.02945499 0.0010374688 -0.047879186 0.019586
-0.07286636 -0.008860419 -0.071243726 0.020451453 0.020420719 0.0048517385 0.007715871 -0.059218418
-0.028572664 -0.06238493 -0.0062275184 -0.007790964 0.021374946 -0.044221878 0.026643675 -0.02353183
0.022698581 -0.11467246 -0.19108948 0.048812967 0.09499478 0.04571434 0.070933335 0.119401686
-0.14138943 -0.18795705 0.084771395 0.12382933 0.015889617 0.06946506 0.041760705 -0.20830654
-0.25646403 0.090623185 0.077533774 0.0888513 0.119600035 0.10975535 0.0568685 -0.09171708
0.10420835 0.16057989 0.2052731 0.29254138 0.15432243 -0.064092286 -0.21948226 0.005123436
0.033472292 0.06657632 -0.025920307 -0.088189006 -0.076756045 -0.2272087 0.038445145 0.028296825
-0.05500339 0.009115408 -0.0492627 -0.09126238 -0.1263509 0.036542345 0.021233376 -0.010559192
-0.079392694 -0.009382463 -0.027289776 0.07000241 0.091930315 -0.013122021 -0.039061688 -0.020405859
0.004653742 -0.013762512 -0.011427222 0.0144283995 0.030283334 -0.103971064 -0.00051084865 -0.06595837
-0.3422622 -0.46653754 -0.39294666 -0.46034372 -0.50122494 -0.4729146 -0.4466695 -0.06550311
-0.042207524 -0.008062411 -0.078247115 -0.019947913 0.01366967 0.01969053 -0.013628332 -0.020188555
-0.043682467 -0.0114469705 -0.04789981 0.012667846 -0.03175599 -0.0059010903 -0.026280846 -0.040801734
0.0030398462 -0.037437893 -0.026872959 -0.04025602 0.015108259 0.0098373145 -0.0051327655 0.022463068
-0.0067133163 0.009787008 0.001481134 -0.049466748 -0.018208634 -0.05084539 -0.06136241 0.09523228
0.07714615 0.11396655 -0.047330525 -0.011604911 -0.03014919 0.0035351878 0.0828665 -0.012602845
-0.010640223 -0.19886845 -0.0318543 0.0024600704 0.06795214 0.12619853 0.094321646 -0.01142432
0.13683575 0.17891608 0.113174245 0.2119752 0.31029522 0.24612811 0.20898412 -0.12431192
-0.1078618 -0.07777339 0.014166969 -0.043865897 0.011596701 -0.0069745686 -0.07057602 -0.11661504
-0.08092481 -0.030984227 -0.06061042 -0.026406525 0.016203465 -0.045817968 -0.05916995 -0.09284218
-0.056462046 -0.021036861 -0.1188262 -0.10692241 0.011873032 0.057156634 0.0063099926 -0.10215676
-0.03843444 0.09088402 0.039911672 0.041008595 0.037858356 -0.056695025 -0.14402077 -0.049516413
0.10606857 0.07257638 0.032069672 0.059623674 -0.13259526 -0.21665186 -0.07997613 0.22442113
0.13822962 0.20432134 0.17360425 0.07612017 0.03936191 0.15990207 0.36030686 0.3317214
-0.04806176 -0.1091306 -0.1173456 -0.14873454 -0.073390126 0.06654759 -0.0074633933 -0.13704993
-0.06659506 -0.059293903 -0.11398122 -0.10813039 -0.00440736 0.014448729 -0.12625974 -0.026216522
-0.027494507 -0.042218763 -0.04460713 0.0012680423 -0.030948678 -0.5735408 -0.37486994 -0.76247156
-0.93385816 -0.57179683 -0.89494467 -1.1493604 -0.003923813 -0.033748213 -0.11792953 0.026093906
00000000: 0660 c5be 1728 84be 925e dabe 7670 aebe
00000010: e88d 03bf f9c8 d2be a1ea 88be e011 a63c
00000020: 03ea 0fbd 90c0 e7bd 1589 75be 325e 16be
00000030: 11cc 78be 5835 aabd b6d7 aa3d 5783 36bb
00000040: 0e2f 9bbc f9f1 a7bc d0b6 3ebd 878a e2bd
00000050: fe8f 9bbd ee32 07be 1ce2 14be 19b9 15be
00000060: 7f25 4dbe 2dc6 56bd 2cd9 2dbe f55a f8bd
00000070: 974b f1bc adfb 873a f71c 44bd d272 a03c
00000080: f53a 95bd 4a2b 11bc 3be8 91bd ce89 a73c
00000090: 5a49 a73c 55fb 9e3b 6bd5 fc3b 038f 72bd
000000a0: 3811 eabc 5787 7fbd 3610 ccbb 584b ffbb
000000b0: 831a af3c 0022 35bd d643 da3c d3c5 c0bc
000000c0: 60f2 b93c 65d9 eabd f6ac 43be 1bf0 473d
000000d0: a08c c23d f63e 3b3d 7f45 913d df88 f43d
000000e0: 64c8 10be d077 40be a09c ad3d 3b9a fd3d
000000f0: f12a 823c b343 8e3d 460d 2b3d 4f4e 55be
00000100: 414f 83be a698 b93d 07ca 9e3d acf7 b53d
00000110: ddf0 f43d 6ac7 e03d f2ee 683d 2ad6 bbbd
00000120: 306b d53d 0e6f 243e 1d33 523e fcc7 953e
00000130: b306 1e3e d142 83bd f5bf 60be 7fe2 a73b
00000140: 3e1a 093d 2a59 883d d356 d4bc 709c b4bd
00000150: 4632 9dbd 66a9 68be a878 1d3d bece e73c
00000160: 3c4b 61bd cb58 153c afc7 49bd c5e7 babd
00000170: 2162 01be 6dad 153d 9ef1 ad3c 7600 2dbc
00000180: a398 a2bd e7b8 19bc cf8e dfbc 6c5d 8f3d
00000190: f645 bc3d bffd 56bc 26ff 1fbd 302a a7bc
000001a0: 6b7e 983b 297c 61bc 3e39 3bbc 1865 6c3c
000001b0: c114 f83c c8ee d4bd 79ea 05ba 2f15 87bd
000001c0: fe3c afbe 02de eebe 4e30 c9be 2cb2 ebbe
000001d0: 4750 00bf dd21 f2be ddb1 e4be 7f26 86bd
000001e0: cce1 2cbd 3418 04bc 0640 a0bd ce69 a3bc
000001f0: c0f6 5f3c 094e a13c 5e49 5fbc 7862 a5bc
00000200: 63ec 32bd 138c 3bbc 9732 44bd cc8c 4f3c
00000210: 9212 02bd ef5d c1bb ee4a d7bc b81f 27bd
00000220: 2838 473b 7a58 19bd ae24 dcbc 7fe3 24bd
00000230: a288 773c b02c 213c c230 a8bb 7804 b83c
00000240: 61fb dbbb b059 203c 9c22 c23a a59d 4abd
00000250: 462a 95bc 4143 50bd 2757 7bbd 2409 c33d
00000260: cdfe 9d3d 4b67 e93d a7dd 41bd 8622 3ebc
00000270: 6ffb f6bc 9cae 673b e9b5 a93d 2a7c 4ebc
00000280: 5454 2ebc 2ca4 4bbe a879 02bd 2239 213b
00000290: 7e2a 8b3d 303a 013e b52b c13d 122d 3bbc
000002a0: ac1e 0c3e c735 373e e6c7 e73d 0710 593e
000002b0: 04df 9e3e 0209 7c3e efff 553e 3f97 febd
000002c0: a6e6 dcbd a847 9fbd 931c 683c baac 33bd
000002d0: 1700 3e3c ec8a e4bb 298a 90bd ded3 eebd
000002e0: e8bb a5bd a2d2 fdbc a242 78bd 7f52 d8bc
000002f0: 21bd 843c 9fab 3bbd 315c 72bd 0a24 bebd
00000300: bf44 67bd 7f55 acbc 275b f3bd 23fa dabd
00000310: 1b87 423c 131d 6a3d 0ec4 ce3b 9037 d1bd
00000320: 6e6d 1dbd 6721 ba3d 6c7a 233d a1f8 273d
00000330: 5d11 1b3d 0b39 68bd 2e7a 13be b9d1 4abd
00000340: 7a3a d93d eda2 943d 7d5b 033d f437 743d
00000350: 0dc7 07be fcd9 5dbe 86ca a3bd a7ce 653e
00000360: 118c 0d3e 9d39 513e 50c5 313e e4e4 9b3d
00000370: f439 213d 5ebd 233e 247a b83e 63d7 a93e
00000380: 68dc 44bd dd7f dfbd e452 f0bd de4d 18be
00000390: 904d 96bd 1a4a 883d 7b8f f4bb d156 0cbe
000003a0: fe62 88bd 2ade 72bd fc6e e9bd 7773 ddbd
000003b0: 9e6b 90bb 5dba 6c3c 3c4a 01be 08c4 d6bc
000003c0: 293c e1bc 95ed 2cbd f7b5 36bd 7034 a63a
000003d0: 1588 fdbc 92d3 12bf f4ee bfbe 5631 43bf
000003e0: 5411 6fbf 4761 12bf 181b 65bf 3e1e 93bf
000003f0: 5493 80bb 913b 0abd 0a85 f1bd e3c2 d53c

conv1.bias f4 [32]
-0.0020631996 0.011312951 0.0022259671 -0.0529061 0.008306378 -0.006016389 0.0014773353 -0.0024426945
-0.0015214995 0.007689284 0.00034843292 0.001898779 0.027867815 -0.005216903 -0.005561774 0.0025282707
-0.059247527 -0.00057433743 -0.0048755067 0.00055178674 0.008770191 -0.010028217 0.025894206 0.03554541
-0.00059463276 8.014158e-05 0.0052394127 0.016076231 0.007840871 0.016657554 0.016397068 -0.0025141428
00000000: bf36 07bb f559 393c 88e1 113b 11b4 58bd
00000010: 7917 083c 2125 c5bb 26a3 c13a 9d15 20bb
00000020: 0d6d c7ba 64f6 fb3b e0ad b639 73e0 f83a
00000030: 0b4b e43c 8ef2 aabb 8b3f b6bb 58b1 253b
00000040: 89ad 72bd 228f 16ba b7c2 9fbb c8a5 103a
00000050: d9b0 0f3c 644d 24bc 1620 d43c 1098 113d
00000060: 21e1 1bba af11 a838 61af ab3b 4db2 833c
00000070: ff76 003c 6c75 883c 2553 863c 51c4 24bb

bn1.weight f4 [32]
0.61910456 0.971279 0.6146666 1.2228647 1.0867308 0.6802121 0.6156241 0.5903833
0.4762179 0.6386737 0.7138641 0.6298018 0.91853315 0.60809726 0.6394368 0.5984483
1.0957891 0.57605624 0.6556118 0.6021706 0.4998817 1.1631519 1.0411519 1.2672408
0.630744 0.6778216 1.1641505 1.1970248 0.61936826 0.8719169 0.83194095 0.6083881
00000000: a37d 1e3f bea5 783f ca5a 1d3f d586 9c3f
00000010: ff19 8b3f 6122 2e3f 8b99 1d3f 5c23 173f
00000020: d5d2 f33e 1f80 233f ccbf 363f b13a 213f
00000030: fd24 6b3f 43ac 1b3f 21b2 233f e833 193f
00000040: d142 8c3f 6c78 133f 2dd6 273f da27 1a3f
00000050: 7ff0 ff3e 29e2 943f 7744 853f f234 a23f
00000060: 7078 213f b785 2d3f e202 953f 1c38 993f
00000070: eb8e 1e3f f235 5f3f 15fa 543f 53bf 1b3f

bn1.bias f4 [32]
-0.74361235 -0.5940181 -0.7912934 -0.68322927 -0.63425213 -0.39482987 -0.36408043 -0.6507818
-0.72515696 -0.71436924 -0.623607 -0.34015965 -0.4928113 -0.43258885 -0.5138655 -0.61778307
-0.631069 -0.8835561 -0.8548897 -0.5947319 -0.7553395 -0.24126126 -0.16425437 -0.31611854
-0.42555723 -0.9124099 -0.72018105 -0.30653533 -0.61070865 -0.5747101 -0.51049906 -0.30370542
00000000: 615d 3ebf 9211 18bf 3492 4abf 1de8 2ebf
00000010: 595e 22bf 2427 cabe c068 babe a399 26bf
00000020: e3a3 39bf e7e0 36bf b5a4 1fbf 6829 aebe
00000030: c351 fcbe 497c ddbe b08c 03bf 0827 1ebf
00000040: bd8d 21bf bc30 62bf 0dda 5abf 5a40 18bf
00000050: ee5d 41bf 310d 77be 4c32 28be 4ada a1be
00000060: a3e2 d9be b293 69bf c95d 38bf 33f2 9cbe
00000070: 6757 1cbf 3320 13bf 11b0 02bf 477f 9bbe

bn1.running_mean f4 [32]
20.377024 -0.5506145 15.03237 -1.7520776 -1.3110547 22.557878 8.022264 13.907518
19.136786 4.482056 6.833979 11.195893 0.1552749 5.0847335 4.7160196 6.5307283
-1.6867819 19.84442 2.815483 15.576731 2.9984891 -1.8360277 -0.100428 -0.507666
17.589415 3.813373 -2.5733547 -0.5195684 15.525411 -4.217482 -6.9476438 11.048373
00000000: 2504 a341 12f5 0cbf 9684 7041 1444 e0bf
00000010: a4d0 a7bf 8976 b441 315b 0041 3285 5e41
00000020: 2318 9941 016d 8f40 f5af da40 6122 3341
00000030: 6200 1f3e 23b6 a240 a2e9 9640 bafb d040
00000040: 78e8 d7bf 5fc1 9e41 e030 3440 4a3a 7941
00000050: 3fe7 3f40 f502 ebbf 32ad cdbd 66f6 01bf
00000060: 1fb7 8c41 4e0e 7440 d8b1 24c0 6f02 05bf
00000070: 1568 7841 9df5 86c0 1953 dec0 23c6 3041

bn1.running_var f4 [32]
863.1641 6.6809545 501.2636 16.448666 13.087123 1144.9565 154.55884 426.10196
789.3939 71.05649 117.969955 330.30792 4.5440083 98.727715 64.89146 149.073
15.247847 860.41974 29.362915 528.89276 41.233765 24.307907 7.584256 14.73131
711.8462 44.464817 24.06003 11.006213 525.7275 44.899536 129.93036 317.62698
00000000: 81ca 5744 61ca d540 bea1 fa43 de96 8341
00000010: db64 5141 9c1e 8f44 108f 1a43 0d0d d543
00000020: 3659 4544 ec1c 8e42 9ef0 eb42 6a27 a543
00000030: 8468 9140 9774 c542 6dc8 8142 b012 1543
00000040: 2ef7 7341 dd1a 5744 40e7 ea41 2339 0444
00000050: 60ef 2442 9876 c241 3ab2 f240 72b3 6b41
00000060: 28f6 3144 f9db 3142 f17a c041 7319 3041
00000070: 8f6e 0344 2099 3342 2cee 0143 41d0 9e43

conv2.weight f4 [64, 32, 7, 7]
-0.119157754 -0.06056973 -0.06835545 -0.06222427 -0.08190918 -0.08879125 -0.1327778 0.019052796
0.024917273 0.04541678 -0.060556956 -0.015118581 0.060746614 0.04964587 -0.1046034 -0.04623764
-0.08015184 -0.18516994 -0.1894546 -0.21955673 -0.27202576 -0.18526796 -0.10440768 -0.08153771
-0.1261208 -0.15770158 -0.19317341 -0.14972647 0.070042096 0.044645283 0.07351149 -0.042454895
-0.0068611815 0.04722935 0.029587748 0.06553139 0.095935084 -0.009348731 -0.00924381 -0.07896466
-0.04429547 -0.08295887 0.11821946 0.12707075 0.06954608 0.033065297 -0.056708544 0.025317362
0.061617807 -0.14460874 -0.485491 -0.43195337 -0.14573847 -0.040962394 0.031554554 -0.2467033
-0.25793067 0.13694549 -0.11370677 -0.1291307 -0.17735857 -0.26733905 -0.112658255 0.21577327
0.21223317 0.09266172 -0.1289509 0.1419366 0.16351497 0.3971231 0.1182456 0.25312525
-0.012997443 0.0925531 0.0923221 0.16758049 0.13983576 -0.1841943 -0.05187067 -0.11415828
-0.026835544 -0.13519892 0.026870126 0.04137185 -0.0051516527 0.16554512 0.07931837 -0.12779194
0.070758685 0.020147871 0.10662231 -0.15742858 0.068982564 0.05838657 0.044528306 0.094551
-0.15712918 -0.03828742 -0.095144026 -0.065531194 -0.11242515 -0.09880723 -0.057233647 -0.10313577
-0.12909085 0.00052364776 -0.0034239937 0.04818348 0.022508554 0.039829288 0.0851262 0.09522908
-0.09356549 -0.07900865 -0.19419014 -0.2434154 -0.14241832 -0.14455716 -0.21865956 -0.09462048
-0.0658575 0.005458049 -0.054809745 -0.0845038 -0.12529948 -0.09176632 0.11056753 0.11107045
0.1132908 0.12169755 0.012103208 0.017886704 0.015183286 -0.07070859 -0.04317916 -0.058537163
-0.084679134 -0.17199956 -0.12968619 -0.17806426 0.045329638 0.0748547 0.046292376 0.03609977
-0.0435241 0.02338505 -0.022785217 -0.11481548 0.052146856 -0.020472044 0.08542133 0.014112385
0.044171404 -0.031473078 -0.27972406 0.20296916 0.18510735 0.09739656 0.033820786 -0.04893697
0.08620863 0.53838485 -0.068953454 0.26837304 -0.13125123 0.16212723 0.3196923 0.24842063
0.026491176 -0.09862908 0.044844013 0.23449406 0.1384479 -0.014444187 -0.01679297 -0.028750302
0.092077546 0.02090401 -0.11653284 -0.018634865 -0.04562412 -0.028213833 0.22122914 0.050278403
-0.020970495 -0.06779276 0.033065546 -0.0119116185 -0.07955574 0.022812463 0.06444943 0.022203844
0.001249831 -0.0008841228 0.025296343 0.019398982 -0.181629 -0.03657327 -0.001852196 0.008802973
0.07151302 -0.024301616 0.018726109 -0.27756694 -0.11826373 -0.040711936 0.053417396 -0.09265327
-0.04001486 -0.23052755 0.2717372 0.23733637 -0.051289614 -0.16514765 -0.043973982 0.057439152
0.09494422 -0.05619251 0.31885135 -0.15802929 0.0029350559 -0.015692929 -0.04417923 0.076356746
-0.0892939 0.079996675 0.08850185 -0.085900396 0.11172585 0.113200456 -0.033940796 0.17652033
-0.01961364 0.004963898 0.08151093 0.033577032 0.1287514 -0.0703956 -0.09366793 0.14801143
-0.0387131 -0.023516294 -0.1716037 -0.04444893 -0.1399956 0.03871041 0.09524683 0.07939999
0.08062921 0.053027388 0.0305849 0.04031363 -0.07454061 -0.03768794 -0.054666724 -0.09174642
00000000: fb08 f4bd f717 78bd f1fd 8bbd e0de 7ebd
00000010: 00c0 a7bd 30d8 b5bd e7f6 07be 9c14 9c3c
00000020: 4f1f cc3c f206 3a3d 920a 78bd edb3 77bc
00000030: 71d1 783d 7859 4b3d 4f3a d6bd ae63 3dbd
00000040: a626 a4bd 309d 3dbe 6300 42be 7bd3 60be
00000050: f646 8bbe e2b6 3dbe b2d3 d5bd 3efd a6bd
00000060: d025 01be 867c 21be 40cf 45be e551 19be
00000070: 3b72 8f3d f9dd 363d 318d 963d 2fe5 2dbd
00000080: c3d3 e0bb 9073 413d 0162 f23c 5235 863d
00000090: 9d79 c43d 6b2b 19bc 5973 17bc 39b8 a1bd
000000a0: 2b6f 35bd 57e6 a9bd 0b1d f23d d61e 023e
000000b0: 2d6e 8e3d 7a6f 073d 3847 68bd 5b66 cf3c
000000c0: f462 7c3d 5014 14be 4792 f8be fe28 ddbe
000000d0: 773c 15be 2fc8 27bd 593f 013d ca9f 7cbe
000000e0: 7d0f 84be 703b 0c3e 18df e8bd d73a 04be
000000f0: 7c9d 35be aae0 88be 5fb9 e6bd abf3 5c3e
00000100: a753 593e 6ec5 bd3d b40b 04be d457 113e
00000110: 7870 273e b853 cb3e c02a f23d a299 813e
00000120: 3af3 54bc 7b8c bd3d 5f13 bd3d 389a 2b3e
00000130: 1b31 0f3e 6e9d 3cbe 5776 54bd d1cb e9bd
00000140: 37d6 dbbc 9671 0abe bd1e dc3c 8775 293d
00000150: 32cf a8bb a984 293e ab71 a23d e4db 02be
00000160: eee9 903d 260d a53c cc5c da3d f534 21be
00000170: bb46 8d3d c226 6f3d 5063 363d f4a3 c13d
00000180: 79e6 20be 45d3 1cbd dfda c2bd 3835 86bd
00000190: 283f e6bd 725b cabd d46d 6abd d938 d3bd
000001a0: 6430 04be 6845 093a 1565 60bb 0a5c 453d
000001b0: dc63 b83c 0924 233d a556 ae3d 7707 c33d
000001c0: 439f bfbd 49cf a1bd c8d9 46be e341 79be
000001d0: 1cd6 11be cb06 14be 4be8 5fbe 62c8 c1bd
000001e0: 4ce0 86bd 6fd9 b23b 2f80 60bd 5410 adbd
000001f0: 824e 00be fbef bbbd 3b71 e23d e778 e33d
00000200: 0205 e83d 913c f93d 894c 463c 2387 923c
00000210: 51c3 783c aacf 90bd a2dc 30bd aac4 6fbd
00000220: 416c adbd a720 30be 75cc 04be 7a56 36be
00000230: 92ab 393d 6c4d 993d 139d 3d3d 5add 133d
00000240: 5446 32bd 0192 bf3c 10a8 babc 6124 ebbd
00000250: f197 553d fdb4 a7bc 61f1 ae3d a237 673c
00000260: 13ed 343d eae9 00bd fe37 8fbe 26d7 4f3e
00000270: c88c 3d3e d977 c73d aa87 0a3d 2272 48bd
00000280: 268e b03d 97d3 093f 7837 8dbd 3168 893e
00000290: b966 06be ae04 263e b6ae a33e fa61 7e3e
000002a0: 0604 d93c 0bfe c9bd 5bae 373d 361f 703e
000002b0: 49c5 0d3e 50a7 6cbc 6991 89bc c185 ebbc
000002c0: 2793 bc3d e33e ab3c c5a8 eebd 25a8 98bc
000002d0: 5be0 3abd b220 e7bc e489 623e baf0 4d3d
000002e0: 51ca abbc eed6 8abd bd6f 073d f328 43bc
000002f0: 1fee a2bd 34e1 ba3c 10fe 833d d6e4 b53c
00000300: 5fd1 a33a 7ac4 67ba 473a cf3c 9dea 9e3c
00000310: f4fc 39be dacd 15bd 62c5 f2ba 583a 103c
00000320: 6b75 923d 2f14 c7bc 7f67 993c 411d 8ebe
00000330: 4134 f2bd 8fc1 26bd 33cc 5a3d ffc0 bdbd
00000340: 9fe6 23bd 6a0f 6cbe 2321 8b3e 4e08 733e
00000350: 0f15 52bd 771c 29be 101e 34bd 5145 6b3d
00000360: 1d72 c23d 1e2a 66bd 7c40 a33e 6ed2 21be
00000370: 115a 403b 758e 80bc 48f5 34bd ed60 9c3d
00000380: b8df b6bd 4cd5 a33d 7540 b53d 8cec afbd
00000390: 86d0 e43d a4d5 e73d 8105 0bbd bfc1 343e
000003a0: c9ac a0bc 32a8 a23b 34ef a63d 1288 093d
000003b0: 68d7 033e 912b 90bd f9d4 bfbd 4f90 173e
000003c0: a191 1ebd 3ea5 c0bc e1b8 2fbe 1510 36bd
000003d0: 025b 0fbe cf8e 1e3d c510 c33d 769c a23d
000003e0: ed20 a53d 3f33 593d 2f8d fa3c e81f 253d
000003f0: bfa8 98bd ab5e 1abd 37ea 5fbd 8ce5 bbbd

conv2.bias f4 [64]
-0.0034039614 0.0012395104 -0.0062999222 0.0016556578 -0.009410752 -0.002741345 6.79448e-05 -0.0046619605
0.0032176338 0.007935575 -0.005065568 -0.0024613186 -0.008777312 -0.0045364187 -0.012986671 -0.012657876
8.771137e-06 -0.005141231 -0.00789415 -0.007343526 -0.000540826 -0.0018152224 -0.0063564964 0.004603369
0.002015582 -0.00038476585 0.0010411707 0.0007999163 -0.003288779 -0.0009385711 -0.009873244 -0.0006601887
8.3786115e-05 -0.005251453 -0.010677089 0.0010545437 -0.005417759 0.00316711 -0.0033488788 -0.0023346609
-0.005093397 -0.0011454936 -0.00041877438 -0.0040461184 0.0009855396 -0.0005035724 0.0032825463 0.0032749719
-0.005106246 -0.005378182 0.0030321174 0.001724526 -0.005107238 -0.0032000837 -0.003233225 -0.002946803
0.006565171 -0.004625012 -0.0020472484 -0.0035758808 -0.001300634 0.002505853 -0.0029534174 0.0010392983
00000000: ff14 5fbb 1177 a23a 946f cebb a802 d93a
00000010: 8e2f 1abc 23a8 33bb 967d 8e38 5cc3 98bb
00000020: f0de 523b 3704 023c 10fd a5bb 134e 21bb
00000030: b7ce 0fbc 3da6 94bb 0cc6 54bc fb62 4fbc
00000040: bf27 1337 c677 a8bb 7756 01bc f6a1 f0bb
00000050: 38c6 0dba c2ec edba 284a d0bb dcd7 963b
00000060: db17 043b 66ba c9b9 e477 883a 79b1 513a
00000070: 8e88 57bb 710a 76ba 63c3 21bc 8410 2dba
00000080: 54b6 af38 6114 acbb f5ee 2ebc 9d38 8a3a
00000090: 7587 b1bb 4a8f 4f3b dd78 5bbb 1c01 19bb
000000a0: 83e6 a6bb 6324 96ba f28e dbb9 4d95 84bb
000000b0: 392d 813a 2c02 04ba fd1f 573b e9a0 563b
000000c0: 4c52 a7bb 763b b0bb 7db6 463b 7e09 e23a
000000d0: 9e5a a7bb 7fb8 51bb 84e4 53bb 271f 41bb
000000e0: a520 d73b 6a8d 97bb 212b 06bb 5359 6abb
000000f0: 097a aaba 3d39 243b 1f8e 41bb 1039 883a

bn2.weight f4 [64]
1.3527287 1.4525021 1.3313771 1.3378221 1.6253352 1.2006633 1.1657264 1.2312512
1.1388838 1.447926 1.3713666 1.4136932 1.4075196 1.4121495 1.2678571 1.5632864
1.0790588 1.2667394 1.2457246 1.2869871 1.4176931 1.7023544 1.2954531 1.4442377
1.273687 1.4106057 1.1224259 1.4483213 1.5963677 1.2222471 1.4889029 1.3070301
0.97870487 1.5111585 1.6374378 1.5977271 1.3175108 1.0667263 1.2315961 1.0911579
1.3059199 1.0181891 1.1815618 1.2798128 1.5810779 1.0687757 1.406481 1.6478636
1.2301284 1.3741771 1.7232249 1.9487765 1.4487578 1.2938412 1.2049799 1.2049887
1.588936 1.5046815 1.3543513 0.9578315 1.4420426 1.2182922 1.2553294 1.3673819
00000000: 3726 ad3f 97eb b93f 916a aa3f c13d ab3f
00000010: fc0a d03f 56af 993f 8636 953f a499 9d3f
00000020: f2c6 913f a455 b93f f188 af3f e6f3 b43f
00000030: 9a29 b43f 51c1 b43f 2449 a23f c519 c83f
00000040: 991e 8a3f 8424 a23f e773 9f3f febb a43f
00000050: f876 b53f c0e6 d93f 68d1 a53f c8dc b83f
00000060: 2d08 a33f ba8e b43f a7ab 8f3f 9862 b93f
00000070: c755 cc3f 9872 9c3f 5f94 be3f c34c a73f
00000080: 678c 7a3f a46d c13f 9097 d13f 5282 cc3f
00000090: 32a4 a83f 7d8a 883f f1a4 9d3f 10ab 8b3f
000000a0: 6228 a73f 0554 823f 6b3d 973f e8d0 a33f
000000b0: c360 ca3f a4cd 883f 9207 b43f 32ed d23f
000000c0: d974 9d3f 09e5 af3f a292 dc3f 8271 f93f
000000d0: e570 b93f 979c a53f c83c 9a3f 123d 9a3f
000000e0: 4162 cb3f 6799 c03f 625b ad3f 7234 753f
000000f0: da94 b83f 00f1 9b3f a2ae a03f 5f06 af3f

bn2.bias f4 [64]
-0.76478845 -0.70141983 -0.7392867 -0.6293913 -0.9524211 -0.6696933 -0.5210065 -0.88493526
-0.96847373 -0.9112014 -0.49082103 -0.56361157 -0.601506 -0.35944661 -0.95069194 -0.90875006
-0.6474928 -0.6284666 -0.44523868 -0.9313179 -0.6737707 -0.4775565 -1.0431896 -0.8227714
-0.6818286 -0.47162208 -1.0519474 -0.72445184 -0.8011186 -0.45192686 -0.9020508 -0.8763661
-0.65175647 -0.6690518 -0.76891077 -0.74612015 -0.57383823 -0.6639162 -0.8019811 -0.7609394
-0.7687179 -0.42915893 -0.7966569 -0.7034388 -0.43106794 -0.56106496 -0.68422717 -0.8545787
-0.48129764 -0.6137829 -0.7042491 -0.99030924 -0.77762103 -0.7696814 -0.5509841 -0.61854815
-1.0811243 -0.39764655 -0.31095985 -0.67459166 -0.62514806 -0.63764673 -0.8155877 -0.49640638
00000000: 2dc9 43bf 4090 33bf e541 3dbf ca1f 21bf
00000010: dfd1 73bf 0571 2bbf af60 05bf 1e8b 62bf
00000020: e5ed 77bf 7f44 69bf e54c fbbe d948 10bf
00000030: 4cfc 19bf 6309 b8be 8c60 73bf d8a3 68bf
00000040: 17c2 25bf 30e3 20bf 53f6 e3be da6a 6ebf
00000050: 3d7c 2cbf 4982 f4be 3d87 85bf 25a1 52bf
00000060: 528c 2ebf 7378 f1be 36a6 86bf ad75 39bf
00000070: 1c16 4dbf f562 e7be cdec 66bf 8759 60bf
00000080: 83d9 26bf fb46 2bbf 56d7 44bf bb01 3fbf
00000090: 10e7 12bf 69f6 29bf a24e 4dbf edcc 42bf
000000a0: b2ca 44bf b8ba dbbe b5f1 4bbf 9114 34bf
000000b0: f0b4 dcbe f4a1 0fbf 8329 2fbf abc5 5abf
000000c0: a56c f6be e020 1dbf ab49 34bf e884 7dbf
000000d0: 2c12 47bf d709 45bf 4b0d 0dbf 2c59 1ebf
000000e0: 4862 8abf 5498 cbbe 2136 9fbe 0ab2 2cbf
000000f0: b409 20bf d13c 23bf 5bca 50bf fa28 febe

bn2.running_mean f4 [64]
-2.7966948 -10.773749 -2.771021 -4.7641196 -1.9236476 -1.4345391 -2.192369 -7.000285
-6.174194 -6.398851 -2.5909853 -1.8244855 -6.6966357 -0.8423616 -3.559196 -3.9930801
-2.2400553 -1.5088905 -2.0758934 -4.2650146 -3.5669308 -6.385415 -2.9180157 -4.16424
-4.8650193 -5.0656824 -0.4324806 -1.873866 -5.079181 -8.840757 -4.479124 -3.183276
-4.965682 -5.1927733 -4.0969357 -10.823278 -6.5092936 -3.3162642 -0.76426977 -1.082149
-0.40843263 0.55731475 -6.419067 -4.763173 -10.009781 -1.7872257 -4.5705914 -9.236396
-8.495594 -4.4459214 -7.6521497 -3.7716165 -2.884947 -4.837501 -7.5952487 -3.00753
-5.5467787 -1.3339005 -10.235757 -4.0599003 -5.0584006 -2.9342725 -4.087629 -9.294741
00000000: 0cfd 32c0 4761 2cc1 6858 31c0 ab73 98c0
00000010: 163a f6bf fa9e b7bf c64f 0cc0 5602 e0c0
00000020: ff92 c5c0 63c3 ccc0 b4d2 25c0 be88 e9bf
00000030: d74a d6c0 03a5 57bf dec9 63c0 a08e 7fc0
00000040: 115d 0fc0 5323 c1bf 70db 04c0 007b 88c0
00000050: 9848 64c0 5255 ccc0 c5c0 3ac0 7441 85c0
00000060: 3dae 9bc0 121a a2c0 196e ddbe d7da efbf
00000070: a788 a2c0 be73 0dc1 fc54 8fc0 cbba 4bc0
00000080: dee6 9ec0 332b a6c0 191a 83c0 262c 2dc1
00000090: 224c d0c0 ac3d 54c0 2fa7 43bf dc83 8abf
000000a0: 151e d1be 2eac 0e3f ff68 cdc0 ea6b 98c0
000000b0: 1028 20c1 d0c3 e4bf 4942 92c0 47c8 13c1
000000c0: f4ed 07c1 fd44 8ec0 69de f4c0 2a62 71c0
000000d0: f9a2 38c0 cfcc 9ac0 470c f3c0 5f7b 40c0
000000e0: 367f b1c0 40bd aabf a9c5 23c1 b4ea 81c0
000000f0: 6bde a1c0 1fcb 3bc0 dbcd 82c0 42b7 14c1

bn2.running_var f4 [64]
35.313595 40.34632 28.15086 46.061974 20.800423 22.937117 39.550476 43.201874
39.93309 45.11816 38.03623 39.335052 28.21296 36.08422 15.312736 23.940504
41.56149 21.796497 28.12042 15.526089 33.35122 36.887726 16.247988 17.99567
33.255695 49.012943 17.021818 38.545547 32.05224 66.24506 28.209852 22.72553
47.65654 39.608444 32.194637 71.326965 75.06698 23.030668 22.200792 22.213688
31.503572 43.18668 52.546955 29.488802 88.74696 56.26154 31.568266 52.79824
61.095013 54.22529 42.071636 19.122082 34.701035 47.07857 44.10921 14.578772
40.99886 66.89374 77.62987 45.406273 43.591064 29.71656 39.01762 74.938614
00000000: 1f41 0d42 a262 2142 f634 e141 763f 3842
00000010: 4467 a641 377f b741 b033 1e42 b8ce 2c42
00000020: 7cbb 1f42 ff78 3442 1925 1842 1857 1d42
00000030: 24b4 e141 3e56 1042 f700 7541 2786 bf41
00000040: f73e 2642 3a5f ae41 9ff6 e041 dc6a 7841
00000050: a667 0542 088d 1342 e1fb 8141 22f7 8f41
00000060: d505 0542 410d 4442 af2c 8841 a42e 1a42
00000070: 7e35 0042 797d 8442 c7ad e141 e3cd b541
00000080: 4ca0 3e42 0c6f 1e42 4fc7 0042 68a7 8e42
00000090: 4b22 9642 cf3e b841 399b b141 a2b5 b141
000000a0: 5107 fc41 29bf 2c42 1530 5242 11e9 eb41
000000b0: 727e b142 d10b 6142 cf8b fc41 6631 5342
000000c0: 4b61 7442 b2e6 5842 5b49 2842 06fa 9841
000000d0: dccd 0a42 7550 3c42 d56f 3042 a642 6941
000000e0: d5fe 2342 98c9 8542 7e42 9b42 06a0 3542
000000f0: 405d 2e42 84bb ed41 0b12 1c42 92e0 9542
