integrated_mfdwc_cnn_dcase/results/a-c/CL_2025-12-20 06_48_34.236207.pth (torch, 109561 bytes, 4 tensors)

fc1.weight f4 [100, 256]
-0.036804646 0.027988715 -0.07763131 0.06722392 0.2952889 -0.17489077 -0.16186859 -0.05553638
-0.038196146 0.03601456 -0.0936109 0.17049648 -0.022403333 -0.32701892 0.21546957 0.04703809
-0.10003424 0.22937143 -0.059576437 0.026183216 -0.2126664 0.3315738 -0.03269721 -0.2674361
0.027274832 -0.030555591 -0.0048778355 -0.070696466 -0.1438082 0.068423495 -0.0050336523 0.056291763
-0.1831528 0.12804566 -0.023619259 -0.025342466 0.09816982 -0.0832163 -0.099026784 0.054168064
-0.112132646 -0.081163585 0.0455167 -0.18410206 -0.0147635 0.09960723 -0.073974684 -0.2089563
0.27925858 -0.08328793 -0.27459595 -0.18250163 0.08611401 -0.2805582 0.08421976 -0.16363505
0.25897652 -0.14675632 -0.021640144 0.041108586 -0.01173348 5.2992786e-05 0.042402115 -0.119607195
-0.08404147 0.056628454 -0.15679851 -0.02415296 0.025417807 -0.0148840435 -0.08657235 0.14682193
0.0022766932 0.0123467315 -0.22904581 0.07416665 0.010645095 0.025163908 -0.24868892 0.12454219
-0.06258185 0.1363168 -0.19954094 0.0033720776 0.7237403 0.051989384 -0.2010585 -0.1585237
-0.026087033 0.21630898 -0.27020234 0.2489169 0.063722305 -0.105477735 -0.16950083 0.13638602
0.23977095 -0.05444071 -0.037137758 -0.17266111 0.11442457 0.17089806 -0.050398946 -0.04344462
0.06753052 0.020341538 -0.13000092 0.16183683 0.18729307 -0.211646 0.12879123 -0.16712989
-0.08550706 0.054416265 -0.040694494 0.115866005 0.538146 0.024392122 -0.07244882 -0.16507791
-0.02701787 -0.2022224 0.2906038 0.06675925 -0.026033305 -0.0054924022 0.05607047 -0.028496906
-0.019532776 0.039260536 0.071919374 0.013893085 0.28733215 -0.08308789 -0.05533674 0.042704854
-0.09236719 0.14966838 0.34769925 -0.19759499 0.06193509 0.044826843 -0.10838967 -0.030283075
0.11170027 0.6755996 -0.2227821 -0.14415002 -0.02876982 0.1093814 -0.16822302 -0.012363962
-0.025622264 0.1876833 -0.1558984 0.17311509 -0.14901674 0.1545692 0.05511411 -0.10802042
-0.14578366 0.14929517 0.0035471865 0.052765507 -0.0015259589 -0.17726162 0.028191693 -0.08056328
0.049555864 0.03636644 -0.06618289 -0.050229937 -0.10084363 0.19460368 -0.18591212 0.030197835
0.44534072 0.31037593 -0.017611885 -0.1508686 -0.13224712 0.13357368 -0.06838825 -0.33691508
0.11048697 -0.120056644 0.049546685 -0.018989874 0.13788596 0.06957647 -0.24245 -0.07432977
0.30882344 0.11217482 -0.17560415 -0.16365325 0.078859136 -0.0061929263 0.055371333 -0.048927728
-0.026882824 -0.02126135 0.05193094 0.02296148 -0.028976547 0.10327046 -0.14433117 0.24899212
-0.035555705 0.0045922427 -0.15708162 0.17899549 0.24093914 -0.10240012 0.084483616 0.08220498
0.1542575 -0.04619163 0.034609307 -0.022916513 0.16328846 0.0025927098 -0.17208472 -0.29508245
0.024223434 0.09886337 -0.040023196 -0.08159431 0.14364961 0.075578324 -0.018044524 -0.03744057
0.06463089 0.12517641 -0.06787727 -0.27336496 0.12237855 -0.0064573404 0.14048865 -0.122020714
0.43312046 0.06869463 -0.08283019 -0.15479253 -0.03584921 0.1304669 -0.1632651 -0.12607425
0.004612768 0.027169697 -0.06381307 0.16610079 0.6693445 -0.04328701 -0.120866366 -0.21412504
00000000: 78c0 16bd 9748 e53c 2afd 9ebd b2ac 893d
00000010: 1b30 973e 9116 33be e1c0 25be 1d7a 63bd
00000020: 9073 1cbd 0184 133d 12b7 bfbd a196 2e3e
00000030: 3287 b7bc 066f a7be 0ea4 5c3e 03ab 403d
00000040: c0de ccbd 58e0 6a3e 6c06 74bd 2f7e d63c
00000050: 39c5 59be 0bc4 a93e 82ed 05bd 62ed 88be
00000060: 786f df3c b84f fabc 40d6 9fbb 4fc9 90bd
00000070: 7542 13be 9e21 8c3d 56f1 a4bb 3192 663d
00000080: 688c 3bbe 671e 033e 2d7d c1bc 019b cfbc
00000090: 420d c93d 4f6d aabd 8ece cabd 55df 5d3d
000000a0: cda5 e5bd 1839 a6bd b86f 3a3d 4085 3cbe
000000b0: 9be2 71bc e0fe cb3d 0a80 97bd a4f8 55be
000000c0: fbfa 8e3e dd92 aabd d797 8cbe b5e1 3abe
000000d0: 8b5c b03d 53a5 8fbe 697b ac3d f28f 27be
000000e0: 9298 843e 4a47 16be ac46 b1bc 7a61 283d
000000f0: c83d 40bc 9244 5e38 d7ad 2d3d 9ef4 f4bd
00000100: ef1d acbd 3df3 673d ca8f 20be 6edc c5bc
00000110: 0139 d03c 34dc 73bc d84c b1bd 7d58 163e
00000120: 9334 153b f249 4a3c fc8a 6abe afe4 973d
00000130: c468 2e3c 8a24 ce3c 4fa8 7ebe fa0f ff3d
00000140: ea2a 80bd a296 0b3e 7654 4cbe 13fe 5c3b
00000150: 0b47 393f d2f2 543d 48e2 4dbe 0954 22be
00000160: 79b4 d5bc 1a80 5d3e f657 8abe 12e4 7e3e
00000170: d780 823d b604 d8bd a091 2dbe c7a8 0b3e
00000180: 8486 753e 39fd 5ebd c31d 18bd 13ce 30be
00000190: 6e57 ea3d e7ff 2e3e 206f 4ebd fcf2 31bd
000001a0: 714d 8a3d 4ca3 a63c f61e 05be 8eb8 253e
000001b0: c1c9 3f3e bbb9 58be d9e1 033e 1924 2bbe
000001c0: 531e afbd 97e3 5e3d 45af 26bd 284b ed3d
000001d0: f0c3 093f fdd1 c73c 0c60 94bd 2f0a 29be
000001e0: 9554 ddbc 6413 4fbe 05ca 943e 13b9 883d
000001f0: cc43 d5bc 9cf9 b3bb 26aa 653d 5872 e9bc
00000200: 3303 a0bc a8cf 203d 774a 933d d29f 633c
00000210: 331d 933e fc29 aabd c7a8 62bd 49eb 2e3d
00000220: 022b bdbd ab42 193e a305 b23e 5756 4abe
00000230: a6af 7d3d 5a9c 373d 67fb ddbd 3614 f8bc
00000240: 1cc3 e43d 18f4 2c3f fe20 64be 109c 13be
00000250: b0ae ebbc 5b03 e03d a842 2cbe 3792 4abc
00000260: c8e5 d1bc 0d30 403e d5a3 1fbe 1545 313e
00000270: d897 18be 6347 1e3e 55bf 613d cf39 ddbd
00000280: 5048 15be d5e0 183e ea77 683b a520 583d
00000290: af02 c8ba 1284 35be 44f2 e63c 5cfe a4bd
000002a0: 17fb 4a3d faf4 143d e58a 87bd e8bd 4dbd
000002b0: 1b87 cebd 3046 473e bf5f 3ebe 7361 f73c
000002c0: b303 e43e 98e9 9e3e cd46 90bc 4c7d 1abe
000002d0: ca6b 07be 8ac7 083e 240f 8cbd 2280 acbe
000002e0: fe46 e23d 42e0 f5bd 77f1 4a3d a790 9bbc
000002f0: fa31 0d3e 1c7e 8e3d d044 78be 353a 98bd
00000300: 1b1e 9e3e e9bb e53d 93d1 33be b894 27be
00000310: e680 a13d 08ee cabb 0dcd 623d 7168 48bd
00000320: 5e39 dcbc 482c aebc 8ab5 543d b719 bc3c
00000330: 3960 edbc 777f d33d 8dcb 13be caf7 7e3e
00000340: dca2 11bd 867a 963b 01da 20be 984a 373e
00000350: c0b8 763e 27b7 d1bd bf05 ad3d 165b a83d
00000360: aef5 1d3e 6f33 3dbd 7dc2 0d3d 69bb bbbc
00000370: 1735 273e 74ea 293b fa36 30be 0c15 97be
00000380: 3970 c63c e178 ca3d 5def 23bd eb1a a7bd
00000390: e218 133e cfc8 9a3d 1cd2 93bc 485b 19bd
000003a0: 335d 843d 3f2e 003e 3d03 8bbd 7ef6 8bbe
000003b0: 9ba1 fa3d 1998 d3bb 42dc 0f3e ffe5 f9bd
000003c0: f7c1 dd3e c5af 8c3d e0a2 a9bd ef81 1ebe
000003d0: 9fd6 12bd 1d99 053e f72e 27be 9c19 01be
000003e0: b426 973b fc92 de3c 6db0 82bd 5316 2a3e
000003f0: 295a 2b3f b84d 31bd c988 f7bd 9843 5bbe

fc1.bias f4 [100]
0.04990203 -0.014321103 -0.17454901 0.034191206 -0.03323467 -0.05195988 -0.09142125 0.15601254
-0.025455585 0.121222496 -0.031264856 -0.06293217 0.19706345 -0.062177427 -0.053889938 0.058120735
-0.08576271 -0.03617158 -0.028531885 0.14398172 0.055183463 0.082506455 -0.010951024 -0.037445933
0.05965848 -0.037893075 -0.031543028 0.24353321 -0.08847511 -0.020703005 -0.02453829 0.020596555
0.0644994 0.03497535 -0.024502913 -0.06894039 -0.12963167 -0.021326462 0.22380687 0.15107524
0.09206241 0.038180653 -0.033179965 -0.0073230183 -0.029617826 -0.080746055 0.065152735 -0.13545997
-0.13662004 0.026724737 0.15964499 -0.011856462 0.1364229 -0.03647436 -0.046956606 -0.09215128
-0.062273193 -0.14561176 -0.042972494 0.29321378 -0.061903935 -0.017419657 -0.060670882 -0.09653525
-0.1177944 -0.07058999 0.09268019 0.043021355 0.27947617 0.007814568 -0.022441786 0.05539557
-0.22898766 0.26459464 -0.0142270075 0.057320062 -0.0259492 0.22298698 -0.045220256 0.100139566
-0.14593077 -0.1147845 0.058359507 -0.04895148 -0.06792484 -0.04409136 -0.031329654 -0.03680749
-0.03701369 -0.05236564 -0.024729807 -0.08771949 -0.2161147 0.03748511 -0.00016414248 0.19484268
0.095599584 0.1396787 -0.1953027 0.16265948
00000000: 1266 4c3d 0fa3 6abc fabc 32be 140c 0c3d
00000010: 1421 08bd e2d3 54bd 103b bbbd c0c1 1f3e
00000020: 3b88 d0bc 8043 f83d 940f 00bd 95e2 80bd
00000030: 00cb 493e c2ad 7ebd b2bb 5cbd 0210 6e3d
00000040: 5ca4 afbd a728 14bd b3bb e9bc f26f 133e
00000050: 0e08 623d 25f9 a83d ec6b 33bc e860 19bd
00000060: 735c 743d c535 1bbd 4333 01bd c560 793e
00000070: 7032 b5bd 5999 a9bc 8604 c9bc 1bba a83c
00000080: 4318 843d 5042 0f3d 55ba c8bc 9f30 8dbd
00000090: 2abe 04be d5b4 aebc a12d 653e 78b3 1a3e
000000a0: 388b bc3d 5163 1c3d b7e7 07bd eef5 efbb
000000b0: 15a1 f2bc 305e a5bd cc6e 853d 05b6 0abe
000000c0: 20e6 0bbe d6ed da3c fa79 233e 9b41 42bc
000000d0: 72b2 0b3e 2366 15bd 9255 40bd cfb9 bcbd
000000e0: 2d12 7fbd 401b 15be ed03 30bd 1e20 963e
000000f0: fb8e 7dbd abb3 8ebc 0882 78bd 46b4 c5bd
00000100: 313e f1bd 7c91 90bd 1dcf bd3d 2937 303d
00000110: 8017 8f3e ac08 003c d6d7 b7bc 77e6 623d
00000120: be7b 6abe f378 873e 6518 69bc 71c8 6a3d
00000130: 6b93 d4bc b356 643e e038 39bd f915 cd3d
00000140: e06e 15be 2314 ebbd 610a 6f3d 5981 48bd
00000150: 2e1c 8bbd 2499 34bd 8653 00bd 73c3 16bd
00000160: ab9b 17bd 5a7d 56bd 2a96 cabc 47a6 b3bd
00000170: 2c4d 5dbe fd89 193d a91d 2cb9 d784 473e
00000180: b7c9 c33d ef07 0f3e 6efd 47be 3590 263e

fc2.weight f4 [10, 100]
0.14017242 -0.11038284 -0.12642206 -0.43724298 0.036759704 0.045191724 -0.6880363 0.21930276
-0.028020656 0.01597396 -0.17731974 -0.43791485 0.2293773 -0.58833367 0.128101 0.039612256
0.26733738 -0.004097894 -0.05352553 0.18770276 0.11629228 0.13990644 -0.0869854 0.09520659
-0.35831168 -0.19957113 -0.0068574534 0.11522145 -0.15034707 0.084990345 -0.08795436 0.03772609
-0.17762177 0.38204283 0.056473784 0.112523004 -0.7745098 0.0045328373 0.13945585 0.08417468
0.23397571 -0.2982329 -0.0023058828 0.19239216 -0.051498193 -0.24806198 0.14288878 -0.63054496
0.238134 -0.42179793 0.09997876 -0.05722727 0.06588024 -0.019435009 0.014123551 -0.2642365
-0.4111527 -0.39295563 0.08782859 0.17999287 0.09091937 0.18664318 -0.32477012 -0.45017755
-0.57307565 0.019125093 0.17032434 0.09061394 0.12183688 -0.50542367 0.10282236 -0.24655937
-0.63965994 0.1631885 -0.037426308 0.17886168 -0.13876155 0.063296326 0.08926022 0.051265754
-0.0056654396 -0.36905146 -0.04705876 0.07873862 -0.13870257 -0.055580672 0.10386031 -0.18667687
-0.0004594939 -0.019530717 0.0419175 -0.8476027 -0.57165253 0.15635008 -0.33839226 0.10615725
0.095254906 0.0794711 -0.12943082 -0.006474601 0.12607256 0.060335018 -0.528939 -0.61404014
0.006470506 0.041918013 -0.80584615 0.22255376 -0.06336861 0.06723127 -0.35495415 0.17994553
0.23776095 0.2824492 -0.551136 0.16007839 -0.7693087 -0.044178225 -0.03851474 -0.04463655
-0.35267204 0.04398629 -0.0344924 -0.55325276 -0.046983704 0.043658335 -0.08983183 0.14228582
-0.74671584 -0.07994048 -0.059667937 -0.8060781 -0.28048947 -0.08599304 0.018601336 -0.47092086
-0.6475243 0.020121649 0.07798156 -0.22774561 0.2569459 -0.45757848 -0.2704959 0.15423153
-0.07933118 -0.11198407 0.14959843 -0.21496035 -0.4131779 -0.07287344 0.13806295 -0.7119221
0.113566525 -0.064888135 -0.051451337 -0.6016179 0.13650411 0.21307403 -0.01588686 0.19476993
-0.04118511 0.17843303 -0.9717376 0.03828065 -0.060498103 0.024522858 0.233425 0.06921779
0.12862892 -0.65732765 -0.715007 -0.10932418 -0.6933299 0.14536452 0.030692913 0.15853518
-0.07401122 0.09767538 0.058457702 0.14535648 0.28832203 -0.15328361 -0.19303745 0.01298051
-0.43237817 -0.044781636 0.06340189 -0.5539559 -0.02150962 0.017667437 -0.0019664064 -0.79536676
-0.54059213 -0.48908344 -0.27447745 0.12315604 0.09384352 0.06975314 -0.17428876 0.08983046
-0.33208615 0.031565215 0.14830038 0.73108107 -0.017686944 -0.028797304 0.070830606 -0.14575584
0.03493009 -0.08934165 0.117912024 -0.3511868 -0.37289932 0.04897225 -0.07583005 -0.0835426
0.04843815 -0.071355455 -0.07011344 0.10751503 0.15056756 -0.70145476 0.013502895 0.4431894
0.14271092 0.19642383 -0.089472376 -0.019071806 0.1312952 -0.027058356 0.06646698 -0.078769326
0.083098374 0.13384295 -0.07789013 0.023957554 0.07904529 0.023360223 -0.25213 0.22278498
-0.20089257 0.14590092 0.17704804 -0.7058332 0.02574004 0.40727666 -0.3460088 -0.30579618
-0.08777643 0.09457837 0.10227256 0.017505867 0.059922382 0.053719174 -0.07994809 -0.35853276
00000000: 5c89 0f3e 6610 e2bd c974 01be 50de dfbe
00000010: 5891 163d f51a 393d 2623 30bf e790 603e
00000020: 938b e5bc d2db 823c 4e93 35be 6036 e0be
00000030: e2e1 6a3e 099d 16bf e92c 033e 7640 223d
00000040: 72e0 883e a047 86bb 963d 5bbd 2735 403e
00000050: a62a ee3d a243 0f3e 6725 b2bd acfb c23d
00000060: a174 b7be 605c 4cbe 7db4 e0bb 39f9 eb3d
00000070: 95f4 19be 6b0f ae3d 6a21 b4bd ac86 1a3d
00000080: 7be2 35be 1e9b c33e 0e51 673d 7672 e63d
00000090: 4646 46bf 3288 943b 84cd 0e3e c663 ac3d
000000a0: 5497 6f3e fcb1 98be 4b1e 17bb 7302 453e
000000b0: c5ef 52bd f603 7ebe 7051 123e 656b 21bf
000000c0: 66d9 733e e6f5 d7be aac1 cc3d 2467 6abd
000000d0: 38ec 863d 2b36 9fbc 7766 673c 024a 87be
000000e0: 9b82 d2be 7b31 c9be 7adf b33d 0d50 383e
000000f0: ef33 ba3d 641f 3f3e 4548 a6be ac7d e6be
00000100: 16b5 12bf 3aac 9c3c 8169 2e3e cd93 b93d
00000110: 9d85 f93d 7263 01bf 8894 d23d 0f7a 7cbe
00000120: c1c0 23bf e31a 273e 544c 19bd 8427 373e
00000130: 8217 0ebe 81a1 813d 10ce b63d 0afc 513d
00000140: 27a5 b9bb 50f4 bcbe b0c0 40bd b741 a13d
00000150: 0c08 0ebe 8fa8 63bd b7b4 d43d 3928 3fbe
00000160: 3ae8 f0b9 e2fe 9fbc afb1 2b3d 7efc 58bf
00000170: d257 12bf 3c1a 203e c041 adbe f968 d93d
00000180: 0115 c33d bec1 a23d 8389 04be e428 d4bb
00000190: 2a19 013e da21 773d 8c68 07bf bc31 1dbf
000001a0: 8a06 d43b 39b2 2b3d ef4b 4ebf 22e5 633e
000001b0: 67c7 81bd 8cb0 893d 8dbc b5be a443 383e
000001c0: 9b77 733e 2e9d 903e 4017 0dbf 97eb 233e
000001d0: 6af1 44bf 3af4 34bd a2c1 1dbd d1d4 36bd
000001e0: 6e91 b4be f82a 343d e747 0dbd f9a1 0dbf
000001f0: fc71 40bd 15d3 323d c0f9 b7bd 60b3 113e
00000200: c528 3fbf d6b7 a3bd 5e66 74bd 225b 4ebf
00000210: 519c 8fbe 1e1d b0bd d461 983c 8a1c f1be
00000220: 27c4 25bf 28d6 a43c ccb4 9f3d 2536 69be
00000230: 6a8e 833e ba47 eabe 707e 8abe dfee 1d3e
00000240: 6378 a2bd e757 e5bd 5530 193e 911e 5cbe
00000250: 0e8c d3be ac3e 95bd 6060 0d3e 8740 36bf
00000260: 9195 e83d 12e4 84bd a3be 52bd a103 1abf
00000270: bcc7 0b3e 1430 5a3e 2925 82bc c571 473e
00000280: b8b1 28bd 26b7 363e ccc3 78bf 2ccc 1c3d
00000290: dccc 77bd 29e4 c83c f706 6f3e 0fc2 8d3d
000002a0: 4db7 033e a046 28bf b30a 37bf 5be5 dfbd
000002b0: 117e 31bf 70da 143e b46f fb3c 0c57 223e
000002c0: 3293 97bd 080a c83d 5871 6f3d 54d8 143e
000002d0: f29e 933e 61f6 1cbe 9cab 45be 34ac 543c
000002e0: ac60 ddbe f36c 37bd dad8 813d 0ed0 0dbf
000002f0: f134 b0bc 4dbb 903c d3de 00bb 289d 4bbf
00000300: 3f64 0abf 2569 fabe 4f88 8cbe 3c39 fc3d
00000310: 0831 c03d bcda 8e3d c178 32be 08f9 b73d
00000320: 3207 aabe 874a 013d 0edc 173e 2128 3b3f
00000330: 36e4 90bc 53e8 ebbc a30f 913d 0541 15be
00000340: db12 0f3d c1f8 b6bd dc7b f13d c2ce b3be
00000350: a9ec bebe 2097 483d c94c 9bbd 6218 abbd
00000360: 1567 463d cf22 92bd a397 8fbd d730 dc3d
00000370: 622e 1a3e 8a92 33bf 3f3b 5d3c b9e9 e23e
00000380: d022 123e 5423 493e 4b3d b7bd 7a3c 9cbc
00000390: 4072 063e 7ca9 ddbc d71f 883d d051 a1bd
000003a0: 7b2f aa3d 200e 093e dc84 9fbd a242 c43c
000003b0: 7fe2 a13d f05d bf3c 2f17 81be bf21 643e
000003c0: c8b6 4dbe 0d67 153e 154c 353e 7cb1 34bf
000003d0: c7dc d23c 9186 d03e 1128 b1be 5191 9cbe
000003e0: 21c4 b3bd 4eb2 c13d 4774 d13d 7768 8f3c
000003f0: 2c71 753d a308 5c3d d3bb a3bd 9b91 b7be

fc2.bias f4 [10]
0.029487163 0.2908738 -0.31625473 0.2987753 -0.18135555 -0.36444572 0.2076533 0.11759103
-0.1456668 -0.010927911
00000000: 108f f13c 69ed 943e 24ec a1be 13f9 983e
00000010: 45b5 39be a198 babe 11a3 543e 91d3 f03d
00000020: ad29 15be fb0a 33bc
