results/mfdwc-baseline/a-s2/best_CL_a-s2.pth (torch, 109455 bytes, 4 tensors)

fc1.weight f4 [100, 256]
0.022125911 0.08550849 -0.29819983 0.16958229 -0.06479262 0.069044 0.18199527 -0.12536487
-0.07239531 -0.0030314464 0.08389756 0.07505664 0.1607054 -0.10791963 0.02910627 0.020424351
0.09272966 -0.017326513 -0.054177724 -0.1282406 -0.060885616 0.027452016 -0.014952789 0.10287294
-0.30602765 0.1794312 0.09457782 -0.07243638 -0.2958295 0.032412477 -0.046935573 0.019065695
0.109327145 0.5034639 -0.20412517 -0.09521892 0.12768652 -0.1561671 0.32241622 -0.059518684
-0.16439243 0.21857977 -0.14371367 0.15523593 -0.05079563 0.015603589 0.056328766 -0.17487186
0.3136559 -0.18180533 0.01787854 0.055103827 0.21283308 -0.09927912 -0.20450187 -0.054318942
-0.13126104 0.0039477423 0.10944196 0.04166847 -0.0070235836 0.050951965 -0.22791876 0.031324908
0.032066982 0.15509543 -0.09488006 -0.12930204 -0.07944064 0.13704959 -0.068776 -0.114169
0.16003379 -0.14147182 0.04465171 0.18130574 -0.051531177 0.08396916 -0.028815998 -0.08698555
0.17319731 0.01548747 -0.116592854 -0.20857298 0.049564965 -0.20296745 -0.027151424 0.11966696
0.18702619 -0.20379835 -0.02227798 -0.02351139 0.06649451 0.22721912 -0.052092787 -0.13419628
0.08676895 -0.17196625 0.05907829 -0.021906128 -0.033394728 0.036028378 -0.1421959 -0.026278252
0.13402005 0.11512467 -0.06070517 2.7906117e-05 0.000432145 -0.08032726 -0.00490688 0.28674084
0.2226235 0.09753499 -0.059081838 -0.12327534 0.07494516 -0.024901781 0.21314383 0.23053297
0.25655454 -0.08129324 -0.1786262 -0.07142139 0.10853088 -0.06975192 0.006187621 -0.3302481
-0.22976674 0.035894454 0.08419205 -0.009736798 0.17377433 -0.31684673 -0.0007837371 -0.52380294
-0.024567671 0.19180827 -0.05879826 -0.0041309125 0.0705501 -0.049702317 0.15580626 -0.20634386
0.07332569 -0.1667321 -0.01506012 0.12559503 0.18224038 0.10022654 -0.11980449 -0.19645806
-0.2232131 -0.0014180278 0.024326548 0.07348878 0.06947979 -0.08967872 0.065701604 -0.051180348
-0.17277741 0.08006809 0.09888421 -0.10101778 -0.2520069 0.02792221 0.039311968 0.15422685
0.35967478 -0.0883542 -0.37273526 -0.28837696 0.13081047 -0.032575075 -0.09193955 -0.03883694
0.12599318 -0.15940398 0.08457515 0.0008812946 0.13501465 0.05902799 -0.1096389 -0.03225929
0.0602985 0.3549052 -0.10508951 -0.0787262 0.21428216 -0.32802713 0.039157428 0.028013539
0.14760408 0.0039383927 -0.08727919 0.049496084 0.32840163 -0.0920711 -0.23866476 -0.12091748
0.025247924 0.12999369 -0.023641165 -0.09616275 0.07803375 -0.1404116 -0.16331278 -0.0016006441
-0.11214842 0.054191504 -0.03886471 0.09235434 0.12526679 -0.027610486 -0.1604823 0.08112177
-0.08395095 0.12391644 -0.16492143 0.13731045 -0.050435994 -0.018075584 0.029900704 0.036191072
0.22231425 0.09744002 0.024684146 -0.07834645 0.16910063 -0.3034758 -0.021586541 0.24268599
0.018029708 0.10941227 0.070938386 -0.13003208 0.13202494 -0.20991598 0.21549122 0.024121264
-0.06314086 0.07932397 0.07864082 -0.06905006 -0.19857468 0.11642641 0.08381698 0.0014317167
-0.15275238 0.07184221 0.16974841 -0.2670276 0.07345675 0.07252559 -0.18615723 0.1960524
00000000: 6641 b53c 131f af3d a6ad 98be fba6 2d3e
00000010: feb1 84bd f166 8d3d f85c 3a3e a65f 00be
00000020: fe43 94bd 3bab 46bb 7cd2 ab3d 4cb7 993d
00000030: f58f 243e f804 ddbd 4670 ee3c f850 a73c
00000040: 0ce9 bd3d 55f0 8dbc 76e9 5dbd 8151 03be
00000050: 3263 79bd 0de3 e03c 8bfc 74bc 0caf d23d
00000060: a8af 9cbe d0bc 373e 04b2 c13d 8659 94bd
00000070: f776 97be f2c2 043d 843f 40bd a92f 9c3c
00000080: e9e6 df3d 03e3 003f 3006 51be 2302 c3bd
00000090: 41c0 023e 45ea 1fbe bd13 a53e ddc9 73bd
000000a0: 7d56 28be 60d3 5f3e ad29 13be 2bf6 1e3e
000000b0: 140f 50bd 32a6 7f3c feb8 663d 9c11 33be
000000c0: 8297 a03e 2d2b 3abe 0476 923c 8db4 613d
000000d0: eaf0 593e da52 cbbd f068 51be 8a7d 5ebd
000000e0: 4b69 06be 105c 813b 1b23 e03d 8fac 2a3d
000000f0: 1726 e6bb 02b3 503d 8963 69be 8c4e 003d
00000100: ab58 033d 56d1 1e3e 7a50 c2bd c167 04be
00000110: c6b1 a2bd ba56 0c3e 6eda 8cbd 70d1 e9bd
00000120: e6df 233e fddd 10be b6e4 363d 36a8 393e
00000130: 5b12 53bd 06f8 ab3d 870f ecbc 7b25 b2bd
00000140: a35a 313e 28bf 7d3c 3cc8 eebd 2894 55be
00000150: a204 4b3d b3d6 4fbe aa6c debc f313 f53d
00000160: cb83 3f3e 84b0 50be 4f80 b6bc f59a c0bc
00000170: 462e 883d 21ac 683e 3f5f 55bd c06a 09be
00000180: ebb3 b13d ec17 30be 14fc 713d 7b74 b3bc
00000190: e9c8 08bd 7e92 133d cd9b 11be 7d45 d7bc
000001a0: 8d3c 093e 7cc6 eb3d fca5 78bd ee17 ea37
000001b0: 8591 e239 9e82 a4bd e5c9 a0bb b2cf 923e
000001c0: 6af7 633e 6dc0 c73d ccff 71bd c877 fcbd
000001d0: d97c 993d d2fe cbbc 6042 5a3e d610 6c3e
000001e0: 1e5b 833e 127d a6bd c9e9 36be 6145 92bd
000001f0: 7045 de3d 18da 8ebd 87c1 ca3b 4716 a9be
00000200: f947 6bbe 1006 133d e26c ac3d 1787 1fbc
00000210: e6f1 313e bc39 a2be b573 4dba f317 06bf
00000220: 2442 c9bc 6369 443e 72d6 70bd 9b5c 87bb
00000230: 927c 903d a894 4bbd ad8b 1f3e ce4b 53be
00000240: c82b 963d d2bb 2abe b9be 76bc fc9b 003e
00000250: 399d 3a3e 9243 cd3d 0e5c f5bd 4d2c 49be
00000260: fa91 64be 1edd b9ba 7848 c73c 4981 963d
00000270: 6c4b 8e3d 7aa9 b7bd 908e 863d 7ca2 51bd
00000280: 90ec 30be bdfa a33d ce83 ca3d 69e2 cebd
00000290: 0c07 81be 1ebd e43c 9605 213d a5ed 1d3e
000002a0: 4b27 b83e 0cf3 b4bd 28d7 bebe 25a6 93be
000002b0: 2ef3 053e 716d 05bd ce4a bcbd 7c13 1fbd
000002c0: 5b04 013e cc3a 23be bc35 ad3d ae06 673a
000002d0: 4841 0a3e 55c7 713d 5c8a e0bd 5122 04bd
000002e0: 8ffb 763d 22b6 b53e 2b39 d7bd 343b a1bd
000002f0: c86c 5b3e 2cf3 a7be 8a63 203d a67c e53c
00000300: 8625 173e a20d 813b 6fbf b2bd 68bc 4a3d
00000310: 4224 a83e c68f bcbd 8964 74be 95a3 f7bd
00000320: bcd4 ce3c 111d 053e 1eab c1bc faf0 c4bd
00000330: 29d0 9f3d 0fc8 0fbe 773b 27be b4cc d1ba
00000340: 12ae e5bd e9f7 5d3d 9a30 1fbd 4624 bd3d
00000350: f045 003e 632f e2bc 7955 24be 2c23 a63d
00000360: 7aee abbd e7c7 fd3d 2ae1 28be 1c9b 0c3e
00000370: f995 4ebd 3f13 94bc 52f2 f43c 173d 143d
00000380: 59a6 633e a28e c73d 6836 ca3c 1b74 a0bd
00000390: b728 2d3e 2e61 9bbe 42d6 b0bc ad82 783e
000003a0: 0ab3 933c 8a13 e03d 2548 913d 2127 05be
000003b0: 8c31 073e 37f4 56be bba9 5c3e f599 c53c
000003c0: ff4f 81bd 9b74 a23d 700e a13d 1e6a 8dbd
000003d0: 2957 4bbe f870 ee3d 3da8 ab3d 71a8 bb3a
000003e0: 1f6b 1cbe 0222 933d 87d2 2d3e d7b7 88be
000003f0: 7e70 963d 4c88 943d 00a0 3ebe f6c1 483e

fc1.bias f4 [100]
-0.11140598 -0.12847741 -0.053358022 -0.09826598 -0.039334062 0.02215578 -0.1190981 0.068158336
0.061189894 0.042381767 0.11036018 -0.11837911 0.19665983 -0.0654467 -0.04938869 -0.0010519531
-0.030297242 0.14602064 0.02658668 -0.029232154 0.062281266 -0.039887972 -0.06690479 -0.06753013
-0.1149576 -0.13324025 -0.021303624 0.0499145 -0.07401697 0.10902911 0.008734449 0.075854905
-0.023602057 -0.023198452 -0.01662399 -0.03405589 0.13168792 -0.023256151 -0.017583055 0.046676252
-0.0519452 -0.17252594 0.1882483 -0.13271889 0.040506016 -0.025707774 -0.024986073 -0.054952256
-0.018764256 0.09297546 -0.019727571 -0.037988827 0.046212934 0.2090516 0.092306234 -0.06619415
-0.025275098 -0.025507934 0.05886081 0.037981514 0.0020887747 -0.043529823 0.007618048 -0.11065178
-0.049556438 0.003757602 0.11990299 -0.027433189 0.13939138 0.12181209 -0.017762175 -0.029805504
-0.03388028 -0.024875896 0.027637038 -0.13208641 0.056060117 0.09220609 -0.04419322 -0.019761603
-0.0050850967 -0.006217598 0.12306913 0.085014045 -0.0186299 0.16130023 0.044880196 0.067368105
-0.01753287 -0.029393218 -0.024399303 0.1187001 0.022410419 0.12442435 0.11511667 -0.026568834
0.002278147 0.072837576 -0.0035398668 0.0146962395
00000000: d228 e4bd 958f 03be f18d 5abd ad3f c9bd
00000010: c11c 21bd 0a80 b53c b4e9 f3bd 9996 8b3d
00000020: 41a2 7a3d 8198 2d3d 8504 e23d bf70 f2bd
00000030: 3261 493e eb08 86bd cc4b 4abd b0e1 89ba
00000040: ec31 f8bc 6f86 153e 4fcc d93c 4578 efbc
00000050: a41a 7f3d 9261 23bd 6105 89bd 3d4d 8abd
00000060: e46e ebbd 2270 08be f084 aebc 2673 4c3d
00000070: 3696 97bd a74a df3d ef1a 0f3c d159 9b3d
00000080: 1a59 c1bc ae0a bebc 092f 88bc 307e 0bbd
00000090: 33d9 063e af83 bebc 570a 90bc 992f 3f3d
000000a0: 7dc4 54bd a4aa 30be 2ac4 403e 76e7 07be
000000b0: a3e9 253d 1c99 d2bc 98af ccbc 9e15 61bd
000000c0: 7fb7 99bc eb69 be3d b79b a1bc 2c9a 1bbd
000000d0: c649 3d3d 9f11 563e 0d0b bd3d cc90 87bd
000000e0: b90d cfbc 04f6 d0bc 0818 713d 8192 1b3d
000000f0: d3e3 083b 544c 32bd d2a0 f93b 679d e2bd
00000100: b1fb 4abd 1a42 763b b38f f53d 91bb e0bc
00000110: 9dbc 0e3e 9e78 f93d fb81 91bc ac2a f4bc
00000120: 0cc6 0abd 89c8 cbbc 1267 e23c a941 07be
00000130: 4b9f 653d 8cd6 bc3d f303 35bd 16e3 a1bc
00000140: e2a0 a6bb febc cbbb ab0b fc3d d81b ae3d
00000150: bb9d 98bc e32b 253e 4cd4 373d 4af8 893d
00000160: 18a1 8fbc 0cca f0bc 0ce1 c7bc 0a19 f33d
00000170: 0e96 b73c 32d2 fe3d 4ac2 eb3d e2a6 d9bc
00000180: f74c 153b de2b 953d 1cfd 67bb 7fc8 703c

fc2.weight f4 [10, 100]
-0.107971504 -0.2918502 -0.018134847 -0.19517452 -0.083684236 -0.29396534 -0.103451066 0.23026693
0.027712712 -0.012450727 0.13111441 -0.17771491 0.06435753 -0.041903876 -0.099132106 -0.08896326
-0.4223068 0.21625917 -0.17262521 -0.047525812 -0.33262655 -0.0021286411 -0.2523541 -0.46792117
-0.13429849 -0.15047963 -0.095939 -0.18558194 -0.5506849 0.11100294 0.11258055 -0.10338567
-0.052553438 0.020564066 0.06058647 -0.58723086 0.032033384 -0.08052731 -0.07891294 0.047372166
-0.4174946 -0.24202639 0.055741634 -0.39271483 0.14828803 -0.011603693 -0.09878881 -0.13735093
-0.0818168 0.14889671 0.024544975 -0.0012222256 0.115707256 0.14052275 0.26566833 0.17885762
-0.027481657 0.10726937 0.1095046 0.051376294 0.050207358 -0.057968106 -0.016077207 -0.58078885
-0.26145178 0.06571499 0.15104719 -0.20047812 0.2129047 0.11768394 0.053919453 -0.004525287
0.090189025 0.01607312 -0.10262371 -0.30340835 0.26872587 -0.1262679 -0.01967719 -0.07789471
0.26079315 -0.23342843 -0.13595144 -0.24199827 -0.20921895 0.12973514 0.12192858 0.024605962
-0.031745106 0.09191519 -0.20455065 0.026373139 0.068809316 0.03121839 0.09609017 0.037175532
-0.1345383 0.11939909 -0.15505438 0.090801656 -0.49339244 -0.25811014 -0.016870469 -0.24490546
0.039169326 -0.22447342 -0.40895382 0.2278636 0.3288727 0.06335097 0.12566152 -0.6835055
0.13934323 -0.24912512 -0.4640349 -0.49458405 -0.06813406 0.24133651 -0.43127084 0.09366564
0.28048623 0.060257282 0.022062838 -0.15481648 -0.56723094 0.10227669 0.0407211 -0.5238243
-0.31323856 -0.05965154 0.098588824 0.06681028 -0.3043887 -0.012877402 0.060460635 0.12525055
0.026677309 0.07880176 0.020491369 -0.25178283 0.028008308 -0.2864805 0.076370746 -0.5140286
0.1385667 -0.012150692 -0.068178 -0.32138276 -0.11097104 0.09874998 0.072910175 -0.038595494
0.095645785 0.12701605 0.26402077 0.025515314 -0.028269885 -0.08128915 0.071755886 -0.51081455
0.21255174 -0.101835676 -0.3663264 -0.50631875 -0.2783074 -0.6024801 0.018959992 -0.35254166
0.20640586 0.10589977 -0.07189892 -0.1771193 0.21818914 0.029038345 -0.27052584 -0.27701682
0.18941168 0.13798945 0.26917484 -0.053431645 0.19164026 -0.49524838 -0.23287378 -0.038864724
-0.09846484 0.15004407 -0.020827064 -0.3196184 0.044751458 -0.15225159 0.027416602 0.029592887
0.044344585 0.03357875 0.07839534 0.019475335 -0.10087361 0.10761724 -0.26889297 -0.19966377
0.30603173 0.17505772 -0.035033364 -0.21490017 -0.019955082 0.34912252 -0.49764815 -0.2613349
-0.23472333 -0.30390394 0.058955282 0.010955578 0.05498213 0.03924216 0.13495949 0.14769042
-0.088737875 -0.23254254 0.2064232 0.04596836 -0.17774816 0.12602937 -0.106581345 0.10619764
0.13373415 0.06499737 -0.040540446 0.19872436 0.060838137 -0.32041833 0.20182353 0.1977415
-0.2869791 -0.07340738 0.089658275 -0.047897365 0.1682393 -0.05999061 -0.0965564 0.018720444
-0.13136713 -0.012087544 0.10431406 -0.29315838 -0.31970292 0.04314588 -0.003161575 0.3750579
0.032078218 -0.1674216 0.07017503 -0.03692656 -0.51191413 -0.20303017 -0.25040445 -0.25113824
00000000: 2a20 ddbd 646d 95be 888f 94bc d4db 47be
00000010: a462 abbd a082 96be 27de d3bd 18cb 6b3e
00000020: c505 e33c 22fe 4bbc db42 063e e6fa 35be
00000030: e1cd 833d 66a3 2bbd c605 cbbd 5f32 b6bd
00000040: 9938 d8be 0b73 5d3e aac4 30be 6daa 42bd
00000050: 074e aabe ac80 0bbb 8e34 81be 5d93 efbe
00000060: 8b85 09be 5517 1abe ab7b c4bd 3109 3ebe
00000070: b0f9 0cbf 8255 e33d a290 e63d debb d3bd
00000080: 4642 57bd f975 a83c 8529 783d c354 16bf
00000090: 7035 033d 81eb a4bd 1c9d a1bd 5109 423d
000000a0: dac1 d5be c4d5 77be 5751 643d eb11 c9be
000000b0: d1d8 173e 6a1d 3ebc ca51 cabd b9a5 0cbe
000000c0: 918f a7bd 6178 183e 8b12 c93c 1633 a0ba
000000d0: edf7 ec3d 32e5 0f3e ae05 883e 7426 373e
000000e0: 3621 e1bc 0bb0 db3d f343 e03d f36f 523d
000000f0: 3ba6 4d3d f76f 6dbd 59b4 83bc 94ae 14bf
00000100: 02dd 85be 9595 863d 1dac 1a3e 234a 4dbe
00000110: b103 5a3e 4704 f13d a5da 5c3d dc48 94bb
00000120: 06b5 b83d c7ab 833c 612c d2bd 5758 9bbe
00000130: 7096 893e 5f4c 01be 0f32 a1bc 4387 9fbd
00000140: ae86 853e dd07 6fbe db36 0bbe 65ce 77be
00000150: 7e3d 56be 4ad9 043e b1b5 f93d 7192 c93c
00000160: 2807 02bd 083e bc3d ba75 51be 7b0c d83c
00000170: e6eb 8c3d b6bd ff3c ecca c43d 5f45 183d
00000180: 68c4 09be 8387 f43d 93c6 1ebe 38f6 b93d
00000190: ef9d fcbe 0327 84be f033 8abc 7fc8 7abe
000001a0: 0470 203d 5cdc 65be 6562 d1be 1355 693e
000001b0: 0162 a83e 27be 813d 6aad 003e 37fa 2ebf
000001c0: feaf 0e3e a81a 7fbe fb95 edbe 1f3a fdbe
000001d0: df89 8bbd eb20 773e 88cf dcbe c5d3 bf3d
000001e0: e49b 8f3e 57d0 763d 20bd b43c 3688 1ebe
000001f0: 0c36 11bf 7176 d13d 2bcb 263d 5919 06bf
00000200: ce60 a0be 2c55 74bd f0e8 c93d d4d3 883d
00000210: d6d8 9bbe bdfb 52bc 92a5 773d ae41 003e
00000220: 5f8a da3c d162 a13d 84dd a73c aee9 80be
00000230: ae71 e53c 92ad 92be 4468 9c3d 6197 03bf
00000240: 6ee4 0d3e b213 47bc e8a0 8bbd 488c a4be
00000250: c944 e3bd 6e3d ca3d ee51 953d 4f16 1ebd
00000260: f0e1 c33d 7f10 023e bb2d 873e 7e05 d13c
00000270: 3f96 e7bc ed7a a6bd c0f4 923d bec4 02bf
00000280: 2aa7 593e 398f d0bd 228f bbbe 1b9e 01bf
00000290: 4f7e 8ebe 233c 1abf fc51 9b3c 5780 b4be
000002a0: 0f5c 533e fbe1 d83d be3f 93bd c35e 35be
000002b0: f96c 5f3e d3e1 ed3c 5d82 8abe 26d5 8dbe
000002c0: 23f5 413e 1b4d 0d3e 49d1 893e 24db 5abd
000002d0: 583d 443e 3291 fdbe 7776 6ebe 9e30 1fbd
000002e0: efa7 c9bd 27a5 193e 859d aabc 06a5 a3be
000002f0: 4e4d 373d d7e7 1bbe c898 e03c c86c f23c
00000300: aba2 353d df89 093d bc8d a03d bd8a 9f3c
00000310: d396 cebd 6d66 dc3d 57ac 89be a974 4cbe
00000320: 31b0 9c3e 5542 333e 257f 0fbd ca0e 5cbe
00000330: d778 a3bc 30c0 b23e bdcb febe b0cd 85be
00000340: 505b 70be 4c99 9bbe 187b 713d 067f 333c
00000350: f134 613d 63bc 203d d232 0a3e 283c 173e
00000360: 34bc b5bd a21f 6ebe 9a60 533e 5249 3c3d
00000370: 9d03 36be d80d 013e 5247 dabd 267e d93d
00000380: 9bf1 083e 571d 853d bd0d 26bd 667e 4b3e
00000390: 6931 793d df0d a4be d4aa 4e3e bf7c 4a3e
000003a0: edee 92be 9c56 96bd c29e b73d 0730 44bd
000003b0: ec46 2c3e b7b8 75bd 5dbf c5bd 9e5b 993c
000003c0: 1b85 06be d60a 46bc 9ca2 d53d db18 96be
000003d0: 1ab0 a3be bcb9 303d 6d32 4fbb 9707 c03e
000003e0: 7364 033d 9170 2bbe edb7 8f3d 4e40 17bd
000003f0: ce0c 03bf 24e7 4fbe 0335 80be 3195 80be

fc2.bias f4 [10]
-0.00019389785 -0.0065581 -0.22675864 0.28051138 -0.12112216 -0.16382168 0.21225993 0.12743449
-0.09145278 -0.059768178
00000000: 0f51 4bb9 55e5 d6bb 6b33 68be 309f 8f3e
00000010: e50e f8bd dfc0 27be ab5a 593e 307e 023e
00000020: 984b bbbd 7acf 74bd
