results/mfdwc-baseline/a-s2/latest_FE_a-s2.pth (torch, 415237 bytes, 12 tensors)

conv1.weight f4 [32, 1, 7, 7]
00000000: 4d97 02bd a641 d4ba 1f7c 973a 7b1c 15bd
00000010: 52d0 bc3d 8c58 c13c e6a0 cc3d b0a5 d4bd
00000020: c7e6 cb3c d431 54bd 3a55 c03c 166f 033d
00000030: e708 abbb 1dc8 313d e175 18be 29fc 20bc
00000040: b0fb bcbd 148b 56bd cc75 3b3e 2cea 013e
00000050: c679 033e 2583 b63d 379d 023e a954 953d
00000060: 784a 733e c7b5 923e 59a0 1a3e c530 ab3e
00000070: fa2d f2bd 8e76 5cbd c253 02be 7eca c6bc
00000080: 770b 783d 289c 46bd 870e 913d 94b9 20be
00000090: bff9 93bd 8583 e2bd 3578 273d 688e 503d
000000a0: c590 bdbc 685b 013c de21 e1bd c45e e9bd
000000b0: 9ed7 27be 6bb9 32bd 701d 3b3d 7bfb 7dbd
000000c0: 824e 9fbd 4dbe 053e 9aa9 a23e b4cd 353e
000000d0: 4bc7 1a3e b2b3 e53c 1c37 dabd 482b e6bc
000000e0: 0372 3f3e 18ce 623e e4c5 b63d 00c0 543c
000000f0: 301d 3bbe abaa 09be 39d7 bbbd 44bc 0e3e
00000100: 42d5 383e a2d6 c43a 1dd5 5b3c 6361 41be
00000110: b325 8cbe ee9e acba 07f2 dbbc 46a5 063d
00000120: 4a09 0dbd bd92 0b3e 39f2 f03d cc5c babd
00000130: e639 983c 62f8 59bc 80f7 a23d fedb e63c
00000140: 31a7 123e 157f 843d d8d0 a9bd 1104 fbbd
00000150: 00a9 90bd c4ce debd 0fc5 18be 5c91 b5bd
00000160: 5495 f4bb d346 6bbe 9ebf 69be 0e91 493b
00000170: 598b b73d df15 7c3c 12a1 e23c 83e6 b63c
00000180: de8c 7bbd cc22 88bd 636f bcbe 13de e1be
00000190: 9abb b8be 8b26 97be b23c 9ebe b03e b3be
000001a0: 1430 e1be 50a9 c43b 140d 12be 03f1 a9bc
000001b0: 720a be3b 9a82 f8bc 5003 d4bd cece e4bd
000001c0: d58e 173d 2200 7538 2579 603d 6d48 f23c
000001d0: 946c 773d 96cf 483d 3b4a 63bc 7708 1fbe
000001e0: 76f9 2ebe 3b3f 1dbe ae3b 19be d612 23be
000001f0: 926d 19be ca0a 11be 43ed ed3c e606 40bd
00000200: b678 053d be5e 67bd 713f 33bc 0012 8abd
00000210: 2b77 a53c 0d98 143d 4804 ed3c ea78 e63c
00000220: b32d 32bc 3ea7 fbbc 92bf acbc 261a 90bc
00000230: ab3d 9f3c 5562 243d 578e 643a 498f 6cbb
00000240: 618a 27bb 4c89 26bc 7eac 133d 52f1 d1bc
00000250: 55e5 23bb c920 e43b 5271 ddbc 2f7a bb3d
00000260: 236a 1f3d ebba 51bd 0d8d 76bd a6f1 cbbb
00000270: 5f4a cebb 73f0 953c 57ee 853d 1b13 cc3c
00000280: 395b 70bc 89fe adbc 15f9 9abd bff9 93bd
00000290: c4c0 813d f3e1 213e 4d64 f63d 099f 0abe
000002a0: 4182 653e 3643 3f3e 4a70 693e 8f2d 783e
000002b0: 86ad 6d3e 2ada 3f3e 7d2b 303e a934 343c
000002c0: ed49 7cbd ecd3 893d 680f ba3a 09a8 a4bd
000002d0: 127f 21bd 19d6 65bd 8b23 d73c cb03 403d
000002e0: 0f0f 5f3d f6ac 88bd b6c9 81bd 65cc 9fbc
000002f0: 8dc8 a6bd 34d8 b4bd 4ec4 c6bd e7a1 99bd
00000300: 2603 1cbe 1da3 55be 7be3 2cbe 43bb dabd
00000310: 88a4 25bd 3c6d a63a 27a2 2dbc cdf3 403d
00000320: 478d 663d 1ce1 4b3d e1ea 513c d993 f73d
00000330: 0542 113e 6e2f 1e3e 4d86 bb3d 7dc5 233e
00000340: 426e 5d3e c33d 443e ebc1 a9be 9b7d abbe
00000350: e299 c6be e649 c6be 1c3c 79be 7df2 85be
00000360: 5dfa 89be 5c2d 133c 2ac9 80bc 1080 cdbc
00000370: 75a4 6abc 5a88 4dbc 650c 083c 3c5b 843d
00000380: ffd7 8bbd deb9 93bb 188e 87bd e2eb e23c
00000390: f719 4d3c 3128 f73c f2de 1f3d fab5 f6bc
000003a0: e910 d33c c430 14bd 16c6 033c db89 f23c
000003b0: 6a00 263c b367 943c 5688 12bd 5f7a 1ebc
000003c0: 705e e4bb b6b4 8dbb b94a b33c ac01 98bc
000003d0: dedf cf3c cfd0 8d3d 3ffa ad3c 6859 e4bb
000003e0: ae4b e03d 6cb5 bbba f1aa c63d e955 ee3d
000003f0: 34f7 f13d 2816 a93d 25d5 283d 2e4b 883d
-0.031882573 -0.0016193881 0.0011557377 -0.036404114 0.092194214 0.023601793 0.099916264 -0.10383165
0.024890317 -0.051805332 0.02347814 0.03208836 -0.005219567 0.043403734 -0.14888717 -0.009825745
-0.09227693 -0.05237873 0.18306655 0.12686986 0.12839422 0.089117326 0.12755285 0.07291538
0.23758876 0.2865431 0.1510023 0.33435646 -0.118251756 -0.053824 -0.12727264 -0.024266478
0.06055781 -0.048488766 0.07082849 -0.15695792 -0.0722537 -0.110602416 0.040886123 0.05091706
-0.02314032 0.007895328 -0.10992788 -0.11395028 -0.16390845 -0.04363386 0.04568237 -0.06200741
-0.07778646 0.13060875 0.3177002 0.17754251 0.15115087 0.028039787 -0.106550425 -0.02809681
0.18695836 0.22148931 0.089244634 0.0129852295 -0.18272853 -0.13444011 -0.0917191 0.13939005
0.18050101 0.0015017579 0.013417509 -0.18884806 -0.27372512 -0.0013169923 -0.026848806 0.03287246
-0.034432687 0.13630195 0.1176495 -0.09099731 0.018582296 -0.013303848 0.07957363 0.028181072
0.14321591 0.064695515 -0.08291787 -0.12256635 -0.07063484 -0.10879281 -0.14918922 -0.08865616
-0.0074640904 -0.22976236 -0.22827002 0.0030756625 0.08962125 0.015386074 0.027664695 0.022326713
-0.06141364 -0.06647262 -0.3680373 -0.44114742 -0.3608063 -0.29521593 -0.30905682 -0.35008764
-0.43981993 0.006001629 -0.14262801 -0.020744806 0.005799585 -0.030335713 -0.10352194 -0.11172257
0.03700145 5.8412676e-05 0.054803032 0.02957555 0.060406283 0.049026094 -0.013872678 -0.15530573
-0.1708735 -0.15356152 -0.14964172 -0.15925154 -0.14983204 -0.14164272 0.0290438 -0.04688158
0.032585822 -0.056486838 -0.010940419 -0.067417145 0.020198425 0.03627782 0.028932706 0.028133828
-0.010875153 -0.030719396 -0.021087442 -0.017590594 0.019438585 0.04013284 0.000871872 -0.0036096147
-0.0025564658 -0.01016457 0.036053173 -0.025627766 -0.0025008519 0.006961916 -0.027031574 0.09154164
0.03891958 -0.05120365 -0.06019311 -0.006223875 -0.006295487 0.018303132 0.065396 0.024911454
-0.014670187 -0.021239536 -0.0756704 -0.0722537 0.06335595 0.15808849 0.120308496 -0.1353723
0.22412969 0.18677983 0.22796741 0.24236129 0.23210725 0.18735567 0.1720409 0.010998883
-0.06159394 0.06729874 0.0014195265 -0.08039863 -0.039427824 -0.056112383 0.026262065 0.046878617
0.05445772 -0.06673615 -0.063373014 -0.019506643 -0.08143721 -0.088303 -0.09705411 -0.075015835
-0.15235576 -0.20863004 -0.16883652 -0.106802486 -0.040440112 0.0012697349 -0.010597742 0.047107507
0.056287076 0.049775228 0.012812347 0.120887466 0.1418534 0.1544778 0.09156475 0.15993305
0.21624091 0.19164185 -0.3315576 -0.33494267 -0.38789278 -0.38728255 -0.24339336 -0.26161566
-0.26948825 0.0089829825 -0.015720922 -0.025085479 -0.014321436 -0.012544716 0.008303736 0.06462714
-0.06828307 -0.004508241 -0.06618899 0.027700368 0.0125183975 0.030170532 0.039030977 -0.03011607
0.0257649 -0.03617932 0.008042833 0.02960675 0.010131935 0.018115854 -0.03577455 -0.00967273
-0.0069692656 -0.004324521 0.021886216 -0.018555485 0.025375303 0.06924593 0.02123749 -0.006968666
0.10951935 -0.0014321036 0.09700573 0.1163748 0.118147284 0.08256179 0.041218895 0.066549644

conv1.bias f4 [32]
00000000: f8fe a33c 7cc8 293c 0445 d8ba 4d84 94bd
00000010: 46d6 22bc ee67 0db9 6c01 133a b422 9ebd
00000020: b5b9 df3c 2414 1dbb 899a 05bb e3df 903a
00000030: 533b 283e f18d fd3a 4cf6 da3b e9e4 a03a
00000040: 123e a73a 8861 87ba 9cf9 7cbb 59f0 4c3c
00000050: 9dc2 04bb a65d 123d 1327 21bd 28f9 173d
00000060: c70c d73b cae1 d43a 6ac7 2bbb c511 eabc
00000070: 3d0f 2bba f466 89bb f01f 2c3d f555 a5bd
0.02001904 0.010362741 -0.001650006 -0.07251797 -0.009938782 -0.00013485525 0.0005607817 -0.07721463
0.027310232 -0.0023968304 -0.00203863 0.0011053052 0.1642888 0.001934467 0.006682193 0.0012275252
0.0012759587 -0.0010328749 -0.0038600927 0.012508475 -0.00202576 0.03573384 -0.039343905 0.03710285
0.0065628025 0.0016241607 -0.002621139 -0.028572926 -0.0006525403 -0.004193181 0.042022645 -0.08073036

bn1.weight f4 [32]
00000000: 11eb a23f 3c27 783f ec2a 163f 8dbc 993f
00000010: a056 4e3f 6437 3e3f b498 2a3f 40af 9c3f
00000020: 4a2d 943f 58f6 2e3f c6c2 eb3e a15b 333f
00000030: e2a9 513f 8a72 273f 7930 1a3f 39b8 1b3f
00000040: 89ac 093f c44a 1f3f ef43 3d3f 6fad d63e
00000050: a634 0d3f 0417 9a3f b06b 753f 1ee7 993f
00000060: 2547 4c3f a8d8 1c3f 4fcd 1a3f 8fae 313f
00000070: bfed 183f 39bc 2c3f 9be6 503f b056 9c3f
1.2727987 0.96934867 0.58659244 1.2010666 0.8060093 0.7430327 0.66639256 1.2240982
1.1576321 0.6834464 0.46047038 0.7006169 0.81899846 0.6540915 0.60230213 0.60827976
0.5377889 0.6222346 0.73931783 0.41929194 0.5515846 1.2038274 0.95867443 1.2023656
0.7979606 0.6126809 0.60469526 0.6940698 0.5973777 0.67474705 0.81601876 1.2213955

bn1.bias f4 [32]
00000000: 0470 3bbf 6e28 e2bd 2108 32bf 5193 07bf
00000010: 5379 77bf 0f93 02bf fffe 31bf f32e 88be
00000020: aab9 b7be 9d8f 28bf 7e64 42bf 41c6 41bf
00000030: bcb4 87be 6101 b9be efc7 31bf 8175 4bbf
00000040: 1737 5abf a8fe 0bbf 6fad 3abf d26c 3abf
00000050: 3048 d9be 32dd 29bf d0bc 3dbf b2de a9be
00000060: 2fc2 10bf a527 9ebe 0904 edbe 75d4 ebbd
00000070: 4288 15bf d33a adbe 798c bcbe f425 a6be
-0.732178 -0.110428676 -0.69543654 -0.5295916 -0.966695 -0.51005644 -0.6952972 -0.2659832
-0.35883838 -0.65844136 -0.7593459 -0.75693136 -0.26505077 -0.36133865 -0.694457 -0.7947617
-0.8524031 -0.5468545 -0.7292089 -0.72822297 -0.42437887 -0.6635314 -0.7411623 -0.33177716
-0.565463 -0.3088962 -0.4629214 -0.11515132 -0.5841104 -0.33833942 -0.36825922 -0.3245083

bn1.running_mean f4 [32]
00000000: 99e3 0ac0 728b 87be 0847 7141 67cf f1bf
00000010: 64d3 8240 6c58 f640 9900 9941 ff2c 6ebf
00000020: d277 edbe ca29 be40 0284 ab41 657f 9340
00000030: 3b28 80bd bba9 6a41 e09f 6e41 f277 8241
00000040: 952a a341 3031 1741 f341 9040 32c4 7941
00000050: 68bc 4841 e12e 15c0 6589 1cc0 a2dd ef3e
00000060: 4061 52c0 1afc 2d41 e29d 2c41 ac65 99bd
00000070: e813 8f41 c99f 5541 2b33 743e 8902 67bf
-2.1701415 -0.26473576 15.079842 -1.8891419 4.0883045 7.6982937 19.125292 -0.9303741
-0.46380478 5.942601 21.439457 4.609301 -0.06257673 14.666438 14.914032 16.308567
20.395792 9.449509 4.5080504 15.610399 12.545998 -2.3309863 -2.445886 0.4684878
-3.2871857 10.874048 10.788546 -0.074900955 17.88472 13.35151 0.23847644 -0.90238243

bn1.running_var f4 [32]
00000000: 8e69 ad41 d47d 5141 fde1 fa43 746e b441
00000010: 555b 5a42 e762 2443 9a4a 4b44 23d8 ae41
00000020: d07a 5d41 26b7 0643 08a5 8344 12d0 d942
00000030: 69e3 a340 9f7c 0f44 3b07 0144 4538 1744
00000040: b72b 6c44 3f27 5943 a45b 8942 941b 0844
00000050: a500 b343 a78d cf41 91c3 8d41 a03b 1541
00000060: ca55 f341 b9f4 a343 e391 8a43 fc02 1d41
00000070: f1ee 3144 4a41 ee43 348e 9f40 91ec 4641
21.67654 13.09322 501.76553 22.553932 54.58919 164.38634 813.16565 21.855536
13.8424835 134.71542 1053.1572 108.90639 5.12151 573.9472 516.113 604.8792
944.68304 217.1533 68.678986 544.4309 358.00504 25.944166 17.720491 9.327057
30.41689 327.9119 277.13974 9.813229 711.73346 476.51007 4.986109 12.432755

conv2.weight f4 [64, 32, 7, 7]
00000000: a122 c9bd be05 ccbd c58b 48bd f4ab 0ebd
00000010: 8508 83be 75c2 4dbe f4e9 b9bd 14ed 14be
00000020: 76fb 09be c151 68be baeb 44be c294 4abe
00000030: 4e75 3ebe 5cdf 5abd a03a a13d b985 bfbd
00000040: 147f a53d b461 4ebd 7b29 88be 3079 4ebd
00000050: 4428 24bd 1b2a 913e 6450 eb3d 964a cebe
00000060: ad61 debe 07fb fdbe 4960 04bf 89d8 bc3d
00000070: 718d 8f3e 103f f43d e7fb 7f3e 25d9 7abc
00000080: a0ac 04be 914b a8bd c4cf 833e 6c67 823e
00000090: 3886 fb3d 2dc0 bf3d 1d04 803c 6dc5 803e
000000a0: cb7a 983d 5f3c 433e 6663 6abd 7cc1 95bd
000000b0: 35fe a13d 0f17 a2bc b79f 203d f6d3 ca3d
000000c0: 8027 833b 6f48 683e 400f 93bd b03d a93d
000000d0: 401b 08be f374 a43d 13f7 f3bd fc0d b8bd
000000e0: 0cd0 873d 1e37 d93b c946 2e3e dbaa bf39
000000f0: 6b75 3e3d 4cca 91bd 6061 293d ad62 84bb
00000100: 305f 46bd 2c75 4dbe 2df6 e2bd 6f75 3ebd
00000110: e392 3cbe f43f 49be fa56 15bd de32 033d
00000120: 5d1a 38bd 114a dbbc 2b34 d4bd c5d0 24bd
00000130: b415 b6bd 7bdd 05be 6d22 7d3e a069 dc3d
00000140: 5d6e bdbb e97e b03c a856 67be eeef 10be
00000150: 9f6c e83d e2f9 a43e b4d3 f13d e4a7 0f3d
00000160: 95f3 8f3c c2e9 bcbd 164c 893d c3d6 1ebe
00000170: 4b9d 42be c4d1 963c e77f 88bd 1870 4f3d
00000180: 51be 123e 292c 9f3d 4486 d53d f3dd c03b
00000190: 5388 6c3d 5f73 d23b b168 153d b9e2 b9bc
000001a0: 1128 453c 2287 0f3e 6af5 583d c621 f13d
000001b0: ec25 ab3d 5e2d ca3d fd2d 883c d697 9e3d
000001c0: 73ee 2d3d 5bee 953d 0eb7 a23d 7419 813d
000001d0: 887f d23c 593b 313d 4b16 6739 ae18 873d
000001e0: faad 723d 0420 9d3d b165 86bd 8e0c 27bd
000001f0: bb19 bbbc 265e 51bd 65fb bf3d 2344 0f3e
00000200: 4335 a03c 0327 12bd 6e3b 34bd 1397 b8bd
00000210: 65e3 90bc 79ea b23d bf82 203e 31a8 1b3e
00000220: 6da4 643d ab10 2f3d 2b64 273d b7db 843d
00000230: 67df 0b3e 29fd 1f3e 0acf cf3d 70dd eb3d
00000240: faa4 bb3d 09f9 be3d 2715 0b3e 3e7d e73c
00000250: a175 0ebe 4d87 ea3d 6959 11be ceec fbbd
00000260: 7ba6 cebc ba49 3cbd cfbc 1ebe 9032 c9bd
00000270: d260 d3bd 229d 52be dbb3 9ebe 1e58 33be
00000280: b224 fbbd 1a96 75bd a817 81bc 07c3 cbbc
00000290: a372 81be 4f5f 33be 7226 55be 6398 24be
000002a0: 5674 633e 0db8 a53e b4e0 52be a2db c0be
000002b0: 43cf bdbe 407c 81be aabc 1a3e 0808 203e
000002c0: 501a 593e 6005 be3d 9cd3 efbd d34d 0fbc
000002d0: 93d8 a73d 93d2 183e 65b4 4e3e 3555 043e
000002e0: de0e acbc f010 edbd 3f2d 8cbc 3278 0b3e
000002f0: a32d 343e c59d f33d b931 393e 1815 393d
00000300: 0c33 b3bc 9c35 383e 618d fa3d 727d 503e
00000310: bef5 babd da92 c0bd 72a7 0fbe 181e 9cbd
00000320: 2bed 00be 890a ecbd 7c8f c1bd 3115 4abd
00000330: de79 1dbd f9d5 6fbb d5c1 1dbd afb7 4abd
00000340: e3b6 9dbd 53dd eebc 0e6b 663d 9136 cd3d
00000350: 2a02 7a3d 8867 913b 55b3 343c 9a3e 383d
00000360: dd52 fa3c 62e8 063e 896b 923d 1cbd 223e
00000370: 26e5 5e3e aeb5 2a3e a760 4a3e 9e28 153e
00000380: 90c4 d2bd d6b0 01be fb35 39be 91c8 7cbe
00000390: 7a6e dfbd 3b71 c8bd e298 8fbe 8c9b 04bd
000003a0: b5c5 313d 7c0f 2fbd 235a cebc a933 12be
000003b0: 7cf7 cabd e875 65be dc9b ddbc dbac 0e3d
000003c0: b3ff 543d a89f 633c df00 afbd 70a7 233d
000003d0: 04c7 0fb9 db4e aebc d618 78bd e74c 993b
000003e0: 402f 3f3d 868f 27bd 34ab 55bc eb60 cbbc
000003f0: b9a4 a13d ebd5 68bb 6859 4d3d df7e d6bb
-0.09821058 -0.09962033 -0.04896142 -0.034831956 -0.25592437 -0.2009371 -0.09077826 -0.14543563
-0.13474831 -0.22687437 -0.19230548 -0.19783309 -0.18599436 -0.05343567 0.0787251 -0.093516774
0.08080879 -0.050386146 -0.26594147 -0.050408542 -0.040077463 0.28352436 0.11489943 -0.4029128
-0.43433896 -0.4960558 -0.5170942 0.09220988 0.280376 0.11926091 0.24998437 -0.01531056
-0.12956476 -0.08217538 0.2574445 0.2546953 0.122814596 0.093628265 0.015626961 0.25150624
0.07445296 0.19065998 -0.0572237 -0.07312295 0.07909814 -0.019786386 0.039214816 0.099037096
0.0040025115 0.22683881 -0.07180643 0.08263719 -0.13291645 0.08030119 -0.1191236 -0.08987042
0.06631479 0.006628885 0.1701919 0.00036557656 0.046498697 -0.07118663 0.04135263 -0.0040400834
-0.04843062 -0.20064229 -0.110821106 -0.046498712 -0.18415408 -0.19653302 -0.0364599 0.032030933
-0.044947017 -0.026768716 -0.10361513 -0.04023816 -0.08890858 -0.1307277 0.24720164 0.10762334
-0.0057809786 0.02154489 -0.2259165 -0.14154026 0.11348843 0.32221895 0.11807957 0.035072222
0.017572204 -0.09224273 0.06703965 -0.15511613 -0.19005315 0.01841057 -0.066650204 0.05064401
0.14330412 0.07772095 0.10426 0.0058858334 0.057747196 0.0064224447 0.036476795 -0.022691118
0.012033478 0.14016393 0.05296842 0.1177402 0.083568424 0.09871934 0.016623491 0.07743804
0.04246373 0.07320853 0.07945071 0.06303683 0.025695577 0.04326949 0.00022038181 0.06596504
0.05924795 0.07672122 -0.06562365 -0.040783457 -0.022839418 -0.051115178 0.093741216 0.13990836
0.019556647 -0.035681736 -0.04400199 -0.0901319 -0.017686555 0.08736128 0.15674876 0.15200879
0.05582087 0.042740505 0.040867012 0.0648722 0.1365944 0.15623917 0.101469114 0.11516845
0.09162326 0.093248434 0.13582288 0.028257962 -0.1391206 0.11451588 -0.14194264 -0.12301026
-0.025225868 -0.04596875 -0.15501712 -0.09824097 -0.103212014 -0.20567754 -0.30996594 -0.17514083
-0.122628585 -0.0599576 -0.01575835 -0.02487327 -0.25282773 -0.17516826 -0.20815447 -0.16073756
0.22212347 0.32366982 -0.2059353 -0.37667567 -0.3707219 -0.25290108 0.15111032 0.15628064
0.21201444 0.09278369 -0.11710283 -0.008746582 0.08195605 0.14924078 0.20186003 0.12923129
-0.021003183 -0.11575496 -0.017111419 0.1362007 0.17595534 0.118953265 0.18085374 0.045186132
-0.021874927 0.179892 0.12233997 0.20360354 -0.09128903 -0.0940301 -0.14028719 -0.076229274
-0.12590472 -0.11525447 -0.094511956 -0.049336616 -0.0384463 -0.0036596044 -0.03851493 -0.04949158
-0.077008985 -0.02915827 0.05625444 0.10020173 0.06103722 0.0044373907 0.011029084 0.044981577
0.03055709 0.13174585 0.07149417 0.15892452 0.217671 0.16670868 0.19763432 0.14566275
-0.102913976 -0.12665114 -0.18086998 -0.24685885 -0.109097436 -0.09787222 -0.28046328 -0.032374904
0.04340144 -0.042739376 -0.025189465 -0.1427752 -0.09910485 -0.22408259 -0.027051859 0.034832817
0.052001666 0.0138930455 -0.08545088 0.039954603 -0.00013711682 -0.021277836 -0.06057056 0.004678357
0.04667592 -0.04090836 -0.013041306 -0.024826488 0.078927465 -0.0035527896 0.050134093 -0.006545886

conv2.bias f4 [64]
00000000: 2bae 20ba 453a 98bb 0620 57bc cf2a 9dbb
00000010: d098 0fbb b426 ea39 698e 6a3b c0ef 9f3b
00000020: 2948 893a 2648 83bb f462 e8ba dbb3 9abb
00000030: 3f72 fbb9 0ad7 a939 40a9 db3a 0f97 aa39
00000040: 4f28 85ba 1e2e b0ba c708 303b fdbb a73a
00000050: 41ac 14bb c34a 93b9 606c 8739 e81b d2ba
00000060: 2aed c4bb 254c c5ba a701 f9bb 9212 523b
00000070: 6445 beba ae27 49ba 3edb 88bb 2b80 963b
00000080: 130d 4438 d845 5cbc ac50 c6bb 1dc8 8dbb
00000090: a260 d73a 40fd c939 d793 fa3a 27ca a9bb
000000a0: ff70 3fbb 412a 663b da9e 7bbb dda5 b7bb
000000b0: bc9b a5ba 6dcb 6bbb c6da c0ba 11a2 3c3b
000000c0: 22d7 94b9 db6e 02bc 5510 83ba 0fb7 85bc
000000d0: 932a 9dbb 75f8 8fb8 e50e d8bb b46c aabc
000000e0: aaa2 9c3b 6ddc 933b fc96 e2b9 0c0a b0bb
000000f0: d8e3 e5bb 78dd af3b 14f7 06bb a561 a6ba
-0.00061294687 -0.004645618 -0.013130194 -0.004796363 -0.0021911152 0.00044660794 0.003579045 0.0048808753
0.0010473776 -0.0040064035 -0.0017729686 -0.0047211475 -0.0004795957 0.00032394408 0.0016758814 0.00032537474
-0.0010159108 -0.0013441478 0.00268607 0.0012797114 -0.002268568 -0.00028093727 0.00025829952 -0.0016030045
-0.0060097175 -0.00150526 -0.007599074 0.0032054526 -0.001451653 -0.0007673454 -0.0041765263 0.0045929155
4.6742218e-05 -0.013444386 -0.0060520973 -0.004326834 0.0016431997 0.00038526393 0.0019117546 -0.005181569
-0.0029211638 0.00351204 -0.0038394243 -0.0056044892 -0.0012634913 -0.0035979406 -0.0014713637 0.0028783123
-0.00028389046 -0.007961 -0.0009999374 -0.01632264 -0.004796335 -6.86505e-05 -0.0065935724 -0.020803787
0.0047801333 0.004512361 -0.0004321857 -0.0053722914 -0.0070156865 0.0053669773 -0.0020594047 -0.0012693895

bn2.weight f4 [64]
00000000: 5ce0 953f 0fed b73f 5ab4 c13f 25a5 8b3f
00000010: d270 8f3f 05f3 b03f e001 cb3f c4ca b93f
00000020: 840f d23f c3f0 9b3f fa84 ae3f c1b5 993f
00000030: 5c30 bc3f b610 af3f af95 6f3f 1638 a53f
00000040: bd39 cc3f 775c b73f 2821 cd3f 0dcd c73f
00000050: ae22 ad3f 2d14 503f bc78 c43f 96dd b63f
00000060: e685 a93f 4314 b43f de02 cf3f 7787 6a3f
00000070: 5009 c93f 81b2 863f 2a95 ab3f 3de2 623f
00000080: 8dcd ad3f 553b e73f f242 b53f 6352 843f
00000090: 77fa 953f f8da ab3f 3373 b63f 882f 9f3f
000000a0: becc ac3f acca c93f 9935 a33f 2a4a 993f
000000b0: b9d0 ba3f d63c a23f 7170 913f c2f2 c23f
000000c0: 33f3 883f 41ba a33f 260d d53f e3ed 903f
000000d0: bf94 eb3f a15b 923f ad88 9f3f f644 a63f
000000e0: 7219 d23f e543 d33f cc44 ac3f 8f7e c23f
000000f0: 81f4 c63f 96ec b93f 76aa 9e3f fb53 813f
1.1709094 1.436922 1.5133164 1.0909773 1.1206305 1.3824164 1.5859947 1.4515004
1.6410985 1.218285 1.3634331 1.2008592 1.4702258 1.3676975 0.93587774 1.2907741
1.595512 1.4325093 1.6025743 1.5609452 1.3526208 0.81280786 1.5349345 1.4286373
1.3243988 1.4068683 1.617275 0.9161295 1.5705967 1.0523225 1.3404896 0.8862646
1.3578354 1.8064982 1.4161055 1.0337642 1.1717061 1.3426199 1.4253906 1.243638
1.3499982 1.5764976 1.2750732 1.1975758 1.4594947 1.2674816 1.1362439 1.5230334
1.0699219 1.2791215 1.6644638 1.1322597 1.8404769 1.1434213 1.2463585 1.2989795
1.6414015 1.6505095 1.3458495 1.5194873 1.5543367 1.4525325 1.239577 1.0103754

bn2.bias f4 [64]
00000000: 987c 4bbf 11cd 3ebf 951d 86bf 4769 10bf
00000010: f3ea 01bf 40f0 debe 1445 69bf b602 7dbf
00000020: 31e2 cfbe d886 81bf dd49 f7be 7324 0fbf
00000030: 1213 2dbf 3fca 23bf 483c eabe b7c9 35bf
00000040: 15f0 79bf 7712 62bf f0fd 60bf 98b0 81bf
00000050: 4ce8 34bf 8f6c 39bf 8dc5 51bf de5b 23bf
00000060: 9358 29bf 36cf 4abf de8b 2cbf 84ef 09bf
00000070: b3f4 02bf b742 f6be 1527 0ebf 0346 36bf
00000080: 6c83 01bf 3940 07bf 88bd 37bf 0c27 22bf
00000090: 316e d4be 59f0 27bf 3f63 25bf 4c62 14bf
000000a0: f8fb ebbe 7b92 87bf 12f7 52bf 4359 f6be
000000b0: 652f e3be b530 21bf 81e8 7bbe 5772 16bf
000000c0: de16 fbbe cbda 1fbf 4c1d 35bf 2658 37bf
000000d0: f485 39bf 602d 3ebf 8438 0dbf edbb 9fbf
000000e0: fdaf 27bf fcbe 0fbf d4f2 2bbf 9931 8abf
000000f0: 1527 80bf 0856 0bbf cd9c 04bf 252e 59bf
-0.7948699 -0.74531657 -1.0477778 -0.5641064 -0.5074913 -0.4354267 -0.9112103 -0.9883226
-0.40602258 -1.0119276 -0.4829854 -0.5591499 -0.67607224 -0.6398048 -0.45749116 -0.7101092
-0.9763196 -0.88309425 -0.8788748 -1.0132017 -0.70666957 -0.7243127 -0.81942064 -0.63812053
-0.6615078 -0.7922243 -0.6740092 -0.53881097 -0.5115463 -0.48097774 -0.55528384 -0.7120058
-0.5059116 -0.5283237 -0.71773577 -0.6334083 -0.4149032 -0.65601116 -0.6460456 -0.5796249
-0.46090674 -1.0591577 -0.8240825 -0.48114976 -0.44372097 -0.62964946 -0.24600412 -0.5876822
-0.49040884 -0.62443227 -0.7074783 -0.7161888 -0.7247002 -0.74287987 -0.5516436 -1.2479225
-0.6550291 -0.56150794 -0.671674 -1.0796386 -1.0011927 -0.5442815 -0.5180176 -0.84836036

bn2.running_mean f4 [64]
00000000: 7758 00c1 e1c2 61c0 e0c6 02c0 ecc8 57c0
00000010: 6208 453f 4c28 67c1 1f44 fec0 4b81 74c0
00000020: d58d 3ec1 96d1 a2c0 8ba2 1cc1 31fc 2ac0
00000030: ca3b c6c0 8098 cfc0 9a64 58c1 a7b9 9ec0
00000040: af4d c9c0 c1ed 42bf 8732 b3c0 b793 2bc1
00000050: b94e 91c0 3454 a840 7143 46c0 f98f c6c0
00000060: 529e 04c0 d29e 66c0 655f 2ac1 f49a 8c3f
00000070: d4c0 b7c0 d907 2d40 5374 23c1 4b83 ebbf
00000080: 832d 7ac0 d830 9dbf 3f79 22c1 9248 8fbe
00000090: fbeb b5bf bf5e 80c0 89f3 7ec0 10f5 d4c0
000000a0: 5209 91c0 7fbe f2c0 c206 61c0 fc63 74c0
000000b0: e21d 67c0 adbb 2abf bf95 41c1 addb 0fc1
000000c0: 413c 88c0 4492 cac0 9c24 87c0 f90a 6dc0
000000d0: 4117 2ac1 49e9 26c0 a49e acc0 8782 a5c0
000000e0: 01c5 16c1 411e 4ec0 3aec 1ac0 a4db 5ec0
000000f0: f765 7ec0 74c8 62c0 2ead c5bd e7ed 27c0
-8.021598 -3.5275195 -2.0433884 -3.3716383 0.76965916 -14.447338 -7.9458156 -3.8203914
-11.909627 -5.088084 -9.789683 -2.6716425 -6.1947985 -6.4873657 -13.524561 -4.9601626
-6.290733 -0.76144034 -5.599918 -10.723563 -4.5408597 5.2602787 -3.0978663 -6.205075
-2.072163 -3.6034436 -10.64829 1.0984788 -5.7422886 2.703604 -10.215899 -1.8399442
-3.9090278 -1.2280531 -10.154601 -0.27985054 -1.421264 -4.0115657 -3.9836142 -6.654915
-4.5323877 -7.585754 -3.5160375 -3.8186026 -3.611199 -0.6669262 -12.099059 -8.991132
-4.257355 -6.3303547 -4.223219 -3.7037947 -10.630677 -2.6079886 -5.3943653 -5.1721835
-9.423097 -3.2205966 -2.4206681 -3.4821558 -3.9749734 -3.5434847 -0.09652172 -2.6238954

bn2.running_var f4 [64]
00000000: 47a0 3142 a927 a842 ba93 2242 e4d4 2c42
00000010: 50cc 5c42 01be b642 55db b742 19ae e041
00000020: b6b3 5543 3c4b 5542 96bc eb42 ddad 0442
00000030: 0a57 8e42 6d8a b542 f612 a242 0a2a 5e42
00000040: c1fc a242 8f8c 0442 06f3 b542 84e6 b442
00000050: 8a1a 8542 4334 6242 5720 4242 42c4 bf42
00000060: b962 2e42 0f59 ad42 1157 a542 9e8b 2842
00000070: 106e 2742 be97 8242 211a 4742 4ed0 a141
00000080: 4e0c 5542 5824 e841 cc3d 9d42 4536 2b42
00000090: 181b 7442 cbb8 8942 5405 3d42 0855 3442
000000a0: 14d0 b642 4e3a 4a42 5a3d 2242 2e51 9242
000000b0: 4e95 8d42 9d4b 3842 0b11 0743 571d 9542
000000c0: 44fc 9a42 1f20 4c42 dd1d 2542 1aff 9141
000000d0: 9865 cc42 a406 ff41 937e 4242 2441 0f42
000000e0: ac88 d142 d864 2c42 b424 3042 620e 3d42
000000f0: 001a ea41 af33 5942 bb0e 1742 5bb5 0a42
44.40652 84.07746 40.644264 43.2079 55.199524 91.3711 91.92838 28.085009
213.702 53.32347 117.86833 33.16979 71.17 90.77036 81.03703 55.541054
81.49366 33.137264 90.974655 90.450226 66.551834 56.551037 48.53158 95.883316
43.59641 86.67394 82.67005 42.136345 41.857483 65.29637 49.775517 20.226711
53.262016 29.017746 78.6207 42.802998 61.02646 68.86092 47.255203 45.08304
91.4064 50.55694 40.559914 73.158554 70.79161 46.07384 135.06657 74.557304
77.49271 51.03137 41.279163 18.249561 102.198425 31.878242 48.623608 35.813614
104.76694 43.09848 44.035843 47.264046 29.262695 54.300472 37.764385 34.677105
